<?xml version="1.0" ?>
<net batch="1" name="SENet_Digit-1000" version="4">
	<layers>
		<layer id="0" name="inputs" precision="FP32" type="Input">
			<output>
				<port id="0">
					<dim>1</dim>
					<dim>3</dim>
					<dim>28</dim>
					<dim>28</dim>
				</port>
			</output>
		</layer>
		<layer id="1" name="Conv/Conv2D" precision="FP32" type="Convolution">
			<data auto_pad="same_upper" dilations="1,1" group="1" kernel="3,3" output="64" pads_begin="0,0" pads_end="1,1" strides="2,2"/>
			<input>
				<port id="0">
					<dim>1</dim>
					<dim>3</dim>
					<dim>28</dim>
					<dim>28</dim>
				</port>
			</input>
			<output>
				<port id="3">
					<dim>1</dim>
					<dim>64</dim>
					<dim>14</dim>
					<dim>14</dim>
				</port>
			</output>
			<blobs>
				<weights offset="0" size="6912"/>
				<biases offset="6912" size="256"/>
			</blobs>
		</layer>
		<layer id="2" name="Conv/Relu" precision="FP32" type="ReLU">
			<input>
				<port id="0">
					<dim>1</dim>
					<dim>64</dim>
					<dim>14</dim>
					<dim>14</dim>
				</port>
			</input>
			<output>
				<port id="1">
					<dim>1</dim>
					<dim>64</dim>
					<dim>14</dim>
					<dim>14</dim>
				</port>
			</output>
		</layer>
		<layer id="3" name="unit1_0/branch_0/1x1conv/Conv2D" precision="FP32" type="Convolution">
			<data auto_pad="same_upper" dilations="1,1" group="1" kernel="1,1" output="16" pads_begin="0,0" pads_end="0,0" strides="1,1"/>
			<input>
				<port id="0">
					<dim>1</dim>
					<dim>64</dim>
					<dim>14</dim>
					<dim>14</dim>
				</port>
			</input>
			<output>
				<port id="3">
					<dim>1</dim>
					<dim>16</dim>
					<dim>14</dim>
					<dim>14</dim>
				</port>
			</output>
			<blobs>
				<weights offset="7168" size="4096"/>
				<biases offset="11264" size="64"/>
			</blobs>
		</layer>
		<layer id="4" name="unit1_0/branch_0/1x1conv/Relu" precision="FP32" type="ReLU">
			<input>
				<port id="0">
					<dim>1</dim>
					<dim>16</dim>
					<dim>14</dim>
					<dim>14</dim>
				</port>
			</input>
			<output>
				<port id="1">
					<dim>1</dim>
					<dim>16</dim>
					<dim>14</dim>
					<dim>14</dim>
				</port>
			</output>
		</layer>
		<layer id="5" name="Mul1_7516/Fused_Mul_/FusedScaleShift_" precision="FP32" type="ScaleShift">
			<input>
				<port id="0">
					<dim>1</dim>
					<dim>16</dim>
					<dim>14</dim>
					<dim>14</dim>
				</port>
			</input>
			<output>
				<port id="3">
					<dim>1</dim>
					<dim>16</dim>
					<dim>14</dim>
					<dim>14</dim>
				</port>
			</output>
			<blobs>
				<weights offset="11328" size="64"/>
				<biases offset="11392" size="64"/>
			</blobs>
		</layer>
		<layer id="6" name="unit1_0/branch_0/Conv/Conv2D" precision="FP32" type="Convolution">
			<data auto_pad="same_upper" dilations="1,1" group="1" kernel="3,3" output="16" pads_begin="1,1" pads_end="1,1" strides="1,1"/>
			<input>
				<port id="0">
					<dim>1</dim>
					<dim>16</dim>
					<dim>14</dim>
					<dim>14</dim>
				</port>
			</input>
			<output>
				<port id="3">
					<dim>1</dim>
					<dim>16</dim>
					<dim>14</dim>
					<dim>14</dim>
				</port>
			</output>
			<blobs>
				<weights offset="11456" size="9216"/>
				<biases offset="20672" size="64"/>
			</blobs>
		</layer>
		<layer id="7" name="unit1_0/branch_0/Conv/Relu" precision="FP32" type="ReLU">
			<input>
				<port id="0">
					<dim>1</dim>
					<dim>16</dim>
					<dim>14</dim>
					<dim>14</dim>
				</port>
			</input>
			<output>
				<port id="1">
					<dim>1</dim>
					<dim>16</dim>
					<dim>14</dim>
					<dim>14</dim>
				</port>
			</output>
		</layer>
		<layer id="8" name="Mul1_6904/Fused_Mul_/FusedScaleShift_" precision="FP32" type="ScaleShift">
			<input>
				<port id="0">
					<dim>1</dim>
					<dim>16</dim>
					<dim>14</dim>
					<dim>14</dim>
				</port>
			</input>
			<output>
				<port id="3">
					<dim>1</dim>
					<dim>16</dim>
					<dim>14</dim>
					<dim>14</dim>
				</port>
			</output>
			<blobs>
				<weights offset="20736" size="64"/>
				<biases offset="20800" size="64"/>
			</blobs>
		</layer>
		<layer id="9" name="unit1_0/branch_1/1x1conv/Conv2D" precision="FP32" type="Convolution">
			<data auto_pad="same_upper" dilations="1,1" group="1" kernel="1,1" output="16" pads_begin="0,0" pads_end="0,0" strides="1,1"/>
			<input>
				<port id="0">
					<dim>1</dim>
					<dim>64</dim>
					<dim>14</dim>
					<dim>14</dim>
				</port>
			</input>
			<output>
				<port id="3">
					<dim>1</dim>
					<dim>16</dim>
					<dim>14</dim>
					<dim>14</dim>
				</port>
			</output>
			<blobs>
				<weights offset="20864" size="4096"/>
				<biases offset="24960" size="64"/>
			</blobs>
		</layer>
		<layer id="10" name="unit1_0/branch_1/1x1conv/Relu" precision="FP32" type="ReLU">
			<input>
				<port id="0">
					<dim>1</dim>
					<dim>16</dim>
					<dim>14</dim>
					<dim>14</dim>
				</port>
			</input>
			<output>
				<port id="1">
					<dim>1</dim>
					<dim>16</dim>
					<dim>14</dim>
					<dim>14</dim>
				</port>
			</output>
		</layer>
		<layer id="11" name="Mul1_7678/Fused_Mul_/FusedScaleShift_" precision="FP32" type="ScaleShift">
			<input>
				<port id="0">
					<dim>1</dim>
					<dim>16</dim>
					<dim>14</dim>
					<dim>14</dim>
				</port>
			</input>
			<output>
				<port id="3">
					<dim>1</dim>
					<dim>16</dim>
					<dim>14</dim>
					<dim>14</dim>
				</port>
			</output>
			<blobs>
				<weights offset="25024" size="64"/>
				<biases offset="25088" size="64"/>
			</blobs>
		</layer>
		<layer id="12" name="unit1_0/branch_1/Conv/Conv2D" precision="FP32" type="Convolution">
			<data auto_pad="same_upper" dilations="1,1" group="1" kernel="3,3" output="16" pads_begin="1,1" pads_end="1,1" strides="1,1"/>
			<input>
				<port id="0">
					<dim>1</dim>
					<dim>16</dim>
					<dim>14</dim>
					<dim>14</dim>
				</port>
			</input>
			<output>
				<port id="3">
					<dim>1</dim>
					<dim>16</dim>
					<dim>14</dim>
					<dim>14</dim>
				</port>
			</output>
			<blobs>
				<weights offset="25152" size="9216"/>
				<biases offset="34368" size="64"/>
			</blobs>
		</layer>
		<layer id="13" name="unit1_0/branch_1/Conv/Relu" precision="FP32" type="ReLU">
			<input>
				<port id="0">
					<dim>1</dim>
					<dim>16</dim>
					<dim>14</dim>
					<dim>14</dim>
				</port>
			</input>
			<output>
				<port id="1">
					<dim>1</dim>
					<dim>16</dim>
					<dim>14</dim>
					<dim>14</dim>
				</port>
			</output>
		</layer>
		<layer id="14" name="Mul1_7417/Fused_Mul_/FusedScaleShift_" precision="FP32" type="ScaleShift">
			<input>
				<port id="0">
					<dim>1</dim>
					<dim>16</dim>
					<dim>14</dim>
					<dim>14</dim>
				</port>
			</input>
			<output>
				<port id="3">
					<dim>1</dim>
					<dim>16</dim>
					<dim>14</dim>
					<dim>14</dim>
				</port>
			</output>
			<blobs>
				<weights offset="34432" size="64"/>
				<biases offset="34496" size="64"/>
			</blobs>
		</layer>
		<layer id="15" name="unit1_0/concat" precision="FP32" type="Concat">
			<data axis="1"/>
			<input>
				<port id="0">
					<dim>1</dim>
					<dim>16</dim>
					<dim>14</dim>
					<dim>14</dim>
				</port>
				<port id="1">
					<dim>1</dim>
					<dim>16</dim>
					<dim>14</dim>
					<dim>14</dim>
				</port>
			</input>
			<output>
				<port id="2">
					<dim>1</dim>
					<dim>32</dim>
					<dim>14</dim>
					<dim>14</dim>
				</port>
			</output>
		</layer>
		<layer id="16" name="unit1_0/Conv/Conv2D" precision="FP32" type="Convolution">
			<data auto_pad="same_upper" dilations="1,1" group="1" kernel="1,1" output="64" pads_begin="0,0" pads_end="0,0" strides="1,1"/>
			<input>
				<port id="0">
					<dim>1</dim>
					<dim>32</dim>
					<dim>14</dim>
					<dim>14</dim>
				</port>
			</input>
			<output>
				<port id="3">
					<dim>1</dim>
					<dim>64</dim>
					<dim>14</dim>
					<dim>14</dim>
				</port>
			</output>
			<blobs>
				<weights offset="34560" size="8192"/>
				<biases offset="42752" size="256"/>
			</blobs>
		</layer>
		<layer id="17" name="unit1_0/Conv/Relu" precision="FP32" type="ReLU">
			<input>
				<port id="0">
					<dim>1</dim>
					<dim>64</dim>
					<dim>14</dim>
					<dim>14</dim>
				</port>
			</input>
			<output>
				<port id="1">
					<dim>1</dim>
					<dim>64</dim>
					<dim>14</dim>
					<dim>14</dim>
				</port>
			</output>
		</layer>
		<layer id="18" name="unit1_0/SE_Moudle/global_avg_pooling" precision="FP32" type="Pooling">
			<data exclude-pad="true" kernel="14,14" pads_begin="0,0" pads_end="0,0" pool-method="avg" rounding-type="ceil" strides="1,1"/>
			<input>
				<port id="0">
					<dim>1</dim>
					<dim>64</dim>
					<dim>14</dim>
					<dim>14</dim>
				</port>
			</input>
			<output>
				<port id="1">
					<dim>1</dim>
					<dim>64</dim>
					<dim>1</dim>
					<dim>1</dim>
				</port>
			</output>
		</layer>
		<layer id="19" name="unit1_0/SE_Moudle/dim_decrease/Conv2D" precision="FP32" type="Convolution">
			<data auto_pad="same_upper" dilations="1,1" group="1" kernel="1,1" output="4" pads_begin="0,0" pads_end="0,0" strides="1,1"/>
			<input>
				<port id="0">
					<dim>1</dim>
					<dim>64</dim>
					<dim>1</dim>
					<dim>1</dim>
				</port>
			</input>
			<output>
				<port id="3">
					<dim>1</dim>
					<dim>4</dim>
					<dim>1</dim>
					<dim>1</dim>
				</port>
			</output>
			<blobs>
				<weights offset="43008" size="1024"/>
				<biases offset="44032" size="16"/>
			</blobs>
		</layer>
		<layer id="20" name="unit1_0/SE_Moudle/dim_decrease/Relu" precision="FP32" type="ReLU">
			<input>
				<port id="0">
					<dim>1</dim>
					<dim>4</dim>
					<dim>1</dim>
					<dim>1</dim>
				</port>
			</input>
			<output>
				<port id="1">
					<dim>1</dim>
					<dim>4</dim>
					<dim>1</dim>
					<dim>1</dim>
				</port>
			</output>
		</layer>
		<layer id="21" name="unit1_0/SE_Moudle/dim_increase/Conv2D" precision="FP32" type="Convolution">
			<data auto_pad="same_upper" dilations="1,1" group="1" kernel="1,1" output="64" pads_begin="0,0" pads_end="0,0" strides="1,1"/>
			<input>
				<port id="0">
					<dim>1</dim>
					<dim>4</dim>
					<dim>1</dim>
					<dim>1</dim>
				</port>
			</input>
			<output>
				<port id="3">
					<dim>1</dim>
					<dim>64</dim>
					<dim>1</dim>
					<dim>1</dim>
				</port>
			</output>
			<blobs>
				<weights offset="44048" size="1024"/>
				<biases offset="45072" size="256"/>
			</blobs>
		</layer>
		<layer id="22" name="unit1_0/SE_Moudle/dim_increase/Sigmoid" precision="FP32" type="Activation">
			<data type="sigmoid"/>
			<input>
				<port id="0">
					<dim>1</dim>
					<dim>64</dim>
					<dim>1</dim>
					<dim>1</dim>
				</port>
			</input>
			<output>
				<port id="1">
					<dim>1</dim>
					<dim>64</dim>
					<dim>1</dim>
					<dim>1</dim>
				</port>
			</output>
		</layer>
		<layer id="23" name="unit1_0/SE_Moudle/mul/Broadcast/" precision="FP32" type="Tile">
			<data axis="2" tiles="14"/>
			<input>
				<port id="0">
					<dim>1</dim>
					<dim>64</dim>
					<dim>1</dim>
					<dim>1</dim>
				</port>
			</input>
			<output>
				<port id="1">
					<dim>1</dim>
					<dim>64</dim>
					<dim>14</dim>
					<dim>1</dim>
				</port>
			</output>
		</layer>
		<layer id="24" name="unit1_0/SE_Moudle/mul/Broadcast/8731" precision="FP32" type="Tile">
			<data axis="3" tiles="14"/>
			<input>
				<port id="0">
					<dim>1</dim>
					<dim>64</dim>
					<dim>14</dim>
					<dim>1</dim>
				</port>
			</input>
			<output>
				<port id="1">
					<dim>1</dim>
					<dim>64</dim>
					<dim>14</dim>
					<dim>14</dim>
				</port>
			</output>
		</layer>
		<layer id="25" name="unit1_0/SE_Moudle/mul" precision="FP32" type="Eltwise">
			<data operation="mul"/>
			<input>
				<port id="0">
					<dim>1</dim>
					<dim>64</dim>
					<dim>14</dim>
					<dim>14</dim>
				</port>
				<port id="1">
					<dim>1</dim>
					<dim>64</dim>
					<dim>14</dim>
					<dim>14</dim>
				</port>
			</input>
			<output>
				<port id="2">
					<dim>1</dim>
					<dim>64</dim>
					<dim>14</dim>
					<dim>14</dim>
				</port>
			</output>
		</layer>
		<layer id="26" name="unit1_0/add" precision="FP32" type="Eltwise">
			<data operation="sum"/>
			<input>
				<port id="0">
					<dim>1</dim>
					<dim>64</dim>
					<dim>14</dim>
					<dim>14</dim>
				</port>
				<port id="1">
					<dim>1</dim>
					<dim>64</dim>
					<dim>14</dim>
					<dim>14</dim>
				</port>
			</input>
			<output>
				<port id="2">
					<dim>1</dim>
					<dim>64</dim>
					<dim>14</dim>
					<dim>14</dim>
				</port>
			</output>
		</layer>
		<layer id="27" name="unit1_0/Addition_relu" precision="FP32" type="ReLU">
			<input>
				<port id="0">
					<dim>1</dim>
					<dim>64</dim>
					<dim>14</dim>
					<dim>14</dim>
				</port>
			</input>
			<output>
				<port id="1">
					<dim>1</dim>
					<dim>64</dim>
					<dim>14</dim>
					<dim>14</dim>
				</port>
			</output>
		</layer>
		<layer id="28" name="unit1_1/branch_0/1x1conv/Conv2D" precision="FP32" type="Convolution">
			<data auto_pad="same_upper" dilations="1,1" group="1" kernel="1,1" output="16" pads_begin="0,0" pads_end="0,0" strides="1,1"/>
			<input>
				<port id="0">
					<dim>1</dim>
					<dim>64</dim>
					<dim>14</dim>
					<dim>14</dim>
				</port>
			</input>
			<output>
				<port id="3">
					<dim>1</dim>
					<dim>16</dim>
					<dim>14</dim>
					<dim>14</dim>
				</port>
			</output>
			<blobs>
				<weights offset="45328" size="4096"/>
				<biases offset="49424" size="64"/>
			</blobs>
		</layer>
		<layer id="29" name="unit1_1/branch_0/1x1conv/Relu" precision="FP32" type="ReLU">
			<input>
				<port id="0">
					<dim>1</dim>
					<dim>16</dim>
					<dim>14</dim>
					<dim>14</dim>
				</port>
			</input>
			<output>
				<port id="1">
					<dim>1</dim>
					<dim>16</dim>
					<dim>14</dim>
					<dim>14</dim>
				</port>
			</output>
		</layer>
		<layer id="30" name="Mul1_7363/Fused_Mul_/FusedScaleShift_" precision="FP32" type="ScaleShift">
			<input>
				<port id="0">
					<dim>1</dim>
					<dim>16</dim>
					<dim>14</dim>
					<dim>14</dim>
				</port>
			</input>
			<output>
				<port id="3">
					<dim>1</dim>
					<dim>16</dim>
					<dim>14</dim>
					<dim>14</dim>
				</port>
			</output>
			<blobs>
				<weights offset="49488" size="64"/>
				<biases offset="49552" size="64"/>
			</blobs>
		</layer>
		<layer id="31" name="unit1_1/branch_0/Conv/Conv2D" precision="FP32" type="Convolution">
			<data auto_pad="same_upper" dilations="1,1" group="1" kernel="3,3" output="16" pads_begin="1,1" pads_end="1,1" strides="1,1"/>
			<input>
				<port id="0">
					<dim>1</dim>
					<dim>16</dim>
					<dim>14</dim>
					<dim>14</dim>
				</port>
			</input>
			<output>
				<port id="3">
					<dim>1</dim>
					<dim>16</dim>
					<dim>14</dim>
					<dim>14</dim>
				</port>
			</output>
			<blobs>
				<weights offset="49616" size="9216"/>
				<biases offset="58832" size="64"/>
			</blobs>
		</layer>
		<layer id="32" name="unit1_1/branch_0/Conv/Relu" precision="FP32" type="ReLU">
			<input>
				<port id="0">
					<dim>1</dim>
					<dim>16</dim>
					<dim>14</dim>
					<dim>14</dim>
				</port>
			</input>
			<output>
				<port id="1">
					<dim>1</dim>
					<dim>16</dim>
					<dim>14</dim>
					<dim>14</dim>
				</port>
			</output>
		</layer>
		<layer id="33" name="Mul1_7885/Fused_Mul_/FusedScaleShift_" precision="FP32" type="ScaleShift">
			<input>
				<port id="0">
					<dim>1</dim>
					<dim>16</dim>
					<dim>14</dim>
					<dim>14</dim>
				</port>
			</input>
			<output>
				<port id="3">
					<dim>1</dim>
					<dim>16</dim>
					<dim>14</dim>
					<dim>14</dim>
				</port>
			</output>
			<blobs>
				<weights offset="58896" size="64"/>
				<biases offset="58960" size="64"/>
			</blobs>
		</layer>
		<layer id="34" name="unit1_1/branch_1/1x1conv/Conv2D" precision="FP32" type="Convolution">
			<data auto_pad="same_upper" dilations="1,1" group="1" kernel="1,1" output="16" pads_begin="0,0" pads_end="0,0" strides="1,1"/>
			<input>
				<port id="0">
					<dim>1</dim>
					<dim>64</dim>
					<dim>14</dim>
					<dim>14</dim>
				</port>
			</input>
			<output>
				<port id="3">
					<dim>1</dim>
					<dim>16</dim>
					<dim>14</dim>
					<dim>14</dim>
				</port>
			</output>
			<blobs>
				<weights offset="59024" size="4096"/>
				<biases offset="63120" size="64"/>
			</blobs>
		</layer>
		<layer id="35" name="unit1_1/branch_1/1x1conv/Relu" precision="FP32" type="ReLU">
			<input>
				<port id="0">
					<dim>1</dim>
					<dim>16</dim>
					<dim>14</dim>
					<dim>14</dim>
				</port>
			</input>
			<output>
				<port id="1">
					<dim>1</dim>
					<dim>16</dim>
					<dim>14</dim>
					<dim>14</dim>
				</port>
			</output>
		</layer>
		<layer id="36" name="Mul1_7102/Fused_Mul_/FusedScaleShift_" precision="FP32" type="ScaleShift">
			<input>
				<port id="0">
					<dim>1</dim>
					<dim>16</dim>
					<dim>14</dim>
					<dim>14</dim>
				</port>
			</input>
			<output>
				<port id="3">
					<dim>1</dim>
					<dim>16</dim>
					<dim>14</dim>
					<dim>14</dim>
				</port>
			</output>
			<blobs>
				<weights offset="63184" size="64"/>
				<biases offset="63248" size="64"/>
			</blobs>
		</layer>
		<layer id="37" name="unit1_1/branch_1/Conv/Conv2D" precision="FP32" type="Convolution">
			<data auto_pad="same_upper" dilations="1,1" group="1" kernel="3,3" output="16" pads_begin="1,1" pads_end="1,1" strides="1,1"/>
			<input>
				<port id="0">
					<dim>1</dim>
					<dim>16</dim>
					<dim>14</dim>
					<dim>14</dim>
				</port>
			</input>
			<output>
				<port id="3">
					<dim>1</dim>
					<dim>16</dim>
					<dim>14</dim>
					<dim>14</dim>
				</port>
			</output>
			<blobs>
				<weights offset="63312" size="9216"/>
				<biases offset="72528" size="64"/>
			</blobs>
		</layer>
		<layer id="38" name="unit1_1/branch_1/Conv/Relu" precision="FP32" type="ReLU">
			<input>
				<port id="0">
					<dim>1</dim>
					<dim>16</dim>
					<dim>14</dim>
					<dim>14</dim>
				</port>
			</input>
			<output>
				<port id="1">
					<dim>1</dim>
					<dim>16</dim>
					<dim>14</dim>
					<dim>14</dim>
				</port>
			</output>
		</layer>
		<layer id="39" name="Mul1_7273/Fused_Mul_/FusedScaleShift_" precision="FP32" type="ScaleShift">
			<input>
				<port id="0">
					<dim>1</dim>
					<dim>16</dim>
					<dim>14</dim>
					<dim>14</dim>
				</port>
			</input>
			<output>
				<port id="3">
					<dim>1</dim>
					<dim>16</dim>
					<dim>14</dim>
					<dim>14</dim>
				</port>
			</output>
			<blobs>
				<weights offset="72592" size="64"/>
				<biases offset="72656" size="64"/>
			</blobs>
		</layer>
		<layer id="40" name="unit1_1/concat" precision="FP32" type="Concat">
			<data axis="1"/>
			<input>
				<port id="0">
					<dim>1</dim>
					<dim>16</dim>
					<dim>14</dim>
					<dim>14</dim>
				</port>
				<port id="1">
					<dim>1</dim>
					<dim>16</dim>
					<dim>14</dim>
					<dim>14</dim>
				</port>
			</input>
			<output>
				<port id="2">
					<dim>1</dim>
					<dim>32</dim>
					<dim>14</dim>
					<dim>14</dim>
				</port>
			</output>
		</layer>
		<layer id="41" name="unit1_1/Conv/Conv2D" precision="FP32" type="Convolution">
			<data auto_pad="same_upper" dilations="1,1" group="1" kernel="1,1" output="64" pads_begin="0,0" pads_end="0,0" strides="1,1"/>
			<input>
				<port id="0">
					<dim>1</dim>
					<dim>32</dim>
					<dim>14</dim>
					<dim>14</dim>
				</port>
			</input>
			<output>
				<port id="3">
					<dim>1</dim>
					<dim>64</dim>
					<dim>14</dim>
					<dim>14</dim>
				</port>
			</output>
			<blobs>
				<weights offset="72720" size="8192"/>
				<biases offset="80912" size="256"/>
			</blobs>
		</layer>
		<layer id="42" name="unit1_1/Conv/Relu" precision="FP32" type="ReLU">
			<input>
				<port id="0">
					<dim>1</dim>
					<dim>64</dim>
					<dim>14</dim>
					<dim>14</dim>
				</port>
			</input>
			<output>
				<port id="1">
					<dim>1</dim>
					<dim>64</dim>
					<dim>14</dim>
					<dim>14</dim>
				</port>
			</output>
		</layer>
		<layer id="43" name="unit1_1/SE_Moudle/global_avg_pooling" precision="FP32" type="Pooling">
			<data exclude-pad="true" kernel="14,14" pads_begin="0,0" pads_end="0,0" pool-method="avg" rounding-type="ceil" strides="1,1"/>
			<input>
				<port id="0">
					<dim>1</dim>
					<dim>64</dim>
					<dim>14</dim>
					<dim>14</dim>
				</port>
			</input>
			<output>
				<port id="1">
					<dim>1</dim>
					<dim>64</dim>
					<dim>1</dim>
					<dim>1</dim>
				</port>
			</output>
		</layer>
		<layer id="44" name="unit1_1/SE_Moudle/dim_decrease/Conv2D" precision="FP32" type="Convolution">
			<data auto_pad="same_upper" dilations="1,1" group="1" kernel="1,1" output="4" pads_begin="0,0" pads_end="0,0" strides="1,1"/>
			<input>
				<port id="0">
					<dim>1</dim>
					<dim>64</dim>
					<dim>1</dim>
					<dim>1</dim>
				</port>
			</input>
			<output>
				<port id="3">
					<dim>1</dim>
					<dim>4</dim>
					<dim>1</dim>
					<dim>1</dim>
				</port>
			</output>
			<blobs>
				<weights offset="81168" size="1024"/>
				<biases offset="82192" size="16"/>
			</blobs>
		</layer>
		<layer id="45" name="unit1_1/SE_Moudle/dim_decrease/Relu" precision="FP32" type="ReLU">
			<input>
				<port id="0">
					<dim>1</dim>
					<dim>4</dim>
					<dim>1</dim>
					<dim>1</dim>
				</port>
			</input>
			<output>
				<port id="1">
					<dim>1</dim>
					<dim>4</dim>
					<dim>1</dim>
					<dim>1</dim>
				</port>
			</output>
		</layer>
		<layer id="46" name="unit1_1/SE_Moudle/dim_increase/Conv2D" precision="FP32" type="Convolution">
			<data auto_pad="same_upper" dilations="1,1" group="1" kernel="1,1" output="64" pads_begin="0,0" pads_end="0,0" strides="1,1"/>
			<input>
				<port id="0">
					<dim>1</dim>
					<dim>4</dim>
					<dim>1</dim>
					<dim>1</dim>
				</port>
			</input>
			<output>
				<port id="3">
					<dim>1</dim>
					<dim>64</dim>
					<dim>1</dim>
					<dim>1</dim>
				</port>
			</output>
			<blobs>
				<weights offset="82208" size="1024"/>
				<biases offset="83232" size="256"/>
			</blobs>
		</layer>
		<layer id="47" name="unit1_1/SE_Moudle/dim_increase/Sigmoid" precision="FP32" type="Activation">
			<data type="sigmoid"/>
			<input>
				<port id="0">
					<dim>1</dim>
					<dim>64</dim>
					<dim>1</dim>
					<dim>1</dim>
				</port>
			</input>
			<output>
				<port id="1">
					<dim>1</dim>
					<dim>64</dim>
					<dim>1</dim>
					<dim>1</dim>
				</port>
			</output>
		</layer>
		<layer id="48" name="unit1_1/SE_Moudle/mul/Broadcast/" precision="FP32" type="Tile">
			<data axis="2" tiles="14"/>
			<input>
				<port id="0">
					<dim>1</dim>
					<dim>64</dim>
					<dim>1</dim>
					<dim>1</dim>
				</port>
			</input>
			<output>
				<port id="1">
					<dim>1</dim>
					<dim>64</dim>
					<dim>14</dim>
					<dim>1</dim>
				</port>
			</output>
		</layer>
		<layer id="49" name="unit1_1/SE_Moudle/mul/Broadcast/8763" precision="FP32" type="Tile">
			<data axis="3" tiles="14"/>
			<input>
				<port id="0">
					<dim>1</dim>
					<dim>64</dim>
					<dim>14</dim>
					<dim>1</dim>
				</port>
			</input>
			<output>
				<port id="1">
					<dim>1</dim>
					<dim>64</dim>
					<dim>14</dim>
					<dim>14</dim>
				</port>
			</output>
		</layer>
		<layer id="50" name="unit1_1/SE_Moudle/mul" precision="FP32" type="Eltwise">
			<data operation="mul"/>
			<input>
				<port id="0">
					<dim>1</dim>
					<dim>64</dim>
					<dim>14</dim>
					<dim>14</dim>
				</port>
				<port id="1">
					<dim>1</dim>
					<dim>64</dim>
					<dim>14</dim>
					<dim>14</dim>
				</port>
			</input>
			<output>
				<port id="2">
					<dim>1</dim>
					<dim>64</dim>
					<dim>14</dim>
					<dim>14</dim>
				</port>
			</output>
		</layer>
		<layer id="51" name="unit1_1/add" precision="FP32" type="Eltwise">
			<data operation="sum"/>
			<input>
				<port id="0">
					<dim>1</dim>
					<dim>64</dim>
					<dim>14</dim>
					<dim>14</dim>
				</port>
				<port id="1">
					<dim>1</dim>
					<dim>64</dim>
					<dim>14</dim>
					<dim>14</dim>
				</port>
			</input>
			<output>
				<port id="2">
					<dim>1</dim>
					<dim>64</dim>
					<dim>14</dim>
					<dim>14</dim>
				</port>
			</output>
		</layer>
		<layer id="52" name="unit1_1/Addition_relu" precision="FP32" type="ReLU">
			<input>
				<port id="0">
					<dim>1</dim>
					<dim>64</dim>
					<dim>14</dim>
					<dim>14</dim>
				</port>
			</input>
			<output>
				<port id="1">
					<dim>1</dim>
					<dim>64</dim>
					<dim>14</dim>
					<dim>14</dim>
				</port>
			</output>
		</layer>
		<layer id="53" name="unit1_2/branch_0/1x1conv/Conv2D" precision="FP32" type="Convolution">
			<data auto_pad="same_upper" dilations="1,1" group="1" kernel="1,1" output="16" pads_begin="0,0" pads_end="0,0" strides="1,1"/>
			<input>
				<port id="0">
					<dim>1</dim>
					<dim>64</dim>
					<dim>14</dim>
					<dim>14</dim>
				</port>
			</input>
			<output>
				<port id="3">
					<dim>1</dim>
					<dim>16</dim>
					<dim>14</dim>
					<dim>14</dim>
				</port>
			</output>
			<blobs>
				<weights offset="83488" size="4096"/>
				<biases offset="87584" size="64"/>
			</blobs>
		</layer>
		<layer id="54" name="unit1_2/branch_0/1x1conv/Relu" precision="FP32" type="ReLU">
			<input>
				<port id="0">
					<dim>1</dim>
					<dim>16</dim>
					<dim>14</dim>
					<dim>14</dim>
				</port>
			</input>
			<output>
				<port id="1">
					<dim>1</dim>
					<dim>16</dim>
					<dim>14</dim>
					<dim>14</dim>
				</port>
			</output>
		</layer>
		<layer id="55" name="Mul1_7912/Fused_Mul_/FusedScaleShift_" precision="FP32" type="ScaleShift">
			<input>
				<port id="0">
					<dim>1</dim>
					<dim>16</dim>
					<dim>14</dim>
					<dim>14</dim>
				</port>
			</input>
			<output>
				<port id="3">
					<dim>1</dim>
					<dim>16</dim>
					<dim>14</dim>
					<dim>14</dim>
				</port>
			</output>
			<blobs>
				<weights offset="87648" size="64"/>
				<biases offset="87712" size="64"/>
			</blobs>
		</layer>
		<layer id="56" name="unit1_2/branch_0/Conv/Conv2D" precision="FP32" type="Convolution">
			<data auto_pad="same_upper" dilations="1,1" group="1" kernel="3,3" output="16" pads_begin="1,1" pads_end="1,1" strides="1,1"/>
			<input>
				<port id="0">
					<dim>1</dim>
					<dim>16</dim>
					<dim>14</dim>
					<dim>14</dim>
				</port>
			</input>
			<output>
				<port id="3">
					<dim>1</dim>
					<dim>16</dim>
					<dim>14</dim>
					<dim>14</dim>
				</port>
			</output>
			<blobs>
				<weights offset="87776" size="9216"/>
				<biases offset="96992" size="64"/>
			</blobs>
		</layer>
		<layer id="57" name="unit1_2/branch_0/Conv/Relu" precision="FP32" type="ReLU">
			<input>
				<port id="0">
					<dim>1</dim>
					<dim>16</dim>
					<dim>14</dim>
					<dim>14</dim>
				</port>
			</input>
			<output>
				<port id="1">
					<dim>1</dim>
					<dim>16</dim>
					<dim>14</dim>
					<dim>14</dim>
				</port>
			</output>
		</layer>
		<layer id="58" name="Mul1_7282/Fused_Mul_/FusedScaleShift_" precision="FP32" type="ScaleShift">
			<input>
				<port id="0">
					<dim>1</dim>
					<dim>16</dim>
					<dim>14</dim>
					<dim>14</dim>
				</port>
			</input>
			<output>
				<port id="3">
					<dim>1</dim>
					<dim>16</dim>
					<dim>14</dim>
					<dim>14</dim>
				</port>
			</output>
			<blobs>
				<weights offset="97056" size="64"/>
				<biases offset="97120" size="64"/>
			</blobs>
		</layer>
		<layer id="59" name="unit1_2/branch_1/1x1conv/Conv2D" precision="FP32" type="Convolution">
			<data auto_pad="same_upper" dilations="1,1" group="1" kernel="1,1" output="16" pads_begin="0,0" pads_end="0,0" strides="1,1"/>
			<input>
				<port id="0">
					<dim>1</dim>
					<dim>64</dim>
					<dim>14</dim>
					<dim>14</dim>
				</port>
			</input>
			<output>
				<port id="3">
					<dim>1</dim>
					<dim>16</dim>
					<dim>14</dim>
					<dim>14</dim>
				</port>
			</output>
			<blobs>
				<weights offset="97184" size="4096"/>
				<biases offset="101280" size="64"/>
			</blobs>
		</layer>
		<layer id="60" name="unit1_2/branch_1/1x1conv/Relu" precision="FP32" type="ReLU">
			<input>
				<port id="0">
					<dim>1</dim>
					<dim>16</dim>
					<dim>14</dim>
					<dim>14</dim>
				</port>
			</input>
			<output>
				<port id="1">
					<dim>1</dim>
					<dim>16</dim>
					<dim>14</dim>
					<dim>14</dim>
				</port>
			</output>
		</layer>
		<layer id="61" name="Mul1_7183/Fused_Mul_/FusedScaleShift_" precision="FP32" type="ScaleShift">
			<input>
				<port id="0">
					<dim>1</dim>
					<dim>16</dim>
					<dim>14</dim>
					<dim>14</dim>
				</port>
			</input>
			<output>
				<port id="3">
					<dim>1</dim>
					<dim>16</dim>
					<dim>14</dim>
					<dim>14</dim>
				</port>
			</output>
			<blobs>
				<weights offset="101344" size="64"/>
				<biases offset="101408" size="64"/>
			</blobs>
		</layer>
		<layer id="62" name="unit1_2/branch_1/Conv/Conv2D" precision="FP32" type="Convolution">
			<data auto_pad="same_upper" dilations="1,1" group="1" kernel="3,3" output="16" pads_begin="1,1" pads_end="1,1" strides="1,1"/>
			<input>
				<port id="0">
					<dim>1</dim>
					<dim>16</dim>
					<dim>14</dim>
					<dim>14</dim>
				</port>
			</input>
			<output>
				<port id="3">
					<dim>1</dim>
					<dim>16</dim>
					<dim>14</dim>
					<dim>14</dim>
				</port>
			</output>
			<blobs>
				<weights offset="101472" size="9216"/>
				<biases offset="110688" size="64"/>
			</blobs>
		</layer>
		<layer id="63" name="unit1_2/branch_1/Conv/Relu" precision="FP32" type="ReLU">
			<input>
				<port id="0">
					<dim>1</dim>
					<dim>16</dim>
					<dim>14</dim>
					<dim>14</dim>
				</port>
			</input>
			<output>
				<port id="1">
					<dim>1</dim>
					<dim>16</dim>
					<dim>14</dim>
					<dim>14</dim>
				</port>
			</output>
		</layer>
		<layer id="64" name="Mul1_7498/Fused_Mul_/FusedScaleShift_" precision="FP32" type="ScaleShift">
			<input>
				<port id="0">
					<dim>1</dim>
					<dim>16</dim>
					<dim>14</dim>
					<dim>14</dim>
				</port>
			</input>
			<output>
				<port id="3">
					<dim>1</dim>
					<dim>16</dim>
					<dim>14</dim>
					<dim>14</dim>
				</port>
			</output>
			<blobs>
				<weights offset="110752" size="64"/>
				<biases offset="110816" size="64"/>
			</blobs>
		</layer>
		<layer id="65" name="unit1_2/concat" precision="FP32" type="Concat">
			<data axis="1"/>
			<input>
				<port id="0">
					<dim>1</dim>
					<dim>16</dim>
					<dim>14</dim>
					<dim>14</dim>
				</port>
				<port id="1">
					<dim>1</dim>
					<dim>16</dim>
					<dim>14</dim>
					<dim>14</dim>
				</port>
			</input>
			<output>
				<port id="2">
					<dim>1</dim>
					<dim>32</dim>
					<dim>14</dim>
					<dim>14</dim>
				</port>
			</output>
		</layer>
		<layer id="66" name="unit1_2/Conv/Conv2D" precision="FP32" type="Convolution">
			<data auto_pad="same_upper" dilations="1,1" group="1" kernel="1,1" output="64" pads_begin="0,0" pads_end="0,0" strides="1,1"/>
			<input>
				<port id="0">
					<dim>1</dim>
					<dim>32</dim>
					<dim>14</dim>
					<dim>14</dim>
				</port>
			</input>
			<output>
				<port id="3">
					<dim>1</dim>
					<dim>64</dim>
					<dim>14</dim>
					<dim>14</dim>
				</port>
			</output>
			<blobs>
				<weights offset="110880" size="8192"/>
				<biases offset="119072" size="256"/>
			</blobs>
		</layer>
		<layer id="67" name="unit1_2/Conv/Relu" precision="FP32" type="ReLU">
			<input>
				<port id="0">
					<dim>1</dim>
					<dim>64</dim>
					<dim>14</dim>
					<dim>14</dim>
				</port>
			</input>
			<output>
				<port id="1">
					<dim>1</dim>
					<dim>64</dim>
					<dim>14</dim>
					<dim>14</dim>
				</port>
			</output>
		</layer>
		<layer id="68" name="unit1_2/SE_Moudle/global_avg_pooling" precision="FP32" type="Pooling">
			<data exclude-pad="true" kernel="14,14" pads_begin="0,0" pads_end="0,0" pool-method="avg" rounding-type="ceil" strides="1,1"/>
			<input>
				<port id="0">
					<dim>1</dim>
					<dim>64</dim>
					<dim>14</dim>
					<dim>14</dim>
				</port>
			</input>
			<output>
				<port id="1">
					<dim>1</dim>
					<dim>64</dim>
					<dim>1</dim>
					<dim>1</dim>
				</port>
			</output>
		</layer>
		<layer id="69" name="unit1_2/SE_Moudle/dim_decrease/Conv2D" precision="FP32" type="Convolution">
			<data auto_pad="same_upper" dilations="1,1" group="1" kernel="1,1" output="4" pads_begin="0,0" pads_end="0,0" strides="1,1"/>
			<input>
				<port id="0">
					<dim>1</dim>
					<dim>64</dim>
					<dim>1</dim>
					<dim>1</dim>
				</port>
			</input>
			<output>
				<port id="3">
					<dim>1</dim>
					<dim>4</dim>
					<dim>1</dim>
					<dim>1</dim>
				</port>
			</output>
			<blobs>
				<weights offset="119328" size="1024"/>
				<biases offset="120352" size="16"/>
			</blobs>
		</layer>
		<layer id="70" name="unit1_2/SE_Moudle/dim_decrease/Relu" precision="FP32" type="ReLU">
			<input>
				<port id="0">
					<dim>1</dim>
					<dim>4</dim>
					<dim>1</dim>
					<dim>1</dim>
				</port>
			</input>
			<output>
				<port id="1">
					<dim>1</dim>
					<dim>4</dim>
					<dim>1</dim>
					<dim>1</dim>
				</port>
			</output>
		</layer>
		<layer id="71" name="unit1_2/SE_Moudle/dim_increase/Conv2D" precision="FP32" type="Convolution">
			<data auto_pad="same_upper" dilations="1,1" group="1" kernel="1,1" output="64" pads_begin="0,0" pads_end="0,0" strides="1,1"/>
			<input>
				<port id="0">
					<dim>1</dim>
					<dim>4</dim>
					<dim>1</dim>
					<dim>1</dim>
				</port>
			</input>
			<output>
				<port id="3">
					<dim>1</dim>
					<dim>64</dim>
					<dim>1</dim>
					<dim>1</dim>
				</port>
			</output>
			<blobs>
				<weights offset="120368" size="1024"/>
				<biases offset="121392" size="256"/>
			</blobs>
		</layer>
		<layer id="72" name="unit1_2/SE_Moudle/dim_increase/Sigmoid" precision="FP32" type="Activation">
			<data type="sigmoid"/>
			<input>
				<port id="0">
					<dim>1</dim>
					<dim>64</dim>
					<dim>1</dim>
					<dim>1</dim>
				</port>
			</input>
			<output>
				<port id="1">
					<dim>1</dim>
					<dim>64</dim>
					<dim>1</dim>
					<dim>1</dim>
				</port>
			</output>
		</layer>
		<layer id="73" name="unit1_2/SE_Moudle/mul/Broadcast/" precision="FP32" type="Tile">
			<data axis="2" tiles="14"/>
			<input>
				<port id="0">
					<dim>1</dim>
					<dim>64</dim>
					<dim>1</dim>
					<dim>1</dim>
				</port>
			</input>
			<output>
				<port id="1">
					<dim>1</dim>
					<dim>64</dim>
					<dim>14</dim>
					<dim>1</dim>
				</port>
			</output>
		</layer>
		<layer id="74" name="unit1_2/SE_Moudle/mul/Broadcast/8719" precision="FP32" type="Tile">
			<data axis="3" tiles="14"/>
			<input>
				<port id="0">
					<dim>1</dim>
					<dim>64</dim>
					<dim>14</dim>
					<dim>1</dim>
				</port>
			</input>
			<output>
				<port id="1">
					<dim>1</dim>
					<dim>64</dim>
					<dim>14</dim>
					<dim>14</dim>
				</port>
			</output>
		</layer>
		<layer id="75" name="unit1_2/SE_Moudle/mul" precision="FP32" type="Eltwise">
			<data operation="mul"/>
			<input>
				<port id="0">
					<dim>1</dim>
					<dim>64</dim>
					<dim>14</dim>
					<dim>14</dim>
				</port>
				<port id="1">
					<dim>1</dim>
					<dim>64</dim>
					<dim>14</dim>
					<dim>14</dim>
				</port>
			</input>
			<output>
				<port id="2">
					<dim>1</dim>
					<dim>64</dim>
					<dim>14</dim>
					<dim>14</dim>
				</port>
			</output>
		</layer>
		<layer id="76" name="unit1_2/add" precision="FP32" type="Eltwise">
			<data operation="sum"/>
			<input>
				<port id="0">
					<dim>1</dim>
					<dim>64</dim>
					<dim>14</dim>
					<dim>14</dim>
				</port>
				<port id="1">
					<dim>1</dim>
					<dim>64</dim>
					<dim>14</dim>
					<dim>14</dim>
				</port>
			</input>
			<output>
				<port id="2">
					<dim>1</dim>
					<dim>64</dim>
					<dim>14</dim>
					<dim>14</dim>
				</port>
			</output>
		</layer>
		<layer id="77" name="unit1_2/Addition_relu" precision="FP32" type="ReLU">
			<input>
				<port id="0">
					<dim>1</dim>
					<dim>64</dim>
					<dim>14</dim>
					<dim>14</dim>
				</port>
			</input>
			<output>
				<port id="1">
					<dim>1</dim>
					<dim>64</dim>
					<dim>14</dim>
					<dim>14</dim>
				</port>
			</output>
		</layer>
		<layer id="78" name="unit2_0/branch_0/1x1conv/Conv2D" precision="FP32" type="Convolution">
			<data auto_pad="same_upper" dilations="1,1" group="1" kernel="1,1" output="32" pads_begin="0,0" pads_end="0,0" strides="1,1"/>
			<input>
				<port id="0">
					<dim>1</dim>
					<dim>64</dim>
					<dim>14</dim>
					<dim>14</dim>
				</port>
			</input>
			<output>
				<port id="3">
					<dim>1</dim>
					<dim>32</dim>
					<dim>14</dim>
					<dim>14</dim>
				</port>
			</output>
			<blobs>
				<weights offset="121648" size="8192"/>
				<biases offset="129840" size="128"/>
			</blobs>
		</layer>
		<layer id="79" name="unit2_0/branch_0/1x1conv/Relu" precision="FP32" type="ReLU">
			<input>
				<port id="0">
					<dim>1</dim>
					<dim>32</dim>
					<dim>14</dim>
					<dim>14</dim>
				</port>
			</input>
			<output>
				<port id="1">
					<dim>1</dim>
					<dim>32</dim>
					<dim>14</dim>
					<dim>14</dim>
				</port>
			</output>
		</layer>
		<layer id="80" name="Mul1_7651/Fused_Mul_/FusedScaleShift_" precision="FP32" type="ScaleShift">
			<input>
				<port id="0">
					<dim>1</dim>
					<dim>32</dim>
					<dim>14</dim>
					<dim>14</dim>
				</port>
			</input>
			<output>
				<port id="3">
					<dim>1</dim>
					<dim>32</dim>
					<dim>14</dim>
					<dim>14</dim>
				</port>
			</output>
			<blobs>
				<weights offset="129968" size="128"/>
				<biases offset="130096" size="128"/>
			</blobs>
		</layer>
		<layer id="81" name="unit2_0/branch_0/Conv/Conv2D" precision="FP32" type="Convolution">
			<data auto_pad="same_upper" dilations="1,1" group="1" kernel="3,3" output="32" pads_begin="0,0" pads_end="1,1" strides="2,2"/>
			<input>
				<port id="0">
					<dim>1</dim>
					<dim>32</dim>
					<dim>14</dim>
					<dim>14</dim>
				</port>
			</input>
			<output>
				<port id="3">
					<dim>1</dim>
					<dim>32</dim>
					<dim>7</dim>
					<dim>7</dim>
				</port>
			</output>
			<blobs>
				<weights offset="130224" size="36864"/>
				<biases offset="167088" size="128"/>
			</blobs>
		</layer>
		<layer id="82" name="unit2_0/branch_0/Conv/Relu" precision="FP32" type="ReLU">
			<input>
				<port id="0">
					<dim>1</dim>
					<dim>32</dim>
					<dim>7</dim>
					<dim>7</dim>
				</port>
			</input>
			<output>
				<port id="1">
					<dim>1</dim>
					<dim>32</dim>
					<dim>7</dim>
					<dim>7</dim>
				</port>
			</output>
		</layer>
		<layer id="83" name="Mul1_7525/Fused_Mul_/FusedScaleShift_" precision="FP32" type="ScaleShift">
			<input>
				<port id="0">
					<dim>1</dim>
					<dim>32</dim>
					<dim>7</dim>
					<dim>7</dim>
				</port>
			</input>
			<output>
				<port id="3">
					<dim>1</dim>
					<dim>32</dim>
					<dim>7</dim>
					<dim>7</dim>
				</port>
			</output>
			<blobs>
				<weights offset="167216" size="128"/>
				<biases offset="167344" size="128"/>
			</blobs>
		</layer>
		<layer id="84" name="unit2_0/branch_1/1x1conv/Conv2D" precision="FP32" type="Convolution">
			<data auto_pad="same_upper" dilations="1,1" group="1" kernel="1,1" output="32" pads_begin="0,0" pads_end="0,0" strides="1,1"/>
			<input>
				<port id="0">
					<dim>1</dim>
					<dim>64</dim>
					<dim>14</dim>
					<dim>14</dim>
				</port>
			</input>
			<output>
				<port id="3">
					<dim>1</dim>
					<dim>32</dim>
					<dim>14</dim>
					<dim>14</dim>
				</port>
			</output>
			<blobs>
				<weights offset="167472" size="8192"/>
				<biases offset="175664" size="128"/>
			</blobs>
		</layer>
		<layer id="85" name="unit2_0/branch_1/1x1conv/Relu" precision="FP32" type="ReLU">
			<input>
				<port id="0">
					<dim>1</dim>
					<dim>32</dim>
					<dim>14</dim>
					<dim>14</dim>
				</port>
			</input>
			<output>
				<port id="1">
					<dim>1</dim>
					<dim>32</dim>
					<dim>14</dim>
					<dim>14</dim>
				</port>
			</output>
		</layer>
		<layer id="86" name="Mul1_7633/Fused_Mul_/FusedScaleShift_" precision="FP32" type="ScaleShift">
			<input>
				<port id="0">
					<dim>1</dim>
					<dim>32</dim>
					<dim>14</dim>
					<dim>14</dim>
				</port>
			</input>
			<output>
				<port id="3">
					<dim>1</dim>
					<dim>32</dim>
					<dim>14</dim>
					<dim>14</dim>
				</port>
			</output>
			<blobs>
				<weights offset="175792" size="128"/>
				<biases offset="175920" size="128"/>
			</blobs>
		</layer>
		<layer id="87" name="unit2_0/branch_1/Conv/Conv2D" precision="FP32" type="Convolution">
			<data auto_pad="same_upper" dilations="1,1" group="1" kernel="3,3" output="32" pads_begin="0,0" pads_end="1,1" strides="2,2"/>
			<input>
				<port id="0">
					<dim>1</dim>
					<dim>32</dim>
					<dim>14</dim>
					<dim>14</dim>
				</port>
			</input>
			<output>
				<port id="3">
					<dim>1</dim>
					<dim>32</dim>
					<dim>7</dim>
					<dim>7</dim>
				</port>
			</output>
			<blobs>
				<weights offset="176048" size="36864"/>
				<biases offset="212912" size="128"/>
			</blobs>
		</layer>
		<layer id="88" name="unit2_0/branch_1/Conv/Relu" precision="FP32" type="ReLU">
			<input>
				<port id="0">
					<dim>1</dim>
					<dim>32</dim>
					<dim>7</dim>
					<dim>7</dim>
				</port>
			</input>
			<output>
				<port id="1">
					<dim>1</dim>
					<dim>32</dim>
					<dim>7</dim>
					<dim>7</dim>
				</port>
			</output>
		</layer>
		<layer id="89" name="Mul1_7345/Fused_Mul_/FusedScaleShift_" precision="FP32" type="ScaleShift">
			<input>
				<port id="0">
					<dim>1</dim>
					<dim>32</dim>
					<dim>7</dim>
					<dim>7</dim>
				</port>
			</input>
			<output>
				<port id="3">
					<dim>1</dim>
					<dim>32</dim>
					<dim>7</dim>
					<dim>7</dim>
				</port>
			</output>
			<blobs>
				<weights offset="213040" size="128"/>
				<biases offset="213168" size="128"/>
			</blobs>
		</layer>
		<layer id="90" name="unit2_0/concat" precision="FP32" type="Concat">
			<data axis="1"/>
			<input>
				<port id="0">
					<dim>1</dim>
					<dim>32</dim>
					<dim>7</dim>
					<dim>7</dim>
				</port>
				<port id="1">
					<dim>1</dim>
					<dim>32</dim>
					<dim>7</dim>
					<dim>7</dim>
				</port>
			</input>
			<output>
				<port id="2">
					<dim>1</dim>
					<dim>64</dim>
					<dim>7</dim>
					<dim>7</dim>
				</port>
			</output>
		</layer>
		<layer id="91" name="unit2_0/Conv/Conv2D" precision="FP32" type="Convolution">
			<data auto_pad="same_upper" dilations="1,1" group="1" kernel="1,1" output="128" pads_begin="0,0" pads_end="0,0" strides="1,1"/>
			<input>
				<port id="0">
					<dim>1</dim>
					<dim>64</dim>
					<dim>7</dim>
					<dim>7</dim>
				</port>
			</input>
			<output>
				<port id="3">
					<dim>1</dim>
					<dim>128</dim>
					<dim>7</dim>
					<dim>7</dim>
				</port>
			</output>
			<blobs>
				<weights offset="213296" size="32768"/>
				<biases offset="246064" size="512"/>
			</blobs>
		</layer>
		<layer id="92" name="unit2_0/Conv/Relu" precision="FP32" type="ReLU">
			<input>
				<port id="0">
					<dim>1</dim>
					<dim>128</dim>
					<dim>7</dim>
					<dim>7</dim>
				</port>
			</input>
			<output>
				<port id="1">
					<dim>1</dim>
					<dim>128</dim>
					<dim>7</dim>
					<dim>7</dim>
				</port>
			</output>
		</layer>
		<layer id="93" name="unit2_0/SE_Moudle/global_avg_pooling" precision="FP32" type="Pooling">
			<data exclude-pad="true" kernel="7,7" pads_begin="0,0" pads_end="0,0" pool-method="avg" rounding-type="ceil" strides="1,1"/>
			<input>
				<port id="0">
					<dim>1</dim>
					<dim>128</dim>
					<dim>7</dim>
					<dim>7</dim>
				</port>
			</input>
			<output>
				<port id="1">
					<dim>1</dim>
					<dim>128</dim>
					<dim>1</dim>
					<dim>1</dim>
				</port>
			</output>
		</layer>
		<layer id="94" name="unit2_0/SE_Moudle/dim_decrease/Conv2D" precision="FP32" type="Convolution">
			<data auto_pad="same_upper" dilations="1,1" group="1" kernel="1,1" output="8" pads_begin="0,0" pads_end="0,0" strides="1,1"/>
			<input>
				<port id="0">
					<dim>1</dim>
					<dim>128</dim>
					<dim>1</dim>
					<dim>1</dim>
				</port>
			</input>
			<output>
				<port id="3">
					<dim>1</dim>
					<dim>8</dim>
					<dim>1</dim>
					<dim>1</dim>
				</port>
			</output>
			<blobs>
				<weights offset="246576" size="4096"/>
				<biases offset="250672" size="32"/>
			</blobs>
		</layer>
		<layer id="95" name="unit2_0/SE_Moudle/dim_decrease/Relu" precision="FP32" type="ReLU">
			<input>
				<port id="0">
					<dim>1</dim>
					<dim>8</dim>
					<dim>1</dim>
					<dim>1</dim>
				</port>
			</input>
			<output>
				<port id="1">
					<dim>1</dim>
					<dim>8</dim>
					<dim>1</dim>
					<dim>1</dim>
				</port>
			</output>
		</layer>
		<layer id="96" name="unit2_0/SE_Moudle/dim_increase/Conv2D" precision="FP32" type="Convolution">
			<data auto_pad="same_upper" dilations="1,1" group="1" kernel="1,1" output="128" pads_begin="0,0" pads_end="0,0" strides="1,1"/>
			<input>
				<port id="0">
					<dim>1</dim>
					<dim>8</dim>
					<dim>1</dim>
					<dim>1</dim>
				</port>
			</input>
			<output>
				<port id="3">
					<dim>1</dim>
					<dim>128</dim>
					<dim>1</dim>
					<dim>1</dim>
				</port>
			</output>
			<blobs>
				<weights offset="250704" size="4096"/>
				<biases offset="254800" size="512"/>
			</blobs>
		</layer>
		<layer id="97" name="unit2_0/SE_Moudle/dim_increase/Sigmoid" precision="FP32" type="Activation">
			<data type="sigmoid"/>
			<input>
				<port id="0">
					<dim>1</dim>
					<dim>128</dim>
					<dim>1</dim>
					<dim>1</dim>
				</port>
			</input>
			<output>
				<port id="1">
					<dim>1</dim>
					<dim>128</dim>
					<dim>1</dim>
					<dim>1</dim>
				</port>
			</output>
		</layer>
		<layer id="98" name="unit2_0/SE_Moudle/mul/Broadcast/" precision="FP32" type="Tile">
			<data axis="2" tiles="7"/>
			<input>
				<port id="0">
					<dim>1</dim>
					<dim>128</dim>
					<dim>1</dim>
					<dim>1</dim>
				</port>
			</input>
			<output>
				<port id="1">
					<dim>1</dim>
					<dim>128</dim>
					<dim>7</dim>
					<dim>1</dim>
				</port>
			</output>
		</layer>
		<layer id="99" name="unit2_0/SE_Moudle/mul/Broadcast/8747" precision="FP32" type="Tile">
			<data axis="3" tiles="7"/>
			<input>
				<port id="0">
					<dim>1</dim>
					<dim>128</dim>
					<dim>7</dim>
					<dim>1</dim>
				</port>
			</input>
			<output>
				<port id="1">
					<dim>1</dim>
					<dim>128</dim>
					<dim>7</dim>
					<dim>7</dim>
				</port>
			</output>
		</layer>
		<layer id="100" name="unit2_0/SE_Moudle/mul" precision="FP32" type="Eltwise">
			<data operation="mul"/>
			<input>
				<port id="0">
					<dim>1</dim>
					<dim>128</dim>
					<dim>7</dim>
					<dim>7</dim>
				</port>
				<port id="1">
					<dim>1</dim>
					<dim>128</dim>
					<dim>7</dim>
					<dim>7</dim>
				</port>
			</input>
			<output>
				<port id="2">
					<dim>1</dim>
					<dim>128</dim>
					<dim>7</dim>
					<dim>7</dim>
				</port>
			</output>
		</layer>
		<layer id="101" name="unit2_0/AvgPool2D/AvgPool" precision="FP32" type="Pooling">
			<data auto_pad="same_upper" exclude-pad="true" kernel="2,2" pads_begin="0,0" pads_end="0,0" pool-method="avg" strides="2,2"/>
			<input>
				<port id="0">
					<dim>1</dim>
					<dim>64</dim>
					<dim>14</dim>
					<dim>14</dim>
				</port>
			</input>
			<output>
				<port id="1">
					<dim>1</dim>
					<dim>64</dim>
					<dim>7</dim>
					<dim>7</dim>
				</port>
			</output>
		</layer>
		<layer id="102" name="unit2_0/matchDim/Conv2D" precision="FP32" type="Convolution">
			<data auto_pad="same_upper" dilations="1,1" group="1" kernel="1,1" output="128" pads_begin="0,0" pads_end="0,0" strides="1,1"/>
			<input>
				<port id="0">
					<dim>1</dim>
					<dim>64</dim>
					<dim>7</dim>
					<dim>7</dim>
				</port>
			</input>
			<output>
				<port id="3">
					<dim>1</dim>
					<dim>128</dim>
					<dim>7</dim>
					<dim>7</dim>
				</port>
			</output>
			<blobs>
				<weights offset="255312" size="32768"/>
				<biases offset="288080" size="512"/>
			</blobs>
		</layer>
		<layer id="103" name="unit2_0/matchDim/Relu" precision="FP32" type="ReLU">
			<input>
				<port id="0">
					<dim>1</dim>
					<dim>128</dim>
					<dim>7</dim>
					<dim>7</dim>
				</port>
			</input>
			<output>
				<port id="1">
					<dim>1</dim>
					<dim>128</dim>
					<dim>7</dim>
					<dim>7</dim>
				</port>
			</output>
		</layer>
		<layer id="104" name="unit2_0/add" precision="FP32" type="Eltwise">
			<data operation="sum"/>
			<input>
				<port id="0">
					<dim>1</dim>
					<dim>128</dim>
					<dim>7</dim>
					<dim>7</dim>
				</port>
				<port id="1">
					<dim>1</dim>
					<dim>128</dim>
					<dim>7</dim>
					<dim>7</dim>
				</port>
			</input>
			<output>
				<port id="2">
					<dim>1</dim>
					<dim>128</dim>
					<dim>7</dim>
					<dim>7</dim>
				</port>
			</output>
		</layer>
		<layer id="105" name="unit2_0/Addition_relu" precision="FP32" type="ReLU">
			<input>
				<port id="0">
					<dim>1</dim>
					<dim>128</dim>
					<dim>7</dim>
					<dim>7</dim>
				</port>
			</input>
			<output>
				<port id="1">
					<dim>1</dim>
					<dim>128</dim>
					<dim>7</dim>
					<dim>7</dim>
				</port>
			</output>
		</layer>
		<layer id="106" name="unit2_1/branch_0/1x1conv/Conv2D" precision="FP32" type="Convolution">
			<data auto_pad="same_upper" dilations="1,1" group="1" kernel="1,1" output="32" pads_begin="0,0" pads_end="0,0" strides="1,1"/>
			<input>
				<port id="0">
					<dim>1</dim>
					<dim>128</dim>
					<dim>7</dim>
					<dim>7</dim>
				</port>
			</input>
			<output>
				<port id="3">
					<dim>1</dim>
					<dim>32</dim>
					<dim>7</dim>
					<dim>7</dim>
				</port>
			</output>
			<blobs>
				<weights offset="288592" size="16384"/>
				<biases offset="304976" size="128"/>
			</blobs>
		</layer>
		<layer id="107" name="unit2_1/branch_0/1x1conv/Relu" precision="FP32" type="ReLU">
			<input>
				<port id="0">
					<dim>1</dim>
					<dim>32</dim>
					<dim>7</dim>
					<dim>7</dim>
				</port>
			</input>
			<output>
				<port id="1">
					<dim>1</dim>
					<dim>32</dim>
					<dim>7</dim>
					<dim>7</dim>
				</port>
			</output>
		</layer>
		<layer id="108" name="Mul1_7786/Fused_Mul_/FusedScaleShift_" precision="FP32" type="ScaleShift">
			<input>
				<port id="0">
					<dim>1</dim>
					<dim>32</dim>
					<dim>7</dim>
					<dim>7</dim>
				</port>
			</input>
			<output>
				<port id="3">
					<dim>1</dim>
					<dim>32</dim>
					<dim>7</dim>
					<dim>7</dim>
				</port>
			</output>
			<blobs>
				<weights offset="305104" size="128"/>
				<biases offset="305232" size="128"/>
			</blobs>
		</layer>
		<layer id="109" name="unit2_1/branch_0/Conv/Conv2D" precision="FP32" type="Convolution">
			<data auto_pad="same_upper" dilations="1,1" group="1" kernel="3,3" output="32" pads_begin="1,1" pads_end="1,1" strides="1,1"/>
			<input>
				<port id="0">
					<dim>1</dim>
					<dim>32</dim>
					<dim>7</dim>
					<dim>7</dim>
				</port>
			</input>
			<output>
				<port id="3">
					<dim>1</dim>
					<dim>32</dim>
					<dim>7</dim>
					<dim>7</dim>
				</port>
			</output>
			<blobs>
				<weights offset="305360" size="36864"/>
				<biases offset="342224" size="128"/>
			</blobs>
		</layer>
		<layer id="110" name="unit2_1/branch_0/Conv/Relu" precision="FP32" type="ReLU">
			<input>
				<port id="0">
					<dim>1</dim>
					<dim>32</dim>
					<dim>7</dim>
					<dim>7</dim>
				</port>
			</input>
			<output>
				<port id="1">
					<dim>1</dim>
					<dim>32</dim>
					<dim>7</dim>
					<dim>7</dim>
				</port>
			</output>
		</layer>
		<layer id="111" name="Mul1_7246/Fused_Mul_/FusedScaleShift_" precision="FP32" type="ScaleShift">
			<input>
				<port id="0">
					<dim>1</dim>
					<dim>32</dim>
					<dim>7</dim>
					<dim>7</dim>
				</port>
			</input>
			<output>
				<port id="3">
					<dim>1</dim>
					<dim>32</dim>
					<dim>7</dim>
					<dim>7</dim>
				</port>
			</output>
			<blobs>
				<weights offset="342352" size="128"/>
				<biases offset="342480" size="128"/>
			</blobs>
		</layer>
		<layer id="112" name="unit2_1/branch_1/1x1conv/Conv2D" precision="FP32" type="Convolution">
			<data auto_pad="same_upper" dilations="1,1" group="1" kernel="1,1" output="32" pads_begin="0,0" pads_end="0,0" strides="1,1"/>
			<input>
				<port id="0">
					<dim>1</dim>
					<dim>128</dim>
					<dim>7</dim>
					<dim>7</dim>
				</port>
			</input>
			<output>
				<port id="3">
					<dim>1</dim>
					<dim>32</dim>
					<dim>7</dim>
					<dim>7</dim>
				</port>
			</output>
			<blobs>
				<weights offset="342608" size="16384"/>
				<biases offset="358992" size="128"/>
			</blobs>
		</layer>
		<layer id="113" name="unit2_1/branch_1/1x1conv/Relu" precision="FP32" type="ReLU">
			<input>
				<port id="0">
					<dim>1</dim>
					<dim>32</dim>
					<dim>7</dim>
					<dim>7</dim>
				</port>
			</input>
			<output>
				<port id="1">
					<dim>1</dim>
					<dim>32</dim>
					<dim>7</dim>
					<dim>7</dim>
				</port>
			</output>
		</layer>
		<layer id="114" name="Mul1_7165/Fused_Mul_/FusedScaleShift_" precision="FP32" type="ScaleShift">
			<input>
				<port id="0">
					<dim>1</dim>
					<dim>32</dim>
					<dim>7</dim>
					<dim>7</dim>
				</port>
			</input>
			<output>
				<port id="3">
					<dim>1</dim>
					<dim>32</dim>
					<dim>7</dim>
					<dim>7</dim>
				</port>
			</output>
			<blobs>
				<weights offset="359120" size="128"/>
				<biases offset="359248" size="128"/>
			</blobs>
		</layer>
		<layer id="115" name="unit2_1/branch_1/Conv/Conv2D" precision="FP32" type="Convolution">
			<data auto_pad="same_upper" dilations="1,1" group="1" kernel="3,3" output="32" pads_begin="1,1" pads_end="1,1" strides="1,1"/>
			<input>
				<port id="0">
					<dim>1</dim>
					<dim>32</dim>
					<dim>7</dim>
					<dim>7</dim>
				</port>
			</input>
			<output>
				<port id="3">
					<dim>1</dim>
					<dim>32</dim>
					<dim>7</dim>
					<dim>7</dim>
				</port>
			</output>
			<blobs>
				<weights offset="359376" size="36864"/>
				<biases offset="396240" size="128"/>
			</blobs>
		</layer>
		<layer id="116" name="unit2_1/branch_1/Conv/Relu" precision="FP32" type="ReLU">
			<input>
				<port id="0">
					<dim>1</dim>
					<dim>32</dim>
					<dim>7</dim>
					<dim>7</dim>
				</port>
			</input>
			<output>
				<port id="1">
					<dim>1</dim>
					<dim>32</dim>
					<dim>7</dim>
					<dim>7</dim>
				</port>
			</output>
		</layer>
		<layer id="117" name="Mul1_7723/Fused_Mul_/FusedScaleShift_" precision="FP32" type="ScaleShift">
			<input>
				<port id="0">
					<dim>1</dim>
					<dim>32</dim>
					<dim>7</dim>
					<dim>7</dim>
				</port>
			</input>
			<output>
				<port id="3">
					<dim>1</dim>
					<dim>32</dim>
					<dim>7</dim>
					<dim>7</dim>
				</port>
			</output>
			<blobs>
				<weights offset="396368" size="128"/>
				<biases offset="396496" size="128"/>
			</blobs>
		</layer>
		<layer id="118" name="unit2_1/concat" precision="FP32" type="Concat">
			<data axis="1"/>
			<input>
				<port id="0">
					<dim>1</dim>
					<dim>32</dim>
					<dim>7</dim>
					<dim>7</dim>
				</port>
				<port id="1">
					<dim>1</dim>
					<dim>32</dim>
					<dim>7</dim>
					<dim>7</dim>
				</port>
			</input>
			<output>
				<port id="2">
					<dim>1</dim>
					<dim>64</dim>
					<dim>7</dim>
					<dim>7</dim>
				</port>
			</output>
		</layer>
		<layer id="119" name="unit2_1/Conv/Conv2D" precision="FP32" type="Convolution">
			<data auto_pad="same_upper" dilations="1,1" group="1" kernel="1,1" output="128" pads_begin="0,0" pads_end="0,0" strides="1,1"/>
			<input>
				<port id="0">
					<dim>1</dim>
					<dim>64</dim>
					<dim>7</dim>
					<dim>7</dim>
				</port>
			</input>
			<output>
				<port id="3">
					<dim>1</dim>
					<dim>128</dim>
					<dim>7</dim>
					<dim>7</dim>
				</port>
			</output>
			<blobs>
				<weights offset="396624" size="32768"/>
				<biases offset="429392" size="512"/>
			</blobs>
		</layer>
		<layer id="120" name="unit2_1/Conv/Relu" precision="FP32" type="ReLU">
			<input>
				<port id="0">
					<dim>1</dim>
					<dim>128</dim>
					<dim>7</dim>
					<dim>7</dim>
				</port>
			</input>
			<output>
				<port id="1">
					<dim>1</dim>
					<dim>128</dim>
					<dim>7</dim>
					<dim>7</dim>
				</port>
			</output>
		</layer>
		<layer id="121" name="unit2_1/SE_Moudle/global_avg_pooling" precision="FP32" type="Pooling">
			<data exclude-pad="true" kernel="7,7" pads_begin="0,0" pads_end="0,0" pool-method="avg" rounding-type="ceil" strides="1,1"/>
			<input>
				<port id="0">
					<dim>1</dim>
					<dim>128</dim>
					<dim>7</dim>
					<dim>7</dim>
				</port>
			</input>
			<output>
				<port id="1">
					<dim>1</dim>
					<dim>128</dim>
					<dim>1</dim>
					<dim>1</dim>
				</port>
			</output>
		</layer>
		<layer id="122" name="unit2_1/SE_Moudle/dim_decrease/Conv2D" precision="FP32" type="Convolution">
			<data auto_pad="same_upper" dilations="1,1" group="1" kernel="1,1" output="8" pads_begin="0,0" pads_end="0,0" strides="1,1"/>
			<input>
				<port id="0">
					<dim>1</dim>
					<dim>128</dim>
					<dim>1</dim>
					<dim>1</dim>
				</port>
			</input>
			<output>
				<port id="3">
					<dim>1</dim>
					<dim>8</dim>
					<dim>1</dim>
					<dim>1</dim>
				</port>
			</output>
			<blobs>
				<weights offset="429904" size="4096"/>
				<biases offset="434000" size="32"/>
			</blobs>
		</layer>
		<layer id="123" name="unit2_1/SE_Moudle/dim_decrease/Relu" precision="FP32" type="ReLU">
			<input>
				<port id="0">
					<dim>1</dim>
					<dim>8</dim>
					<dim>1</dim>
					<dim>1</dim>
				</port>
			</input>
			<output>
				<port id="1">
					<dim>1</dim>
					<dim>8</dim>
					<dim>1</dim>
					<dim>1</dim>
				</port>
			</output>
		</layer>
		<layer id="124" name="unit2_1/SE_Moudle/dim_increase/Conv2D" precision="FP32" type="Convolution">
			<data auto_pad="same_upper" dilations="1,1" group="1" kernel="1,1" output="128" pads_begin="0,0" pads_end="0,0" strides="1,1"/>
			<input>
				<port id="0">
					<dim>1</dim>
					<dim>8</dim>
					<dim>1</dim>
					<dim>1</dim>
				</port>
			</input>
			<output>
				<port id="3">
					<dim>1</dim>
					<dim>128</dim>
					<dim>1</dim>
					<dim>1</dim>
				</port>
			</output>
			<blobs>
				<weights offset="434032" size="4096"/>
				<biases offset="438128" size="512"/>
			</blobs>
		</layer>
		<layer id="125" name="unit2_1/SE_Moudle/dim_increase/Sigmoid" precision="FP32" type="Activation">
			<data type="sigmoid"/>
			<input>
				<port id="0">
					<dim>1</dim>
					<dim>128</dim>
					<dim>1</dim>
					<dim>1</dim>
				</port>
			</input>
			<output>
				<port id="1">
					<dim>1</dim>
					<dim>128</dim>
					<dim>1</dim>
					<dim>1</dim>
				</port>
			</output>
		</layer>
		<layer id="126" name="unit2_1/SE_Moudle/mul/Broadcast/" precision="FP32" type="Tile">
			<data axis="2" tiles="7"/>
			<input>
				<port id="0">
					<dim>1</dim>
					<dim>128</dim>
					<dim>1</dim>
					<dim>1</dim>
				</port>
			</input>
			<output>
				<port id="1">
					<dim>1</dim>
					<dim>128</dim>
					<dim>7</dim>
					<dim>1</dim>
				</port>
			</output>
		</layer>
		<layer id="127" name="unit2_1/SE_Moudle/mul/Broadcast/8715" precision="FP32" type="Tile">
			<data axis="3" tiles="7"/>
			<input>
				<port id="0">
					<dim>1</dim>
					<dim>128</dim>
					<dim>7</dim>
					<dim>1</dim>
				</port>
			</input>
			<output>
				<port id="1">
					<dim>1</dim>
					<dim>128</dim>
					<dim>7</dim>
					<dim>7</dim>
				</port>
			</output>
		</layer>
		<layer id="128" name="unit2_1/SE_Moudle/mul" precision="FP32" type="Eltwise">
			<data operation="mul"/>
			<input>
				<port id="0">
					<dim>1</dim>
					<dim>128</dim>
					<dim>7</dim>
					<dim>7</dim>
				</port>
				<port id="1">
					<dim>1</dim>
					<dim>128</dim>
					<dim>7</dim>
					<dim>7</dim>
				</port>
			</input>
			<output>
				<port id="2">
					<dim>1</dim>
					<dim>128</dim>
					<dim>7</dim>
					<dim>7</dim>
				</port>
			</output>
		</layer>
		<layer id="129" name="unit2_1/add" precision="FP32" type="Eltwise">
			<data operation="sum"/>
			<input>
				<port id="0">
					<dim>1</dim>
					<dim>128</dim>
					<dim>7</dim>
					<dim>7</dim>
				</port>
				<port id="1">
					<dim>1</dim>
					<dim>128</dim>
					<dim>7</dim>
					<dim>7</dim>
				</port>
			</input>
			<output>
				<port id="2">
					<dim>1</dim>
					<dim>128</dim>
					<dim>7</dim>
					<dim>7</dim>
				</port>
			</output>
		</layer>
		<layer id="130" name="unit2_1/Addition_relu" precision="FP32" type="ReLU">
			<input>
				<port id="0">
					<dim>1</dim>
					<dim>128</dim>
					<dim>7</dim>
					<dim>7</dim>
				</port>
			</input>
			<output>
				<port id="1">
					<dim>1</dim>
					<dim>128</dim>
					<dim>7</dim>
					<dim>7</dim>
				</port>
			</output>
		</layer>
		<layer id="131" name="unit2_2/branch_0/1x1conv/Conv2D" precision="FP32" type="Convolution">
			<data auto_pad="same_upper" dilations="1,1" group="1" kernel="1,1" output="32" pads_begin="0,0" pads_end="0,0" strides="1,1"/>
			<input>
				<port id="0">
					<dim>1</dim>
					<dim>128</dim>
					<dim>7</dim>
					<dim>7</dim>
				</port>
			</input>
			<output>
				<port id="3">
					<dim>1</dim>
					<dim>32</dim>
					<dim>7</dim>
					<dim>7</dim>
				</port>
			</output>
			<blobs>
				<weights offset="438640" size="16384"/>
				<biases offset="455024" size="128"/>
			</blobs>
		</layer>
		<layer id="132" name="unit2_2/branch_0/1x1conv/Relu" precision="FP32" type="ReLU">
			<input>
				<port id="0">
					<dim>1</dim>
					<dim>32</dim>
					<dim>7</dim>
					<dim>7</dim>
				</port>
			</input>
			<output>
				<port id="1">
					<dim>1</dim>
					<dim>32</dim>
					<dim>7</dim>
					<dim>7</dim>
				</port>
			</output>
		</layer>
		<layer id="133" name="Mul1_7093/Fused_Mul_/FusedScaleShift_" precision="FP32" type="ScaleShift">
			<input>
				<port id="0">
					<dim>1</dim>
					<dim>32</dim>
					<dim>7</dim>
					<dim>7</dim>
				</port>
			</input>
			<output>
				<port id="3">
					<dim>1</dim>
					<dim>32</dim>
					<dim>7</dim>
					<dim>7</dim>
				</port>
			</output>
			<blobs>
				<weights offset="455152" size="128"/>
				<biases offset="455280" size="128"/>
			</blobs>
		</layer>
		<layer id="134" name="unit2_2/branch_0/Conv/Conv2D" precision="FP32" type="Convolution">
			<data auto_pad="same_upper" dilations="1,1" group="1" kernel="3,3" output="32" pads_begin="1,1" pads_end="1,1" strides="1,1"/>
			<input>
				<port id="0">
					<dim>1</dim>
					<dim>32</dim>
					<dim>7</dim>
					<dim>7</dim>
				</port>
			</input>
			<output>
				<port id="3">
					<dim>1</dim>
					<dim>32</dim>
					<dim>7</dim>
					<dim>7</dim>
				</port>
			</output>
			<blobs>
				<weights offset="455408" size="36864"/>
				<biases offset="492272" size="128"/>
			</blobs>
		</layer>
		<layer id="135" name="unit2_2/branch_0/Conv/Relu" precision="FP32" type="ReLU">
			<input>
				<port id="0">
					<dim>1</dim>
					<dim>32</dim>
					<dim>7</dim>
					<dim>7</dim>
				</port>
			</input>
			<output>
				<port id="1">
					<dim>1</dim>
					<dim>32</dim>
					<dim>7</dim>
					<dim>7</dim>
				</port>
			</output>
		</layer>
		<layer id="136" name="Mul1_7372/Fused_Mul_/FusedScaleShift_" precision="FP32" type="ScaleShift">
			<input>
				<port id="0">
					<dim>1</dim>
					<dim>32</dim>
					<dim>7</dim>
					<dim>7</dim>
				</port>
			</input>
			<output>
				<port id="3">
					<dim>1</dim>
					<dim>32</dim>
					<dim>7</dim>
					<dim>7</dim>
				</port>
			</output>
			<blobs>
				<weights offset="492400" size="128"/>
				<biases offset="492528" size="128"/>
			</blobs>
		</layer>
		<layer id="137" name="unit2_2/branch_1/1x1conv/Conv2D" precision="FP32" type="Convolution">
			<data auto_pad="same_upper" dilations="1,1" group="1" kernel="1,1" output="32" pads_begin="0,0" pads_end="0,0" strides="1,1"/>
			<input>
				<port id="0">
					<dim>1</dim>
					<dim>128</dim>
					<dim>7</dim>
					<dim>7</dim>
				</port>
			</input>
			<output>
				<port id="3">
					<dim>1</dim>
					<dim>32</dim>
					<dim>7</dim>
					<dim>7</dim>
				</port>
			</output>
			<blobs>
				<weights offset="492656" size="16384"/>
				<biases offset="509040" size="128"/>
			</blobs>
		</layer>
		<layer id="138" name="unit2_2/branch_1/1x1conv/Relu" precision="FP32" type="ReLU">
			<input>
				<port id="0">
					<dim>1</dim>
					<dim>32</dim>
					<dim>7</dim>
					<dim>7</dim>
				</port>
			</input>
			<output>
				<port id="1">
					<dim>1</dim>
					<dim>32</dim>
					<dim>7</dim>
					<dim>7</dim>
				</port>
			</output>
		</layer>
		<layer id="139" name="Mul1_7228/Fused_Mul_/FusedScaleShift_" precision="FP32" type="ScaleShift">
			<input>
				<port id="0">
					<dim>1</dim>
					<dim>32</dim>
					<dim>7</dim>
					<dim>7</dim>
				</port>
			</input>
			<output>
				<port id="3">
					<dim>1</dim>
					<dim>32</dim>
					<dim>7</dim>
					<dim>7</dim>
				</port>
			</output>
			<blobs>
				<weights offset="509168" size="128"/>
				<biases offset="509296" size="128"/>
			</blobs>
		</layer>
		<layer id="140" name="unit2_2/branch_1/Conv/Conv2D" precision="FP32" type="Convolution">
			<data auto_pad="same_upper" dilations="1,1" group="1" kernel="3,3" output="32" pads_begin="1,1" pads_end="1,1" strides="1,1"/>
			<input>
				<port id="0">
					<dim>1</dim>
					<dim>32</dim>
					<dim>7</dim>
					<dim>7</dim>
				</port>
			</input>
			<output>
				<port id="3">
					<dim>1</dim>
					<dim>32</dim>
					<dim>7</dim>
					<dim>7</dim>
				</port>
			</output>
			<blobs>
				<weights offset="509424" size="36864"/>
				<biases offset="546288" size="128"/>
			</blobs>
		</layer>
		<layer id="141" name="unit2_2/branch_1/Conv/Relu" precision="FP32" type="ReLU">
			<input>
				<port id="0">
					<dim>1</dim>
					<dim>32</dim>
					<dim>7</dim>
					<dim>7</dim>
				</port>
			</input>
			<output>
				<port id="1">
					<dim>1</dim>
					<dim>32</dim>
					<dim>7</dim>
					<dim>7</dim>
				</port>
			</output>
		</layer>
		<layer id="142" name="Mul1_6958/Fused_Mul_/FusedScaleShift_" precision="FP32" type="ScaleShift">
			<input>
				<port id="0">
					<dim>1</dim>
					<dim>32</dim>
					<dim>7</dim>
					<dim>7</dim>
				</port>
			</input>
			<output>
				<port id="3">
					<dim>1</dim>
					<dim>32</dim>
					<dim>7</dim>
					<dim>7</dim>
				</port>
			</output>
			<blobs>
				<weights offset="546416" size="128"/>
				<biases offset="546544" size="128"/>
			</blobs>
		</layer>
		<layer id="143" name="unit2_2/concat" precision="FP32" type="Concat">
			<data axis="1"/>
			<input>
				<port id="0">
					<dim>1</dim>
					<dim>32</dim>
					<dim>7</dim>
					<dim>7</dim>
				</port>
				<port id="1">
					<dim>1</dim>
					<dim>32</dim>
					<dim>7</dim>
					<dim>7</dim>
				</port>
			</input>
			<output>
				<port id="2">
					<dim>1</dim>
					<dim>64</dim>
					<dim>7</dim>
					<dim>7</dim>
				</port>
			</output>
		</layer>
		<layer id="144" name="unit2_2/Conv/Conv2D" precision="FP32" type="Convolution">
			<data auto_pad="same_upper" dilations="1,1" group="1" kernel="1,1" output="128" pads_begin="0,0" pads_end="0,0" strides="1,1"/>
			<input>
				<port id="0">
					<dim>1</dim>
					<dim>64</dim>
					<dim>7</dim>
					<dim>7</dim>
				</port>
			</input>
			<output>
				<port id="3">
					<dim>1</dim>
					<dim>128</dim>
					<dim>7</dim>
					<dim>7</dim>
				</port>
			</output>
			<blobs>
				<weights offset="546672" size="32768"/>
				<biases offset="579440" size="512"/>
			</blobs>
		</layer>
		<layer id="145" name="unit2_2/Conv/Relu" precision="FP32" type="ReLU">
			<input>
				<port id="0">
					<dim>1</dim>
					<dim>128</dim>
					<dim>7</dim>
					<dim>7</dim>
				</port>
			</input>
			<output>
				<port id="1">
					<dim>1</dim>
					<dim>128</dim>
					<dim>7</dim>
					<dim>7</dim>
				</port>
			</output>
		</layer>
		<layer id="146" name="unit2_2/SE_Moudle/global_avg_pooling" precision="FP32" type="Pooling">
			<data exclude-pad="true" kernel="7,7" pads_begin="0,0" pads_end="0,0" pool-method="avg" rounding-type="ceil" strides="1,1"/>
			<input>
				<port id="0">
					<dim>1</dim>
					<dim>128</dim>
					<dim>7</dim>
					<dim>7</dim>
				</port>
			</input>
			<output>
				<port id="1">
					<dim>1</dim>
					<dim>128</dim>
					<dim>1</dim>
					<dim>1</dim>
				</port>
			</output>
		</layer>
		<layer id="147" name="unit2_2/SE_Moudle/dim_decrease/Conv2D" precision="FP32" type="Convolution">
			<data auto_pad="same_upper" dilations="1,1" group="1" kernel="1,1" output="8" pads_begin="0,0" pads_end="0,0" strides="1,1"/>
			<input>
				<port id="0">
					<dim>1</dim>
					<dim>128</dim>
					<dim>1</dim>
					<dim>1</dim>
				</port>
			</input>
			<output>
				<port id="3">
					<dim>1</dim>
					<dim>8</dim>
					<dim>1</dim>
					<dim>1</dim>
				</port>
			</output>
			<blobs>
				<weights offset="579952" size="4096"/>
				<biases offset="584048" size="32"/>
			</blobs>
		</layer>
		<layer id="148" name="unit2_2/SE_Moudle/dim_decrease/Relu" precision="FP32" type="ReLU">
			<input>
				<port id="0">
					<dim>1</dim>
					<dim>8</dim>
					<dim>1</dim>
					<dim>1</dim>
				</port>
			</input>
			<output>
				<port id="1">
					<dim>1</dim>
					<dim>8</dim>
					<dim>1</dim>
					<dim>1</dim>
				</port>
			</output>
		</layer>
		<layer id="149" name="unit2_2/SE_Moudle/dim_increase/Conv2D" precision="FP32" type="Convolution">
			<data auto_pad="same_upper" dilations="1,1" group="1" kernel="1,1" output="128" pads_begin="0,0" pads_end="0,0" strides="1,1"/>
			<input>
				<port id="0">
					<dim>1</dim>
					<dim>8</dim>
					<dim>1</dim>
					<dim>1</dim>
				</port>
			</input>
			<output>
				<port id="3">
					<dim>1</dim>
					<dim>128</dim>
					<dim>1</dim>
					<dim>1</dim>
				</port>
			</output>
			<blobs>
				<weights offset="584080" size="4096"/>
				<biases offset="588176" size="512"/>
			</blobs>
		</layer>
		<layer id="150" name="unit2_2/SE_Moudle/dim_increase/Sigmoid" precision="FP32" type="Activation">
			<data type="sigmoid"/>
			<input>
				<port id="0">
					<dim>1</dim>
					<dim>128</dim>
					<dim>1</dim>
					<dim>1</dim>
				</port>
			</input>
			<output>
				<port id="1">
					<dim>1</dim>
					<dim>128</dim>
					<dim>1</dim>
					<dim>1</dim>
				</port>
			</output>
		</layer>
		<layer id="151" name="unit2_2/SE_Moudle/mul/Broadcast/" precision="FP32" type="Tile">
			<data axis="2" tiles="7"/>
			<input>
				<port id="0">
					<dim>1</dim>
					<dim>128</dim>
					<dim>1</dim>
					<dim>1</dim>
				</port>
			</input>
			<output>
				<port id="1">
					<dim>1</dim>
					<dim>128</dim>
					<dim>7</dim>
					<dim>1</dim>
				</port>
			</output>
		</layer>
		<layer id="152" name="unit2_2/SE_Moudle/mul/Broadcast/8727" precision="FP32" type="Tile">
			<data axis="3" tiles="7"/>
			<input>
				<port id="0">
					<dim>1</dim>
					<dim>128</dim>
					<dim>7</dim>
					<dim>1</dim>
				</port>
			</input>
			<output>
				<port id="1">
					<dim>1</dim>
					<dim>128</dim>
					<dim>7</dim>
					<dim>7</dim>
				</port>
			</output>
		</layer>
		<layer id="153" name="unit2_2/SE_Moudle/mul" precision="FP32" type="Eltwise">
			<data operation="mul"/>
			<input>
				<port id="0">
					<dim>1</dim>
					<dim>128</dim>
					<dim>7</dim>
					<dim>7</dim>
				</port>
				<port id="1">
					<dim>1</dim>
					<dim>128</dim>
					<dim>7</dim>
					<dim>7</dim>
				</port>
			</input>
			<output>
				<port id="2">
					<dim>1</dim>
					<dim>128</dim>
					<dim>7</dim>
					<dim>7</dim>
				</port>
			</output>
		</layer>
		<layer id="154" name="unit2_2/add" precision="FP32" type="Eltwise">
			<data operation="sum"/>
			<input>
				<port id="0">
					<dim>1</dim>
					<dim>128</dim>
					<dim>7</dim>
					<dim>7</dim>
				</port>
				<port id="1">
					<dim>1</dim>
					<dim>128</dim>
					<dim>7</dim>
					<dim>7</dim>
				</port>
			</input>
			<output>
				<port id="2">
					<dim>1</dim>
					<dim>128</dim>
					<dim>7</dim>
					<dim>7</dim>
				</port>
			</output>
		</layer>
		<layer id="155" name="unit2_2/Addition_relu" precision="FP32" type="ReLU">
			<input>
				<port id="0">
					<dim>1</dim>
					<dim>128</dim>
					<dim>7</dim>
					<dim>7</dim>
				</port>
			</input>
			<output>
				<port id="1">
					<dim>1</dim>
					<dim>128</dim>
					<dim>7</dim>
					<dim>7</dim>
				</port>
			</output>
		</layer>
		<layer id="156" name="unit2_3/branch_0/1x1conv/Conv2D" precision="FP32" type="Convolution">
			<data auto_pad="same_upper" dilations="1,1" group="1" kernel="1,1" output="32" pads_begin="0,0" pads_end="0,0" strides="1,1"/>
			<input>
				<port id="0">
					<dim>1</dim>
					<dim>128</dim>
					<dim>7</dim>
					<dim>7</dim>
				</port>
			</input>
			<output>
				<port id="3">
					<dim>1</dim>
					<dim>32</dim>
					<dim>7</dim>
					<dim>7</dim>
				</port>
			</output>
			<blobs>
				<weights offset="588688" size="16384"/>
				<biases offset="605072" size="128"/>
			</blobs>
		</layer>
		<layer id="157" name="unit2_3/branch_0/1x1conv/Relu" precision="FP32" type="ReLU">
			<input>
				<port id="0">
					<dim>1</dim>
					<dim>32</dim>
					<dim>7</dim>
					<dim>7</dim>
				</port>
			</input>
			<output>
				<port id="1">
					<dim>1</dim>
					<dim>32</dim>
					<dim>7</dim>
					<dim>7</dim>
				</port>
			</output>
		</layer>
		<layer id="158" name="Mul1_7390/Fused_Mul_/FusedScaleShift_" precision="FP32" type="ScaleShift">
			<input>
				<port id="0">
					<dim>1</dim>
					<dim>32</dim>
					<dim>7</dim>
					<dim>7</dim>
				</port>
			</input>
			<output>
				<port id="3">
					<dim>1</dim>
					<dim>32</dim>
					<dim>7</dim>
					<dim>7</dim>
				</port>
			</output>
			<blobs>
				<weights offset="605200" size="128"/>
				<biases offset="605328" size="128"/>
			</blobs>
		</layer>
		<layer id="159" name="unit2_3/branch_0/Conv/Conv2D" precision="FP32" type="Convolution">
			<data auto_pad="same_upper" dilations="1,1" group="1" kernel="3,3" output="32" pads_begin="1,1" pads_end="1,1" strides="1,1"/>
			<input>
				<port id="0">
					<dim>1</dim>
					<dim>32</dim>
					<dim>7</dim>
					<dim>7</dim>
				</port>
			</input>
			<output>
				<port id="3">
					<dim>1</dim>
					<dim>32</dim>
					<dim>7</dim>
					<dim>7</dim>
				</port>
			</output>
			<blobs>
				<weights offset="605456" size="36864"/>
				<biases offset="642320" size="128"/>
			</blobs>
		</layer>
		<layer id="160" name="unit2_3/branch_0/Conv/Relu" precision="FP32" type="ReLU">
			<input>
				<port id="0">
					<dim>1</dim>
					<dim>32</dim>
					<dim>7</dim>
					<dim>7</dim>
				</port>
			</input>
			<output>
				<port id="1">
					<dim>1</dim>
					<dim>32</dim>
					<dim>7</dim>
					<dim>7</dim>
				</port>
			</output>
		</layer>
		<layer id="161" name="Mul1_7489/Fused_Mul_/FusedScaleShift_" precision="FP32" type="ScaleShift">
			<input>
				<port id="0">
					<dim>1</dim>
					<dim>32</dim>
					<dim>7</dim>
					<dim>7</dim>
				</port>
			</input>
			<output>
				<port id="3">
					<dim>1</dim>
					<dim>32</dim>
					<dim>7</dim>
					<dim>7</dim>
				</port>
			</output>
			<blobs>
				<weights offset="642448" size="128"/>
				<biases offset="642576" size="128"/>
			</blobs>
		</layer>
		<layer id="162" name="unit2_3/branch_1/1x1conv/Conv2D" precision="FP32" type="Convolution">
			<data auto_pad="same_upper" dilations="1,1" group="1" kernel="1,1" output="32" pads_begin="0,0" pads_end="0,0" strides="1,1"/>
			<input>
				<port id="0">
					<dim>1</dim>
					<dim>128</dim>
					<dim>7</dim>
					<dim>7</dim>
				</port>
			</input>
			<output>
				<port id="3">
					<dim>1</dim>
					<dim>32</dim>
					<dim>7</dim>
					<dim>7</dim>
				</port>
			</output>
			<blobs>
				<weights offset="642704" size="16384"/>
				<biases offset="659088" size="128"/>
			</blobs>
		</layer>
		<layer id="163" name="unit2_3/branch_1/1x1conv/Relu" precision="FP32" type="ReLU">
			<input>
				<port id="0">
					<dim>1</dim>
					<dim>32</dim>
					<dim>7</dim>
					<dim>7</dim>
				</port>
			</input>
			<output>
				<port id="1">
					<dim>1</dim>
					<dim>32</dim>
					<dim>7</dim>
					<dim>7</dim>
				</port>
			</output>
		</layer>
		<layer id="164" name="Mul1_7039/Fused_Mul_/FusedScaleShift_" precision="FP32" type="ScaleShift">
			<input>
				<port id="0">
					<dim>1</dim>
					<dim>32</dim>
					<dim>7</dim>
					<dim>7</dim>
				</port>
			</input>
			<output>
				<port id="3">
					<dim>1</dim>
					<dim>32</dim>
					<dim>7</dim>
					<dim>7</dim>
				</port>
			</output>
			<blobs>
				<weights offset="659216" size="128"/>
				<biases offset="659344" size="128"/>
			</blobs>
		</layer>
		<layer id="165" name="unit2_3/branch_1/Conv/Conv2D" precision="FP32" type="Convolution">
			<data auto_pad="same_upper" dilations="1,1" group="1" kernel="3,3" output="32" pads_begin="1,1" pads_end="1,1" strides="1,1"/>
			<input>
				<port id="0">
					<dim>1</dim>
					<dim>32</dim>
					<dim>7</dim>
					<dim>7</dim>
				</port>
			</input>
			<output>
				<port id="3">
					<dim>1</dim>
					<dim>32</dim>
					<dim>7</dim>
					<dim>7</dim>
				</port>
			</output>
			<blobs>
				<weights offset="659472" size="36864"/>
				<biases offset="696336" size="128"/>
			</blobs>
		</layer>
		<layer id="166" name="unit2_3/branch_1/Conv/Relu" precision="FP32" type="ReLU">
			<input>
				<port id="0">
					<dim>1</dim>
					<dim>32</dim>
					<dim>7</dim>
					<dim>7</dim>
				</port>
			</input>
			<output>
				<port id="1">
					<dim>1</dim>
					<dim>32</dim>
					<dim>7</dim>
					<dim>7</dim>
				</port>
			</output>
		</layer>
		<layer id="167" name="Mul1_7921/Fused_Mul_/FusedScaleShift_" precision="FP32" type="ScaleShift">
			<input>
				<port id="0">
					<dim>1</dim>
					<dim>32</dim>
					<dim>7</dim>
					<dim>7</dim>
				</port>
			</input>
			<output>
				<port id="3">
					<dim>1</dim>
					<dim>32</dim>
					<dim>7</dim>
					<dim>7</dim>
				</port>
			</output>
			<blobs>
				<weights offset="696464" size="128"/>
				<biases offset="696592" size="128"/>
			</blobs>
		</layer>
		<layer id="168" name="unit2_3/concat" precision="FP32" type="Concat">
			<data axis="1"/>
			<input>
				<port id="0">
					<dim>1</dim>
					<dim>32</dim>
					<dim>7</dim>
					<dim>7</dim>
				</port>
				<port id="1">
					<dim>1</dim>
					<dim>32</dim>
					<dim>7</dim>
					<dim>7</dim>
				</port>
			</input>
			<output>
				<port id="2">
					<dim>1</dim>
					<dim>64</dim>
					<dim>7</dim>
					<dim>7</dim>
				</port>
			</output>
		</layer>
		<layer id="169" name="unit2_3/Conv/Conv2D" precision="FP32" type="Convolution">
			<data auto_pad="same_upper" dilations="1,1" group="1" kernel="1,1" output="128" pads_begin="0,0" pads_end="0,0" strides="1,1"/>
			<input>
				<port id="0">
					<dim>1</dim>
					<dim>64</dim>
					<dim>7</dim>
					<dim>7</dim>
				</port>
			</input>
			<output>
				<port id="3">
					<dim>1</dim>
					<dim>128</dim>
					<dim>7</dim>
					<dim>7</dim>
				</port>
			</output>
			<blobs>
				<weights offset="696720" size="32768"/>
				<biases offset="729488" size="512"/>
			</blobs>
		</layer>
		<layer id="170" name="unit2_3/Conv/Relu" precision="FP32" type="ReLU">
			<input>
				<port id="0">
					<dim>1</dim>
					<dim>128</dim>
					<dim>7</dim>
					<dim>7</dim>
				</port>
			</input>
			<output>
				<port id="1">
					<dim>1</dim>
					<dim>128</dim>
					<dim>7</dim>
					<dim>7</dim>
				</port>
			</output>
		</layer>
		<layer id="171" name="unit2_3/SE_Moudle/global_avg_pooling" precision="FP32" type="Pooling">
			<data exclude-pad="true" kernel="7,7" pads_begin="0,0" pads_end="0,0" pool-method="avg" rounding-type="ceil" strides="1,1"/>
			<input>
				<port id="0">
					<dim>1</dim>
					<dim>128</dim>
					<dim>7</dim>
					<dim>7</dim>
				</port>
			</input>
			<output>
				<port id="1">
					<dim>1</dim>
					<dim>128</dim>
					<dim>1</dim>
					<dim>1</dim>
				</port>
			</output>
		</layer>
		<layer id="172" name="unit2_3/SE_Moudle/dim_decrease/Conv2D" precision="FP32" type="Convolution">
			<data auto_pad="same_upper" dilations="1,1" group="1" kernel="1,1" output="8" pads_begin="0,0" pads_end="0,0" strides="1,1"/>
			<input>
				<port id="0">
					<dim>1</dim>
					<dim>128</dim>
					<dim>1</dim>
					<dim>1</dim>
				</port>
			</input>
			<output>
				<port id="3">
					<dim>1</dim>
					<dim>8</dim>
					<dim>1</dim>
					<dim>1</dim>
				</port>
			</output>
			<blobs>
				<weights offset="730000" size="4096"/>
				<biases offset="734096" size="32"/>
			</blobs>
		</layer>
		<layer id="173" name="unit2_3/SE_Moudle/dim_decrease/Relu" precision="FP32" type="ReLU">
			<input>
				<port id="0">
					<dim>1</dim>
					<dim>8</dim>
					<dim>1</dim>
					<dim>1</dim>
				</port>
			</input>
			<output>
				<port id="1">
					<dim>1</dim>
					<dim>8</dim>
					<dim>1</dim>
					<dim>1</dim>
				</port>
			</output>
		</layer>
		<layer id="174" name="unit2_3/SE_Moudle/dim_increase/Conv2D" precision="FP32" type="Convolution">
			<data auto_pad="same_upper" dilations="1,1" group="1" kernel="1,1" output="128" pads_begin="0,0" pads_end="0,0" strides="1,1"/>
			<input>
				<port id="0">
					<dim>1</dim>
					<dim>8</dim>
					<dim>1</dim>
					<dim>1</dim>
				</port>
			</input>
			<output>
				<port id="3">
					<dim>1</dim>
					<dim>128</dim>
					<dim>1</dim>
					<dim>1</dim>
				</port>
			</output>
			<blobs>
				<weights offset="734128" size="4096"/>
				<biases offset="738224" size="512"/>
			</blobs>
		</layer>
		<layer id="175" name="unit2_3/SE_Moudle/dim_increase/Sigmoid" precision="FP32" type="Activation">
			<data type="sigmoid"/>
			<input>
				<port id="0">
					<dim>1</dim>
					<dim>128</dim>
					<dim>1</dim>
					<dim>1</dim>
				</port>
			</input>
			<output>
				<port id="1">
					<dim>1</dim>
					<dim>128</dim>
					<dim>1</dim>
					<dim>1</dim>
				</port>
			</output>
		</layer>
		<layer id="176" name="unit2_3/SE_Moudle/mul/Broadcast/" precision="FP32" type="Tile">
			<data axis="2" tiles="7"/>
			<input>
				<port id="0">
					<dim>1</dim>
					<dim>128</dim>
					<dim>1</dim>
					<dim>1</dim>
				</port>
			</input>
			<output>
				<port id="1">
					<dim>1</dim>
					<dim>128</dim>
					<dim>7</dim>
					<dim>1</dim>
				</port>
			</output>
		</layer>
		<layer id="177" name="unit2_3/SE_Moudle/mul/Broadcast/8755" precision="FP32" type="Tile">
			<data axis="3" tiles="7"/>
			<input>
				<port id="0">
					<dim>1</dim>
					<dim>128</dim>
					<dim>7</dim>
					<dim>1</dim>
				</port>
			</input>
			<output>
				<port id="1">
					<dim>1</dim>
					<dim>128</dim>
					<dim>7</dim>
					<dim>7</dim>
				</port>
			</output>
		</layer>
		<layer id="178" name="unit2_3/SE_Moudle/mul" precision="FP32" type="Eltwise">
			<data operation="mul"/>
			<input>
				<port id="0">
					<dim>1</dim>
					<dim>128</dim>
					<dim>7</dim>
					<dim>7</dim>
				</port>
				<port id="1">
					<dim>1</dim>
					<dim>128</dim>
					<dim>7</dim>
					<dim>7</dim>
				</port>
			</input>
			<output>
				<port id="2">
					<dim>1</dim>
					<dim>128</dim>
					<dim>7</dim>
					<dim>7</dim>
				</port>
			</output>
		</layer>
		<layer id="179" name="unit2_3/add" precision="FP32" type="Eltwise">
			<data operation="sum"/>
			<input>
				<port id="0">
					<dim>1</dim>
					<dim>128</dim>
					<dim>7</dim>
					<dim>7</dim>
				</port>
				<port id="1">
					<dim>1</dim>
					<dim>128</dim>
					<dim>7</dim>
					<dim>7</dim>
				</port>
			</input>
			<output>
				<port id="2">
					<dim>1</dim>
					<dim>128</dim>
					<dim>7</dim>
					<dim>7</dim>
				</port>
			</output>
		</layer>
		<layer id="180" name="unit2_3/Addition_relu" precision="FP32" type="ReLU">
			<input>
				<port id="0">
					<dim>1</dim>
					<dim>128</dim>
					<dim>7</dim>
					<dim>7</dim>
				</port>
			</input>
			<output>
				<port id="1">
					<dim>1</dim>
					<dim>128</dim>
					<dim>7</dim>
					<dim>7</dim>
				</port>
			</output>
		</layer>
		<layer id="181" name="unit3_0/branch_0/1x1conv/Conv2D" precision="FP32" type="Convolution">
			<data auto_pad="same_upper" dilations="1,1" group="1" kernel="1,1" output="64" pads_begin="0,0" pads_end="0,0" strides="1,1"/>
			<input>
				<port id="0">
					<dim>1</dim>
					<dim>128</dim>
					<dim>7</dim>
					<dim>7</dim>
				</port>
			</input>
			<output>
				<port id="3">
					<dim>1</dim>
					<dim>64</dim>
					<dim>7</dim>
					<dim>7</dim>
				</port>
			</output>
			<blobs>
				<weights offset="738736" size="32768"/>
				<biases offset="771504" size="256"/>
			</blobs>
		</layer>
		<layer id="182" name="unit3_0/branch_0/1x1conv/Relu" precision="FP32" type="ReLU">
			<input>
				<port id="0">
					<dim>1</dim>
					<dim>64</dim>
					<dim>7</dim>
					<dim>7</dim>
				</port>
			</input>
			<output>
				<port id="1">
					<dim>1</dim>
					<dim>64</dim>
					<dim>7</dim>
					<dim>7</dim>
				</port>
			</output>
		</layer>
		<layer id="183" name="Mul1_7849/Fused_Mul_/FusedScaleShift_" precision="FP32" type="ScaleShift">
			<input>
				<port id="0">
					<dim>1</dim>
					<dim>64</dim>
					<dim>7</dim>
					<dim>7</dim>
				</port>
			</input>
			<output>
				<port id="3">
					<dim>1</dim>
					<dim>64</dim>
					<dim>7</dim>
					<dim>7</dim>
				</port>
			</output>
			<blobs>
				<weights offset="771760" size="256"/>
				<biases offset="772016" size="256"/>
			</blobs>
		</layer>
		<layer id="184" name="unit3_0/branch_0/Conv/Conv2D" precision="FP32" type="Convolution">
			<data auto_pad="same_upper" dilations="1,1" group="1" kernel="3,3" output="64" pads_begin="1,1" pads_end="1,1" strides="2,2"/>
			<input>
				<port id="0">
					<dim>1</dim>
					<dim>64</dim>
					<dim>7</dim>
					<dim>7</dim>
				</port>
			</input>
			<output>
				<port id="3">
					<dim>1</dim>
					<dim>64</dim>
					<dim>4</dim>
					<dim>4</dim>
				</port>
			</output>
			<blobs>
				<weights offset="772272" size="147456"/>
				<biases offset="919728" size="256"/>
			</blobs>
		</layer>
		<layer id="185" name="unit3_0/branch_0/Conv/Relu" precision="FP32" type="ReLU">
			<input>
				<port id="0">
					<dim>1</dim>
					<dim>64</dim>
					<dim>4</dim>
					<dim>4</dim>
				</port>
			</input>
			<output>
				<port id="1">
					<dim>1</dim>
					<dim>64</dim>
					<dim>4</dim>
					<dim>4</dim>
				</port>
			</output>
		</layer>
		<layer id="186" name="Mul1_7588/Fused_Mul_/FusedScaleShift_" precision="FP32" type="ScaleShift">
			<input>
				<port id="0">
					<dim>1</dim>
					<dim>64</dim>
					<dim>4</dim>
					<dim>4</dim>
				</port>
			</input>
			<output>
				<port id="3">
					<dim>1</dim>
					<dim>64</dim>
					<dim>4</dim>
					<dim>4</dim>
				</port>
			</output>
			<blobs>
				<weights offset="919984" size="256"/>
				<biases offset="920240" size="256"/>
			</blobs>
		</layer>
		<layer id="187" name="unit3_0/branch_1/1x1conv/Conv2D" precision="FP32" type="Convolution">
			<data auto_pad="same_upper" dilations="1,1" group="1" kernel="1,1" output="64" pads_begin="0,0" pads_end="0,0" strides="1,1"/>
			<input>
				<port id="0">
					<dim>1</dim>
					<dim>128</dim>
					<dim>7</dim>
					<dim>7</dim>
				</port>
			</input>
			<output>
				<port id="3">
					<dim>1</dim>
					<dim>64</dim>
					<dim>7</dim>
					<dim>7</dim>
				</port>
			</output>
			<blobs>
				<weights offset="920496" size="32768"/>
				<biases offset="953264" size="256"/>
			</blobs>
		</layer>
		<layer id="188" name="unit3_0/branch_1/1x1conv/Relu" precision="FP32" type="ReLU">
			<input>
				<port id="0">
					<dim>1</dim>
					<dim>64</dim>
					<dim>7</dim>
					<dim>7</dim>
				</port>
			</input>
			<output>
				<port id="1">
					<dim>1</dim>
					<dim>64</dim>
					<dim>7</dim>
					<dim>7</dim>
				</port>
			</output>
		</layer>
		<layer id="189" name="Mul1_7543/Fused_Mul_/FusedScaleShift_" precision="FP32" type="ScaleShift">
			<input>
				<port id="0">
					<dim>1</dim>
					<dim>64</dim>
					<dim>7</dim>
					<dim>7</dim>
				</port>
			</input>
			<output>
				<port id="3">
					<dim>1</dim>
					<dim>64</dim>
					<dim>7</dim>
					<dim>7</dim>
				</port>
			</output>
			<blobs>
				<weights offset="953520" size="256"/>
				<biases offset="953776" size="256"/>
			</blobs>
		</layer>
		<layer id="190" name="unit3_0/branch_1/Conv/Conv2D" precision="FP32" type="Convolution">
			<data auto_pad="same_upper" dilations="1,1" group="1" kernel="3,3" output="64" pads_begin="1,1" pads_end="1,1" strides="2,2"/>
			<input>
				<port id="0">
					<dim>1</dim>
					<dim>64</dim>
					<dim>7</dim>
					<dim>7</dim>
				</port>
			</input>
			<output>
				<port id="3">
					<dim>1</dim>
					<dim>64</dim>
					<dim>4</dim>
					<dim>4</dim>
				</port>
			</output>
			<blobs>
				<weights offset="954032" size="147456"/>
				<biases offset="1101488" size="256"/>
			</blobs>
		</layer>
		<layer id="191" name="unit3_0/branch_1/Conv/Relu" precision="FP32" type="ReLU">
			<input>
				<port id="0">
					<dim>1</dim>
					<dim>64</dim>
					<dim>4</dim>
					<dim>4</dim>
				</port>
			</input>
			<output>
				<port id="1">
					<dim>1</dim>
					<dim>64</dim>
					<dim>4</dim>
					<dim>4</dim>
				</port>
			</output>
		</layer>
		<layer id="192" name="Mul1_7399/Fused_Mul_/FusedScaleShift_" precision="FP32" type="ScaleShift">
			<input>
				<port id="0">
					<dim>1</dim>
					<dim>64</dim>
					<dim>4</dim>
					<dim>4</dim>
				</port>
			</input>
			<output>
				<port id="3">
					<dim>1</dim>
					<dim>64</dim>
					<dim>4</dim>
					<dim>4</dim>
				</port>
			</output>
			<blobs>
				<weights offset="1101744" size="256"/>
				<biases offset="1102000" size="256"/>
			</blobs>
		</layer>
		<layer id="193" name="unit3_0/concat" precision="FP32" type="Concat">
			<data axis="1"/>
			<input>
				<port id="0">
					<dim>1</dim>
					<dim>64</dim>
					<dim>4</dim>
					<dim>4</dim>
				</port>
				<port id="1">
					<dim>1</dim>
					<dim>64</dim>
					<dim>4</dim>
					<dim>4</dim>
				</port>
			</input>
			<output>
				<port id="2">
					<dim>1</dim>
					<dim>128</dim>
					<dim>4</dim>
					<dim>4</dim>
				</port>
			</output>
		</layer>
		<layer id="194" name="unit3_0/Conv/Conv2D" precision="FP32" type="Convolution">
			<data auto_pad="same_upper" dilations="1,1" group="1" kernel="1,1" output="256" pads_begin="0,0" pads_end="0,0" strides="1,1"/>
			<input>
				<port id="0">
					<dim>1</dim>
					<dim>128</dim>
					<dim>4</dim>
					<dim>4</dim>
				</port>
			</input>
			<output>
				<port id="3">
					<dim>1</dim>
					<dim>256</dim>
					<dim>4</dim>
					<dim>4</dim>
				</port>
			</output>
			<blobs>
				<weights offset="1102256" size="131072"/>
				<biases offset="1233328" size="1024"/>
			</blobs>
		</layer>
		<layer id="195" name="unit3_0/Conv/Relu" precision="FP32" type="ReLU">
			<input>
				<port id="0">
					<dim>1</dim>
					<dim>256</dim>
					<dim>4</dim>
					<dim>4</dim>
				</port>
			</input>
			<output>
				<port id="1">
					<dim>1</dim>
					<dim>256</dim>
					<dim>4</dim>
					<dim>4</dim>
				</port>
			</output>
		</layer>
		<layer id="196" name="unit3_0/SE_Moudle/global_avg_pooling" precision="FP32" type="Pooling">
			<data exclude-pad="true" kernel="4,4" pads_begin="0,0" pads_end="0,0" pool-method="avg" rounding-type="ceil" strides="1,1"/>
			<input>
				<port id="0">
					<dim>1</dim>
					<dim>256</dim>
					<dim>4</dim>
					<dim>4</dim>
				</port>
			</input>
			<output>
				<port id="1">
					<dim>1</dim>
					<dim>256</dim>
					<dim>1</dim>
					<dim>1</dim>
				</port>
			</output>
		</layer>
		<layer id="197" name="unit3_0/SE_Moudle/dim_decrease/Conv2D" precision="FP32" type="Convolution">
			<data auto_pad="same_upper" dilations="1,1" group="1" kernel="1,1" output="16" pads_begin="0,0" pads_end="0,0" strides="1,1"/>
			<input>
				<port id="0">
					<dim>1</dim>
					<dim>256</dim>
					<dim>1</dim>
					<dim>1</dim>
				</port>
			</input>
			<output>
				<port id="3">
					<dim>1</dim>
					<dim>16</dim>
					<dim>1</dim>
					<dim>1</dim>
				</port>
			</output>
			<blobs>
				<weights offset="1234352" size="16384"/>
				<biases offset="1250736" size="64"/>
			</blobs>
		</layer>
		<layer id="198" name="unit3_0/SE_Moudle/dim_decrease/Relu" precision="FP32" type="ReLU">
			<input>
				<port id="0">
					<dim>1</dim>
					<dim>16</dim>
					<dim>1</dim>
					<dim>1</dim>
				</port>
			</input>
			<output>
				<port id="1">
					<dim>1</dim>
					<dim>16</dim>
					<dim>1</dim>
					<dim>1</dim>
				</port>
			</output>
		</layer>
		<layer id="199" name="unit3_0/SE_Moudle/dim_increase/Conv2D" precision="FP32" type="Convolution">
			<data auto_pad="same_upper" dilations="1,1" group="1" kernel="1,1" output="256" pads_begin="0,0" pads_end="0,0" strides="1,1"/>
			<input>
				<port id="0">
					<dim>1</dim>
					<dim>16</dim>
					<dim>1</dim>
					<dim>1</dim>
				</port>
			</input>
			<output>
				<port id="3">
					<dim>1</dim>
					<dim>256</dim>
					<dim>1</dim>
					<dim>1</dim>
				</port>
			</output>
			<blobs>
				<weights offset="1250800" size="16384"/>
				<biases offset="1267184" size="1024"/>
			</blobs>
		</layer>
		<layer id="200" name="unit3_0/SE_Moudle/dim_increase/Sigmoid" precision="FP32" type="Activation">
			<data type="sigmoid"/>
			<input>
				<port id="0">
					<dim>1</dim>
					<dim>256</dim>
					<dim>1</dim>
					<dim>1</dim>
				</port>
			</input>
			<output>
				<port id="1">
					<dim>1</dim>
					<dim>256</dim>
					<dim>1</dim>
					<dim>1</dim>
				</port>
			</output>
		</layer>
		<layer id="201" name="unit3_0/SE_Moudle/mul/Broadcast/" precision="FP32" type="Tile">
			<data axis="2" tiles="4"/>
			<input>
				<port id="0">
					<dim>1</dim>
					<dim>256</dim>
					<dim>1</dim>
					<dim>1</dim>
				</port>
			</input>
			<output>
				<port id="1">
					<dim>1</dim>
					<dim>256</dim>
					<dim>4</dim>
					<dim>1</dim>
				</port>
			</output>
		</layer>
		<layer id="202" name="unit3_0/SE_Moudle/mul/Broadcast/8735" precision="FP32" type="Tile">
			<data axis="3" tiles="4"/>
			<input>
				<port id="0">
					<dim>1</dim>
					<dim>256</dim>
					<dim>4</dim>
					<dim>1</dim>
				</port>
			</input>
			<output>
				<port id="1">
					<dim>1</dim>
					<dim>256</dim>
					<dim>4</dim>
					<dim>4</dim>
				</port>
			</output>
		</layer>
		<layer id="203" name="unit3_0/SE_Moudle/mul" precision="FP32" type="Eltwise">
			<data operation="mul"/>
			<input>
				<port id="0">
					<dim>1</dim>
					<dim>256</dim>
					<dim>4</dim>
					<dim>4</dim>
				</port>
				<port id="1">
					<dim>1</dim>
					<dim>256</dim>
					<dim>4</dim>
					<dim>4</dim>
				</port>
			</input>
			<output>
				<port id="2">
					<dim>1</dim>
					<dim>256</dim>
					<dim>4</dim>
					<dim>4</dim>
				</port>
			</output>
		</layer>
		<layer id="204" name="unit3_0/AvgPool2D/AvgPool" precision="FP32" type="Pooling">
			<data auto_pad="same_upper" exclude-pad="true" kernel="2,2" pads_begin="0,0" pads_end="1,1" pool-method="avg" strides="2,2"/>
			<input>
				<port id="0">
					<dim>1</dim>
					<dim>128</dim>
					<dim>7</dim>
					<dim>7</dim>
				</port>
			</input>
			<output>
				<port id="1">
					<dim>1</dim>
					<dim>128</dim>
					<dim>4</dim>
					<dim>4</dim>
				</port>
			</output>
		</layer>
		<layer id="205" name="unit3_0/matchDim/Conv2D" precision="FP32" type="Convolution">
			<data auto_pad="same_upper" dilations="1,1" group="1" kernel="1,1" output="256" pads_begin="0,0" pads_end="0,0" strides="1,1"/>
			<input>
				<port id="0">
					<dim>1</dim>
					<dim>128</dim>
					<dim>4</dim>
					<dim>4</dim>
				</port>
			</input>
			<output>
				<port id="3">
					<dim>1</dim>
					<dim>256</dim>
					<dim>4</dim>
					<dim>4</dim>
				</port>
			</output>
			<blobs>
				<weights offset="1268208" size="131072"/>
				<biases offset="1399280" size="1024"/>
			</blobs>
		</layer>
		<layer id="206" name="unit3_0/matchDim/Relu" precision="FP32" type="ReLU">
			<input>
				<port id="0">
					<dim>1</dim>
					<dim>256</dim>
					<dim>4</dim>
					<dim>4</dim>
				</port>
			</input>
			<output>
				<port id="1">
					<dim>1</dim>
					<dim>256</dim>
					<dim>4</dim>
					<dim>4</dim>
				</port>
			</output>
		</layer>
		<layer id="207" name="unit3_0/add" precision="FP32" type="Eltwise">
			<data operation="sum"/>
			<input>
				<port id="0">
					<dim>1</dim>
					<dim>256</dim>
					<dim>4</dim>
					<dim>4</dim>
				</port>
				<port id="1">
					<dim>1</dim>
					<dim>256</dim>
					<dim>4</dim>
					<dim>4</dim>
				</port>
			</input>
			<output>
				<port id="2">
					<dim>1</dim>
					<dim>256</dim>
					<dim>4</dim>
					<dim>4</dim>
				</port>
			</output>
		</layer>
		<layer id="208" name="unit3_0/Addition_relu" precision="FP32" type="ReLU">
			<input>
				<port id="0">
					<dim>1</dim>
					<dim>256</dim>
					<dim>4</dim>
					<dim>4</dim>
				</port>
			</input>
			<output>
				<port id="1">
					<dim>1</dim>
					<dim>256</dim>
					<dim>4</dim>
					<dim>4</dim>
				</port>
			</output>
		</layer>
		<layer id="209" name="unit3_1/branch_0/1x1conv/Conv2D" precision="FP32" type="Convolution">
			<data auto_pad="same_upper" dilations="1,1" group="1" kernel="1,1" output="64" pads_begin="0,0" pads_end="0,0" strides="1,1"/>
			<input>
				<port id="0">
					<dim>1</dim>
					<dim>256</dim>
					<dim>4</dim>
					<dim>4</dim>
				</port>
			</input>
			<output>
				<port id="3">
					<dim>1</dim>
					<dim>64</dim>
					<dim>4</dim>
					<dim>4</dim>
				</port>
			</output>
			<blobs>
				<weights offset="1400304" size="65536"/>
				<biases offset="1465840" size="256"/>
			</blobs>
		</layer>
		<layer id="210" name="unit3_1/branch_0/1x1conv/Relu" precision="FP32" type="ReLU">
			<input>
				<port id="0">
					<dim>1</dim>
					<dim>64</dim>
					<dim>4</dim>
					<dim>4</dim>
				</port>
			</input>
			<output>
				<port id="1">
					<dim>1</dim>
					<dim>64</dim>
					<dim>4</dim>
					<dim>4</dim>
				</port>
			</output>
		</layer>
		<layer id="211" name="Mul1_7066/Fused_Mul_/FusedScaleShift_" precision="FP32" type="ScaleShift">
			<input>
				<port id="0">
					<dim>1</dim>
					<dim>64</dim>
					<dim>4</dim>
					<dim>4</dim>
				</port>
			</input>
			<output>
				<port id="3">
					<dim>1</dim>
					<dim>64</dim>
					<dim>4</dim>
					<dim>4</dim>
				</port>
			</output>
			<blobs>
				<weights offset="1466096" size="256"/>
				<biases offset="1466352" size="256"/>
			</blobs>
		</layer>
		<layer id="212" name="unit3_1/branch_0/Conv/Conv2D" precision="FP32" type="Convolution">
			<data auto_pad="same_upper" dilations="1,1" group="1" kernel="3,3" output="64" pads_begin="1,1" pads_end="1,1" strides="1,1"/>
			<input>
				<port id="0">
					<dim>1</dim>
					<dim>64</dim>
					<dim>4</dim>
					<dim>4</dim>
				</port>
			</input>
			<output>
				<port id="3">
					<dim>1</dim>
					<dim>64</dim>
					<dim>4</dim>
					<dim>4</dim>
				</port>
			</output>
			<blobs>
				<weights offset="1466608" size="147456"/>
				<biases offset="1614064" size="256"/>
			</blobs>
		</layer>
		<layer id="213" name="unit3_1/branch_0/Conv/Relu" precision="FP32" type="ReLU">
			<input>
				<port id="0">
					<dim>1</dim>
					<dim>64</dim>
					<dim>4</dim>
					<dim>4</dim>
				</port>
			</input>
			<output>
				<port id="1">
					<dim>1</dim>
					<dim>64</dim>
					<dim>4</dim>
					<dim>4</dim>
				</port>
			</output>
		</layer>
		<layer id="214" name="Mul1_7327/Fused_Mul_/FusedScaleShift_" precision="FP32" type="ScaleShift">
			<input>
				<port id="0">
					<dim>1</dim>
					<dim>64</dim>
					<dim>4</dim>
					<dim>4</dim>
				</port>
			</input>
			<output>
				<port id="3">
					<dim>1</dim>
					<dim>64</dim>
					<dim>4</dim>
					<dim>4</dim>
				</port>
			</output>
			<blobs>
				<weights offset="1614320" size="256"/>
				<biases offset="1614576" size="256"/>
			</blobs>
		</layer>
		<layer id="215" name="unit3_1/branch_1/1x1conv/Conv2D" precision="FP32" type="Convolution">
			<data auto_pad="same_upper" dilations="1,1" group="1" kernel="1,1" output="64" pads_begin="0,0" pads_end="0,0" strides="1,1"/>
			<input>
				<port id="0">
					<dim>1</dim>
					<dim>256</dim>
					<dim>4</dim>
					<dim>4</dim>
				</port>
			</input>
			<output>
				<port id="3">
					<dim>1</dim>
					<dim>64</dim>
					<dim>4</dim>
					<dim>4</dim>
				</port>
			</output>
			<blobs>
				<weights offset="1614832" size="65536"/>
				<biases offset="1680368" size="256"/>
			</blobs>
		</layer>
		<layer id="216" name="unit3_1/branch_1/1x1conv/Relu" precision="FP32" type="ReLU">
			<input>
				<port id="0">
					<dim>1</dim>
					<dim>64</dim>
					<dim>4</dim>
					<dim>4</dim>
				</port>
			</input>
			<output>
				<port id="1">
					<dim>1</dim>
					<dim>64</dim>
					<dim>4</dim>
					<dim>4</dim>
				</port>
			</output>
		</layer>
		<layer id="217" name="Mul1_7894/Fused_Mul_/FusedScaleShift_" precision="FP32" type="ScaleShift">
			<input>
				<port id="0">
					<dim>1</dim>
					<dim>64</dim>
					<dim>4</dim>
					<dim>4</dim>
				</port>
			</input>
			<output>
				<port id="3">
					<dim>1</dim>
					<dim>64</dim>
					<dim>4</dim>
					<dim>4</dim>
				</port>
			</output>
			<blobs>
				<weights offset="1680624" size="256"/>
				<biases offset="1680880" size="256"/>
			</blobs>
		</layer>
		<layer id="218" name="unit3_1/branch_1/Conv/Conv2D" precision="FP32" type="Convolution">
			<data auto_pad="same_upper" dilations="1,1" group="1" kernel="3,3" output="64" pads_begin="1,1" pads_end="1,1" strides="1,1"/>
			<input>
				<port id="0">
					<dim>1</dim>
					<dim>64</dim>
					<dim>4</dim>
					<dim>4</dim>
				</port>
			</input>
			<output>
				<port id="3">
					<dim>1</dim>
					<dim>64</dim>
					<dim>4</dim>
					<dim>4</dim>
				</port>
			</output>
			<blobs>
				<weights offset="1681136" size="147456"/>
				<biases offset="1828592" size="256"/>
			</blobs>
		</layer>
		<layer id="219" name="unit3_1/branch_1/Conv/Relu" precision="FP32" type="ReLU">
			<input>
				<port id="0">
					<dim>1</dim>
					<dim>64</dim>
					<dim>4</dim>
					<dim>4</dim>
				</port>
			</input>
			<output>
				<port id="1">
					<dim>1</dim>
					<dim>64</dim>
					<dim>4</dim>
					<dim>4</dim>
				</port>
			</output>
		</layer>
		<layer id="220" name="Mul1_6913/Fused_Mul_/FusedScaleShift_" precision="FP32" type="ScaleShift">
			<input>
				<port id="0">
					<dim>1</dim>
					<dim>64</dim>
					<dim>4</dim>
					<dim>4</dim>
				</port>
			</input>
			<output>
				<port id="3">
					<dim>1</dim>
					<dim>64</dim>
					<dim>4</dim>
					<dim>4</dim>
				</port>
			</output>
			<blobs>
				<weights offset="1828848" size="256"/>
				<biases offset="1829104" size="256"/>
			</blobs>
		</layer>
		<layer id="221" name="unit3_1/concat" precision="FP32" type="Concat">
			<data axis="1"/>
			<input>
				<port id="0">
					<dim>1</dim>
					<dim>64</dim>
					<dim>4</dim>
					<dim>4</dim>
				</port>
				<port id="1">
					<dim>1</dim>
					<dim>64</dim>
					<dim>4</dim>
					<dim>4</dim>
				</port>
			</input>
			<output>
				<port id="2">
					<dim>1</dim>
					<dim>128</dim>
					<dim>4</dim>
					<dim>4</dim>
				</port>
			</output>
		</layer>
		<layer id="222" name="unit3_1/Conv/Conv2D" precision="FP32" type="Convolution">
			<data auto_pad="same_upper" dilations="1,1" group="1" kernel="1,1" output="256" pads_begin="0,0" pads_end="0,0" strides="1,1"/>
			<input>
				<port id="0">
					<dim>1</dim>
					<dim>128</dim>
					<dim>4</dim>
					<dim>4</dim>
				</port>
			</input>
			<output>
				<port id="3">
					<dim>1</dim>
					<dim>256</dim>
					<dim>4</dim>
					<dim>4</dim>
				</port>
			</output>
			<blobs>
				<weights offset="1829360" size="131072"/>
				<biases offset="1960432" size="1024"/>
			</blobs>
		</layer>
		<layer id="223" name="unit3_1/Conv/Relu" precision="FP32" type="ReLU">
			<input>
				<port id="0">
					<dim>1</dim>
					<dim>256</dim>
					<dim>4</dim>
					<dim>4</dim>
				</port>
			</input>
			<output>
				<port id="1">
					<dim>1</dim>
					<dim>256</dim>
					<dim>4</dim>
					<dim>4</dim>
				</port>
			</output>
		</layer>
		<layer id="224" name="unit3_1/SE_Moudle/global_avg_pooling" precision="FP32" type="Pooling">
			<data exclude-pad="true" kernel="4,4" pads_begin="0,0" pads_end="0,0" pool-method="avg" rounding-type="ceil" strides="1,1"/>
			<input>
				<port id="0">
					<dim>1</dim>
					<dim>256</dim>
					<dim>4</dim>
					<dim>4</dim>
				</port>
			</input>
			<output>
				<port id="1">
					<dim>1</dim>
					<dim>256</dim>
					<dim>1</dim>
					<dim>1</dim>
				</port>
			</output>
		</layer>
		<layer id="225" name="unit3_1/SE_Moudle/dim_decrease/Conv2D" precision="FP32" type="Convolution">
			<data auto_pad="same_upper" dilations="1,1" group="1" kernel="1,1" output="16" pads_begin="0,0" pads_end="0,0" strides="1,1"/>
			<input>
				<port id="0">
					<dim>1</dim>
					<dim>256</dim>
					<dim>1</dim>
					<dim>1</dim>
				</port>
			</input>
			<output>
				<port id="3">
					<dim>1</dim>
					<dim>16</dim>
					<dim>1</dim>
					<dim>1</dim>
				</port>
			</output>
			<blobs>
				<weights offset="1961456" size="16384"/>
				<biases offset="1977840" size="64"/>
			</blobs>
		</layer>
		<layer id="226" name="unit3_1/SE_Moudle/dim_decrease/Relu" precision="FP32" type="ReLU">
			<input>
				<port id="0">
					<dim>1</dim>
					<dim>16</dim>
					<dim>1</dim>
					<dim>1</dim>
				</port>
			</input>
			<output>
				<port id="1">
					<dim>1</dim>
					<dim>16</dim>
					<dim>1</dim>
					<dim>1</dim>
				</port>
			</output>
		</layer>
		<layer id="227" name="unit3_1/SE_Moudle/dim_increase/Conv2D" precision="FP32" type="Convolution">
			<data auto_pad="same_upper" dilations="1,1" group="1" kernel="1,1" output="256" pads_begin="0,0" pads_end="0,0" strides="1,1"/>
			<input>
				<port id="0">
					<dim>1</dim>
					<dim>16</dim>
					<dim>1</dim>
					<dim>1</dim>
				</port>
			</input>
			<output>
				<port id="3">
					<dim>1</dim>
					<dim>256</dim>
					<dim>1</dim>
					<dim>1</dim>
				</port>
			</output>
			<blobs>
				<weights offset="1977904" size="16384"/>
				<biases offset="1994288" size="1024"/>
			</blobs>
		</layer>
		<layer id="228" name="unit3_1/SE_Moudle/dim_increase/Sigmoid" precision="FP32" type="Activation">
			<data type="sigmoid"/>
			<input>
				<port id="0">
					<dim>1</dim>
					<dim>256</dim>
					<dim>1</dim>
					<dim>1</dim>
				</port>
			</input>
			<output>
				<port id="1">
					<dim>1</dim>
					<dim>256</dim>
					<dim>1</dim>
					<dim>1</dim>
				</port>
			</output>
		</layer>
		<layer id="229" name="unit3_1/SE_Moudle/mul/Broadcast/" precision="FP32" type="Tile">
			<data axis="2" tiles="4"/>
			<input>
				<port id="0">
					<dim>1</dim>
					<dim>256</dim>
					<dim>1</dim>
					<dim>1</dim>
				</port>
			</input>
			<output>
				<port id="1">
					<dim>1</dim>
					<dim>256</dim>
					<dim>4</dim>
					<dim>1</dim>
				</port>
			</output>
		</layer>
		<layer id="230" name="unit3_1/SE_Moudle/mul/Broadcast/8743" precision="FP32" type="Tile">
			<data axis="3" tiles="4"/>
			<input>
				<port id="0">
					<dim>1</dim>
					<dim>256</dim>
					<dim>4</dim>
					<dim>1</dim>
				</port>
			</input>
			<output>
				<port id="1">
					<dim>1</dim>
					<dim>256</dim>
					<dim>4</dim>
					<dim>4</dim>
				</port>
			</output>
		</layer>
		<layer id="231" name="unit3_1/SE_Moudle/mul" precision="FP32" type="Eltwise">
			<data operation="mul"/>
			<input>
				<port id="0">
					<dim>1</dim>
					<dim>256</dim>
					<dim>4</dim>
					<dim>4</dim>
				</port>
				<port id="1">
					<dim>1</dim>
					<dim>256</dim>
					<dim>4</dim>
					<dim>4</dim>
				</port>
			</input>
			<output>
				<port id="2">
					<dim>1</dim>
					<dim>256</dim>
					<dim>4</dim>
					<dim>4</dim>
				</port>
			</output>
		</layer>
		<layer id="232" name="unit3_1/add" precision="FP32" type="Eltwise">
			<data operation="sum"/>
			<input>
				<port id="0">
					<dim>1</dim>
					<dim>256</dim>
					<dim>4</dim>
					<dim>4</dim>
				</port>
				<port id="1">
					<dim>1</dim>
					<dim>256</dim>
					<dim>4</dim>
					<dim>4</dim>
				</port>
			</input>
			<output>
				<port id="2">
					<dim>1</dim>
					<dim>256</dim>
					<dim>4</dim>
					<dim>4</dim>
				</port>
			</output>
		</layer>
		<layer id="233" name="unit3_1/Addition_relu" precision="FP32" type="ReLU">
			<input>
				<port id="0">
					<dim>1</dim>
					<dim>256</dim>
					<dim>4</dim>
					<dim>4</dim>
				</port>
			</input>
			<output>
				<port id="1">
					<dim>1</dim>
					<dim>256</dim>
					<dim>4</dim>
					<dim>4</dim>
				</port>
			</output>
		</layer>
		<layer id="234" name="unit3_2/branch_0/1x1conv/Conv2D" precision="FP32" type="Convolution">
			<data auto_pad="same_upper" dilations="1,1" group="1" kernel="1,1" output="64" pads_begin="0,0" pads_end="0,0" strides="1,1"/>
			<input>
				<port id="0">
					<dim>1</dim>
					<dim>256</dim>
					<dim>4</dim>
					<dim>4</dim>
				</port>
			</input>
			<output>
				<port id="3">
					<dim>1</dim>
					<dim>64</dim>
					<dim>4</dim>
					<dim>4</dim>
				</port>
			</output>
			<blobs>
				<weights offset="1995312" size="65536"/>
				<biases offset="2060848" size="256"/>
			</blobs>
		</layer>
		<layer id="235" name="unit3_2/branch_0/1x1conv/Relu" precision="FP32" type="ReLU">
			<input>
				<port id="0">
					<dim>1</dim>
					<dim>64</dim>
					<dim>4</dim>
					<dim>4</dim>
				</port>
			</input>
			<output>
				<port id="1">
					<dim>1</dim>
					<dim>64</dim>
					<dim>4</dim>
					<dim>4</dim>
				</port>
			</output>
		</layer>
		<layer id="236" name="Mul1_7570/Fused_Mul_/FusedScaleShift_" precision="FP32" type="ScaleShift">
			<input>
				<port id="0">
					<dim>1</dim>
					<dim>64</dim>
					<dim>4</dim>
					<dim>4</dim>
				</port>
			</input>
			<output>
				<port id="3">
					<dim>1</dim>
					<dim>64</dim>
					<dim>4</dim>
					<dim>4</dim>
				</port>
			</output>
			<blobs>
				<weights offset="2061104" size="256"/>
				<biases offset="2061360" size="256"/>
			</blobs>
		</layer>
		<layer id="237" name="unit3_2/branch_0/Conv/Conv2D" precision="FP32" type="Convolution">
			<data auto_pad="same_upper" dilations="1,1" group="1" kernel="3,3" output="64" pads_begin="1,1" pads_end="1,1" strides="1,1"/>
			<input>
				<port id="0">
					<dim>1</dim>
					<dim>64</dim>
					<dim>4</dim>
					<dim>4</dim>
				</port>
			</input>
			<output>
				<port id="3">
					<dim>1</dim>
					<dim>64</dim>
					<dim>4</dim>
					<dim>4</dim>
				</port>
			</output>
			<blobs>
				<weights offset="2061616" size="147456"/>
				<biases offset="2209072" size="256"/>
			</blobs>
		</layer>
		<layer id="238" name="unit3_2/branch_0/Conv/Relu" precision="FP32" type="ReLU">
			<input>
				<port id="0">
					<dim>1</dim>
					<dim>64</dim>
					<dim>4</dim>
					<dim>4</dim>
				</port>
			</input>
			<output>
				<port id="1">
					<dim>1</dim>
					<dim>64</dim>
					<dim>4</dim>
					<dim>4</dim>
				</port>
			</output>
		</layer>
		<layer id="239" name="Mul1_6931/Fused_Mul_/FusedScaleShift_" precision="FP32" type="ScaleShift">
			<input>
				<port id="0">
					<dim>1</dim>
					<dim>64</dim>
					<dim>4</dim>
					<dim>4</dim>
				</port>
			</input>
			<output>
				<port id="3">
					<dim>1</dim>
					<dim>64</dim>
					<dim>4</dim>
					<dim>4</dim>
				</port>
			</output>
			<blobs>
				<weights offset="2209328" size="256"/>
				<biases offset="2209584" size="256"/>
			</blobs>
		</layer>
		<layer id="240" name="unit3_2/branch_1/1x1conv/Conv2D" precision="FP32" type="Convolution">
			<data auto_pad="same_upper" dilations="1,1" group="1" kernel="1,1" output="64" pads_begin="0,0" pads_end="0,0" strides="1,1"/>
			<input>
				<port id="0">
					<dim>1</dim>
					<dim>256</dim>
					<dim>4</dim>
					<dim>4</dim>
				</port>
			</input>
			<output>
				<port id="3">
					<dim>1</dim>
					<dim>64</dim>
					<dim>4</dim>
					<dim>4</dim>
				</port>
			</output>
			<blobs>
				<weights offset="2209840" size="65536"/>
				<biases offset="2275376" size="256"/>
			</blobs>
		</layer>
		<layer id="241" name="unit3_2/branch_1/1x1conv/Relu" precision="FP32" type="ReLU">
			<input>
				<port id="0">
					<dim>1</dim>
					<dim>64</dim>
					<dim>4</dim>
					<dim>4</dim>
				</port>
			</input>
			<output>
				<port id="1">
					<dim>1</dim>
					<dim>64</dim>
					<dim>4</dim>
					<dim>4</dim>
				</port>
			</output>
		</layer>
		<layer id="242" name="Mul1_7480/Fused_Mul_/FusedScaleShift_" precision="FP32" type="ScaleShift">
			<input>
				<port id="0">
					<dim>1</dim>
					<dim>64</dim>
					<dim>4</dim>
					<dim>4</dim>
				</port>
			</input>
			<output>
				<port id="3">
					<dim>1</dim>
					<dim>64</dim>
					<dim>4</dim>
					<dim>4</dim>
				</port>
			</output>
			<blobs>
				<weights offset="2275632" size="256"/>
				<biases offset="2275888" size="256"/>
			</blobs>
		</layer>
		<layer id="243" name="unit3_2/branch_1/Conv/Conv2D" precision="FP32" type="Convolution">
			<data auto_pad="same_upper" dilations="1,1" group="1" kernel="3,3" output="64" pads_begin="1,1" pads_end="1,1" strides="1,1"/>
			<input>
				<port id="0">
					<dim>1</dim>
					<dim>64</dim>
					<dim>4</dim>
					<dim>4</dim>
				</port>
			</input>
			<output>
				<port id="3">
					<dim>1</dim>
					<dim>64</dim>
					<dim>4</dim>
					<dim>4</dim>
				</port>
			</output>
			<blobs>
				<weights offset="2276144" size="147456"/>
				<biases offset="2423600" size="256"/>
			</blobs>
		</layer>
		<layer id="244" name="unit3_2/branch_1/Conv/Relu" precision="FP32" type="ReLU">
			<input>
				<port id="0">
					<dim>1</dim>
					<dim>64</dim>
					<dim>4</dim>
					<dim>4</dim>
				</port>
			</input>
			<output>
				<port id="1">
					<dim>1</dim>
					<dim>64</dim>
					<dim>4</dim>
					<dim>4</dim>
				</port>
			</output>
		</layer>
		<layer id="245" name="Mul1_7003/Fused_Mul_/FusedScaleShift_" precision="FP32" type="ScaleShift">
			<input>
				<port id="0">
					<dim>1</dim>
					<dim>64</dim>
					<dim>4</dim>
					<dim>4</dim>
				</port>
			</input>
			<output>
				<port id="3">
					<dim>1</dim>
					<dim>64</dim>
					<dim>4</dim>
					<dim>4</dim>
				</port>
			</output>
			<blobs>
				<weights offset="2423856" size="256"/>
				<biases offset="2424112" size="256"/>
			</blobs>
		</layer>
		<layer id="246" name="unit3_2/concat" precision="FP32" type="Concat">
			<data axis="1"/>
			<input>
				<port id="0">
					<dim>1</dim>
					<dim>64</dim>
					<dim>4</dim>
					<dim>4</dim>
				</port>
				<port id="1">
					<dim>1</dim>
					<dim>64</dim>
					<dim>4</dim>
					<dim>4</dim>
				</port>
			</input>
			<output>
				<port id="2">
					<dim>1</dim>
					<dim>128</dim>
					<dim>4</dim>
					<dim>4</dim>
				</port>
			</output>
		</layer>
		<layer id="247" name="unit3_2/Conv/Conv2D" precision="FP32" type="Convolution">
			<data auto_pad="same_upper" dilations="1,1" group="1" kernel="1,1" output="256" pads_begin="0,0" pads_end="0,0" strides="1,1"/>
			<input>
				<port id="0">
					<dim>1</dim>
					<dim>128</dim>
					<dim>4</dim>
					<dim>4</dim>
				</port>
			</input>
			<output>
				<port id="3">
					<dim>1</dim>
					<dim>256</dim>
					<dim>4</dim>
					<dim>4</dim>
				</port>
			</output>
			<blobs>
				<weights offset="2424368" size="131072"/>
				<biases offset="2555440" size="1024"/>
			</blobs>
		</layer>
		<layer id="248" name="unit3_2/Conv/Relu" precision="FP32" type="ReLU">
			<input>
				<port id="0">
					<dim>1</dim>
					<dim>256</dim>
					<dim>4</dim>
					<dim>4</dim>
				</port>
			</input>
			<output>
				<port id="1">
					<dim>1</dim>
					<dim>256</dim>
					<dim>4</dim>
					<dim>4</dim>
				</port>
			</output>
		</layer>
		<layer id="249" name="unit3_2/SE_Moudle/global_avg_pooling" precision="FP32" type="Pooling">
			<data exclude-pad="true" kernel="4,4" pads_begin="0,0" pads_end="0,0" pool-method="avg" rounding-type="ceil" strides="1,1"/>
			<input>
				<port id="0">
					<dim>1</dim>
					<dim>256</dim>
					<dim>4</dim>
					<dim>4</dim>
				</port>
			</input>
			<output>
				<port id="1">
					<dim>1</dim>
					<dim>256</dim>
					<dim>1</dim>
					<dim>1</dim>
				</port>
			</output>
		</layer>
		<layer id="250" name="unit3_2/SE_Moudle/dim_decrease/Conv2D" precision="FP32" type="Convolution">
			<data auto_pad="same_upper" dilations="1,1" group="1" kernel="1,1" output="16" pads_begin="0,0" pads_end="0,0" strides="1,1"/>
			<input>
				<port id="0">
					<dim>1</dim>
					<dim>256</dim>
					<dim>1</dim>
					<dim>1</dim>
				</port>
			</input>
			<output>
				<port id="3">
					<dim>1</dim>
					<dim>16</dim>
					<dim>1</dim>
					<dim>1</dim>
				</port>
			</output>
			<blobs>
				<weights offset="2556464" size="16384"/>
				<biases offset="2572848" size="64"/>
			</blobs>
		</layer>
		<layer id="251" name="unit3_2/SE_Moudle/dim_decrease/Relu" precision="FP32" type="ReLU">
			<input>
				<port id="0">
					<dim>1</dim>
					<dim>16</dim>
					<dim>1</dim>
					<dim>1</dim>
				</port>
			</input>
			<output>
				<port id="1">
					<dim>1</dim>
					<dim>16</dim>
					<dim>1</dim>
					<dim>1</dim>
				</port>
			</output>
		</layer>
		<layer id="252" name="unit3_2/SE_Moudle/dim_increase/Conv2D" precision="FP32" type="Convolution">
			<data auto_pad="same_upper" dilations="1,1" group="1" kernel="1,1" output="256" pads_begin="0,0" pads_end="0,0" strides="1,1"/>
			<input>
				<port id="0">
					<dim>1</dim>
					<dim>16</dim>
					<dim>1</dim>
					<dim>1</dim>
				</port>
			</input>
			<output>
				<port id="3">
					<dim>1</dim>
					<dim>256</dim>
					<dim>1</dim>
					<dim>1</dim>
				</port>
			</output>
			<blobs>
				<weights offset="2572912" size="16384"/>
				<biases offset="2589296" size="1024"/>
			</blobs>
		</layer>
		<layer id="253" name="unit3_2/SE_Moudle/dim_increase/Sigmoid" precision="FP32" type="Activation">
			<data type="sigmoid"/>
			<input>
				<port id="0">
					<dim>1</dim>
					<dim>256</dim>
					<dim>1</dim>
					<dim>1</dim>
				</port>
			</input>
			<output>
				<port id="1">
					<dim>1</dim>
					<dim>256</dim>
					<dim>1</dim>
					<dim>1</dim>
				</port>
			</output>
		</layer>
		<layer id="254" name="unit3_2/SE_Moudle/mul/Broadcast/" precision="FP32" type="Tile">
			<data axis="2" tiles="4"/>
			<input>
				<port id="0">
					<dim>1</dim>
					<dim>256</dim>
					<dim>1</dim>
					<dim>1</dim>
				</port>
			</input>
			<output>
				<port id="1">
					<dim>1</dim>
					<dim>256</dim>
					<dim>4</dim>
					<dim>1</dim>
				</port>
			</output>
		</layer>
		<layer id="255" name="unit3_2/SE_Moudle/mul/Broadcast/8723" precision="FP32" type="Tile">
			<data axis="3" tiles="4"/>
			<input>
				<port id="0">
					<dim>1</dim>
					<dim>256</dim>
					<dim>4</dim>
					<dim>1</dim>
				</port>
			</input>
			<output>
				<port id="1">
					<dim>1</dim>
					<dim>256</dim>
					<dim>4</dim>
					<dim>4</dim>
				</port>
			</output>
		</layer>
		<layer id="256" name="unit3_2/SE_Moudle/mul" precision="FP32" type="Eltwise">
			<data operation="mul"/>
			<input>
				<port id="0">
					<dim>1</dim>
					<dim>256</dim>
					<dim>4</dim>
					<dim>4</dim>
				</port>
				<port id="1">
					<dim>1</dim>
					<dim>256</dim>
					<dim>4</dim>
					<dim>4</dim>
				</port>
			</input>
			<output>
				<port id="2">
					<dim>1</dim>
					<dim>256</dim>
					<dim>4</dim>
					<dim>4</dim>
				</port>
			</output>
		</layer>
		<layer id="257" name="unit3_2/add" precision="FP32" type="Eltwise">
			<data operation="sum"/>
			<input>
				<port id="0">
					<dim>1</dim>
					<dim>256</dim>
					<dim>4</dim>
					<dim>4</dim>
				</port>
				<port id="1">
					<dim>1</dim>
					<dim>256</dim>
					<dim>4</dim>
					<dim>4</dim>
				</port>
			</input>
			<output>
				<port id="2">
					<dim>1</dim>
					<dim>256</dim>
					<dim>4</dim>
					<dim>4</dim>
				</port>
			</output>
		</layer>
		<layer id="258" name="unit3_2/Addition_relu" precision="FP32" type="ReLU">
			<input>
				<port id="0">
					<dim>1</dim>
					<dim>256</dim>
					<dim>4</dim>
					<dim>4</dim>
				</port>
			</input>
			<output>
				<port id="1">
					<dim>1</dim>
					<dim>256</dim>
					<dim>4</dim>
					<dim>4</dim>
				</port>
			</output>
		</layer>
		<layer id="259" name="unit3_3/branch_0/1x1conv/Conv2D" precision="FP32" type="Convolution">
			<data auto_pad="same_upper" dilations="1,1" group="1" kernel="1,1" output="64" pads_begin="0,0" pads_end="0,0" strides="1,1"/>
			<input>
				<port id="0">
					<dim>1</dim>
					<dim>256</dim>
					<dim>4</dim>
					<dim>4</dim>
				</port>
			</input>
			<output>
				<port id="3">
					<dim>1</dim>
					<dim>64</dim>
					<dim>4</dim>
					<dim>4</dim>
				</port>
			</output>
			<blobs>
				<weights offset="2590320" size="65536"/>
				<biases offset="2655856" size="256"/>
			</blobs>
		</layer>
		<layer id="260" name="unit3_3/branch_0/1x1conv/Relu" precision="FP32" type="ReLU">
			<input>
				<port id="0">
					<dim>1</dim>
					<dim>64</dim>
					<dim>4</dim>
					<dim>4</dim>
				</port>
			</input>
			<output>
				<port id="1">
					<dim>1</dim>
					<dim>64</dim>
					<dim>4</dim>
					<dim>4</dim>
				</port>
			</output>
		</layer>
		<layer id="261" name="Mul1_7957/Fused_Mul_/FusedScaleShift_" precision="FP32" type="ScaleShift">
			<input>
				<port id="0">
					<dim>1</dim>
					<dim>64</dim>
					<dim>4</dim>
					<dim>4</dim>
				</port>
			</input>
			<output>
				<port id="3">
					<dim>1</dim>
					<dim>64</dim>
					<dim>4</dim>
					<dim>4</dim>
				</port>
			</output>
			<blobs>
				<weights offset="2656112" size="256"/>
				<biases offset="2656368" size="256"/>
			</blobs>
		</layer>
		<layer id="262" name="unit3_3/branch_0/Conv/Conv2D" precision="FP32" type="Convolution">
			<data auto_pad="same_upper" dilations="1,1" group="1" kernel="3,3" output="64" pads_begin="1,1" pads_end="1,1" strides="1,1"/>
			<input>
				<port id="0">
					<dim>1</dim>
					<dim>64</dim>
					<dim>4</dim>
					<dim>4</dim>
				</port>
			</input>
			<output>
				<port id="3">
					<dim>1</dim>
					<dim>64</dim>
					<dim>4</dim>
					<dim>4</dim>
				</port>
			</output>
			<blobs>
				<weights offset="2656624" size="147456"/>
				<biases offset="2804080" size="256"/>
			</blobs>
		</layer>
		<layer id="263" name="unit3_3/branch_0/Conv/Relu" precision="FP32" type="ReLU">
			<input>
				<port id="0">
					<dim>1</dim>
					<dim>64</dim>
					<dim>4</dim>
					<dim>4</dim>
				</port>
			</input>
			<output>
				<port id="1">
					<dim>1</dim>
					<dim>64</dim>
					<dim>4</dim>
					<dim>4</dim>
				</port>
			</output>
		</layer>
		<layer id="264" name="Mul1_7192/Fused_Mul_/FusedScaleShift_" precision="FP32" type="ScaleShift">
			<input>
				<port id="0">
					<dim>1</dim>
					<dim>64</dim>
					<dim>4</dim>
					<dim>4</dim>
				</port>
			</input>
			<output>
				<port id="3">
					<dim>1</dim>
					<dim>64</dim>
					<dim>4</dim>
					<dim>4</dim>
				</port>
			</output>
			<blobs>
				<weights offset="2804336" size="256"/>
				<biases offset="2804592" size="256"/>
			</blobs>
		</layer>
		<layer id="265" name="unit3_3/branch_1/1x1conv/Conv2D" precision="FP32" type="Convolution">
			<data auto_pad="same_upper" dilations="1,1" group="1" kernel="1,1" output="64" pads_begin="0,0" pads_end="0,0" strides="1,1"/>
			<input>
				<port id="0">
					<dim>1</dim>
					<dim>256</dim>
					<dim>4</dim>
					<dim>4</dim>
				</port>
			</input>
			<output>
				<port id="3">
					<dim>1</dim>
					<dim>64</dim>
					<dim>4</dim>
					<dim>4</dim>
				</port>
			</output>
			<blobs>
				<weights offset="2804848" size="65536"/>
				<biases offset="2870384" size="256"/>
			</blobs>
		</layer>
		<layer id="266" name="unit3_3/branch_1/1x1conv/Relu" precision="FP32" type="ReLU">
			<input>
				<port id="0">
					<dim>1</dim>
					<dim>64</dim>
					<dim>4</dim>
					<dim>4</dim>
				</port>
			</input>
			<output>
				<port id="1">
					<dim>1</dim>
					<dim>64</dim>
					<dim>4</dim>
					<dim>4</dim>
				</port>
			</output>
		</layer>
		<layer id="267" name="Mul1_7075/Fused_Mul_/FusedScaleShift_" precision="FP32" type="ScaleShift">
			<input>
				<port id="0">
					<dim>1</dim>
					<dim>64</dim>
					<dim>4</dim>
					<dim>4</dim>
				</port>
			</input>
			<output>
				<port id="3">
					<dim>1</dim>
					<dim>64</dim>
					<dim>4</dim>
					<dim>4</dim>
				</port>
			</output>
			<blobs>
				<weights offset="2870640" size="256"/>
				<biases offset="2870896" size="256"/>
			</blobs>
		</layer>
		<layer id="268" name="unit3_3/branch_1/Conv/Conv2D" precision="FP32" type="Convolution">
			<data auto_pad="same_upper" dilations="1,1" group="1" kernel="3,3" output="64" pads_begin="1,1" pads_end="1,1" strides="1,1"/>
			<input>
				<port id="0">
					<dim>1</dim>
					<dim>64</dim>
					<dim>4</dim>
					<dim>4</dim>
				</port>
			</input>
			<output>
				<port id="3">
					<dim>1</dim>
					<dim>64</dim>
					<dim>4</dim>
					<dim>4</dim>
				</port>
			</output>
			<blobs>
				<weights offset="2871152" size="147456"/>
				<biases offset="3018608" size="256"/>
			</blobs>
		</layer>
		<layer id="269" name="unit3_3/branch_1/Conv/Relu" precision="FP32" type="ReLU">
			<input>
				<port id="0">
					<dim>1</dim>
					<dim>64</dim>
					<dim>4</dim>
					<dim>4</dim>
				</port>
			</input>
			<output>
				<port id="1">
					<dim>1</dim>
					<dim>64</dim>
					<dim>4</dim>
					<dim>4</dim>
				</port>
			</output>
		</layer>
		<layer id="270" name="Mul1_6967/Fused_Mul_/FusedScaleShift_" precision="FP32" type="ScaleShift">
			<input>
				<port id="0">
					<dim>1</dim>
					<dim>64</dim>
					<dim>4</dim>
					<dim>4</dim>
				</port>
			</input>
			<output>
				<port id="3">
					<dim>1</dim>
					<dim>64</dim>
					<dim>4</dim>
					<dim>4</dim>
				</port>
			</output>
			<blobs>
				<weights offset="3018864" size="256"/>
				<biases offset="3019120" size="256"/>
			</blobs>
		</layer>
		<layer id="271" name="unit3_3/concat" precision="FP32" type="Concat">
			<data axis="1"/>
			<input>
				<port id="0">
					<dim>1</dim>
					<dim>64</dim>
					<dim>4</dim>
					<dim>4</dim>
				</port>
				<port id="1">
					<dim>1</dim>
					<dim>64</dim>
					<dim>4</dim>
					<dim>4</dim>
				</port>
			</input>
			<output>
				<port id="2">
					<dim>1</dim>
					<dim>128</dim>
					<dim>4</dim>
					<dim>4</dim>
				</port>
			</output>
		</layer>
		<layer id="272" name="unit3_3/Conv/Conv2D" precision="FP32" type="Convolution">
			<data auto_pad="same_upper" dilations="1,1" group="1" kernel="1,1" output="256" pads_begin="0,0" pads_end="0,0" strides="1,1"/>
			<input>
				<port id="0">
					<dim>1</dim>
					<dim>128</dim>
					<dim>4</dim>
					<dim>4</dim>
				</port>
			</input>
			<output>
				<port id="3">
					<dim>1</dim>
					<dim>256</dim>
					<dim>4</dim>
					<dim>4</dim>
				</port>
			</output>
			<blobs>
				<weights offset="3019376" size="131072"/>
				<biases offset="3150448" size="1024"/>
			</blobs>
		</layer>
		<layer id="273" name="unit3_3/Conv/Relu" precision="FP32" type="ReLU">
			<input>
				<port id="0">
					<dim>1</dim>
					<dim>256</dim>
					<dim>4</dim>
					<dim>4</dim>
				</port>
			</input>
			<output>
				<port id="1">
					<dim>1</dim>
					<dim>256</dim>
					<dim>4</dim>
					<dim>4</dim>
				</port>
			</output>
		</layer>
		<layer id="274" name="unit3_3/SE_Moudle/global_avg_pooling" precision="FP32" type="Pooling">
			<data exclude-pad="true" kernel="4,4" pads_begin="0,0" pads_end="0,0" pool-method="avg" rounding-type="ceil" strides="1,1"/>
			<input>
				<port id="0">
					<dim>1</dim>
					<dim>256</dim>
					<dim>4</dim>
					<dim>4</dim>
				</port>
			</input>
			<output>
				<port id="1">
					<dim>1</dim>
					<dim>256</dim>
					<dim>1</dim>
					<dim>1</dim>
				</port>
			</output>
		</layer>
		<layer id="275" name="unit3_3/SE_Moudle/dim_decrease/Conv2D" precision="FP32" type="Convolution">
			<data auto_pad="same_upper" dilations="1,1" group="1" kernel="1,1" output="16" pads_begin="0,0" pads_end="0,0" strides="1,1"/>
			<input>
				<port id="0">
					<dim>1</dim>
					<dim>256</dim>
					<dim>1</dim>
					<dim>1</dim>
				</port>
			</input>
			<output>
				<port id="3">
					<dim>1</dim>
					<dim>16</dim>
					<dim>1</dim>
					<dim>1</dim>
				</port>
			</output>
			<blobs>
				<weights offset="3151472" size="16384"/>
				<biases offset="3167856" size="64"/>
			</blobs>
		</layer>
		<layer id="276" name="unit3_3/SE_Moudle/dim_decrease/Relu" precision="FP32" type="ReLU">
			<input>
				<port id="0">
					<dim>1</dim>
					<dim>16</dim>
					<dim>1</dim>
					<dim>1</dim>
				</port>
			</input>
			<output>
				<port id="1">
					<dim>1</dim>
					<dim>16</dim>
					<dim>1</dim>
					<dim>1</dim>
				</port>
			</output>
		</layer>
		<layer id="277" name="unit3_3/SE_Moudle/dim_increase/Conv2D" precision="FP32" type="Convolution">
			<data auto_pad="same_upper" dilations="1,1" group="1" kernel="1,1" output="256" pads_begin="0,0" pads_end="0,0" strides="1,1"/>
			<input>
				<port id="0">
					<dim>1</dim>
					<dim>16</dim>
					<dim>1</dim>
					<dim>1</dim>
				</port>
			</input>
			<output>
				<port id="3">
					<dim>1</dim>
					<dim>256</dim>
					<dim>1</dim>
					<dim>1</dim>
				</port>
			</output>
			<blobs>
				<weights offset="3167920" size="16384"/>
				<biases offset="3184304" size="1024"/>
			</blobs>
		</layer>
		<layer id="278" name="unit3_3/SE_Moudle/dim_increase/Sigmoid" precision="FP32" type="Activation">
			<data type="sigmoid"/>
			<input>
				<port id="0">
					<dim>1</dim>
					<dim>256</dim>
					<dim>1</dim>
					<dim>1</dim>
				</port>
			</input>
			<output>
				<port id="1">
					<dim>1</dim>
					<dim>256</dim>
					<dim>1</dim>
					<dim>1</dim>
				</port>
			</output>
		</layer>
		<layer id="279" name="unit3_3/SE_Moudle/mul/Broadcast/" precision="FP32" type="Tile">
			<data axis="2" tiles="4"/>
			<input>
				<port id="0">
					<dim>1</dim>
					<dim>256</dim>
					<dim>1</dim>
					<dim>1</dim>
				</port>
			</input>
			<output>
				<port id="1">
					<dim>1</dim>
					<dim>256</dim>
					<dim>4</dim>
					<dim>1</dim>
				</port>
			</output>
		</layer>
		<layer id="280" name="unit3_3/SE_Moudle/mul/Broadcast/8759" precision="FP32" type="Tile">
			<data axis="3" tiles="4"/>
			<input>
				<port id="0">
					<dim>1</dim>
					<dim>256</dim>
					<dim>4</dim>
					<dim>1</dim>
				</port>
			</input>
			<output>
				<port id="1">
					<dim>1</dim>
					<dim>256</dim>
					<dim>4</dim>
					<dim>4</dim>
				</port>
			</output>
		</layer>
		<layer id="281" name="unit3_3/SE_Moudle/mul" precision="FP32" type="Eltwise">
			<data operation="mul"/>
			<input>
				<port id="0">
					<dim>1</dim>
					<dim>256</dim>
					<dim>4</dim>
					<dim>4</dim>
				</port>
				<port id="1">
					<dim>1</dim>
					<dim>256</dim>
					<dim>4</dim>
					<dim>4</dim>
				</port>
			</input>
			<output>
				<port id="2">
					<dim>1</dim>
					<dim>256</dim>
					<dim>4</dim>
					<dim>4</dim>
				</port>
			</output>
		</layer>
		<layer id="282" name="unit3_3/add" precision="FP32" type="Eltwise">
			<data operation="sum"/>
			<input>
				<port id="0">
					<dim>1</dim>
					<dim>256</dim>
					<dim>4</dim>
					<dim>4</dim>
				</port>
				<port id="1">
					<dim>1</dim>
					<dim>256</dim>
					<dim>4</dim>
					<dim>4</dim>
				</port>
			</input>
			<output>
				<port id="2">
					<dim>1</dim>
					<dim>256</dim>
					<dim>4</dim>
					<dim>4</dim>
				</port>
			</output>
		</layer>
		<layer id="283" name="unit3_3/Addition_relu" precision="FP32" type="ReLU">
			<input>
				<port id="0">
					<dim>1</dim>
					<dim>256</dim>
					<dim>4</dim>
					<dim>4</dim>
				</port>
			</input>
			<output>
				<port id="1">
					<dim>1</dim>
					<dim>256</dim>
					<dim>4</dim>
					<dim>4</dim>
				</port>
			</output>
		</layer>
		<layer id="284" name="unit3_4/branch_0/1x1conv/Conv2D" precision="FP32" type="Convolution">
			<data auto_pad="same_upper" dilations="1,1" group="1" kernel="1,1" output="64" pads_begin="0,0" pads_end="0,0" strides="1,1"/>
			<input>
				<port id="0">
					<dim>1</dim>
					<dim>256</dim>
					<dim>4</dim>
					<dim>4</dim>
				</port>
			</input>
			<output>
				<port id="3">
					<dim>1</dim>
					<dim>64</dim>
					<dim>4</dim>
					<dim>4</dim>
				</port>
			</output>
			<blobs>
				<weights offset="3185328" size="65536"/>
				<biases offset="3250864" size="256"/>
			</blobs>
		</layer>
		<layer id="285" name="unit3_4/branch_0/1x1conv/Relu" precision="FP32" type="ReLU">
			<input>
				<port id="0">
					<dim>1</dim>
					<dim>64</dim>
					<dim>4</dim>
					<dim>4</dim>
				</port>
			</input>
			<output>
				<port id="1">
					<dim>1</dim>
					<dim>64</dim>
					<dim>4</dim>
					<dim>4</dim>
				</port>
			</output>
		</layer>
		<layer id="286" name="Mul1_7147/Fused_Mul_/FusedScaleShift_" precision="FP32" type="ScaleShift">
			<input>
				<port id="0">
					<dim>1</dim>
					<dim>64</dim>
					<dim>4</dim>
					<dim>4</dim>
				</port>
			</input>
			<output>
				<port id="3">
					<dim>1</dim>
					<dim>64</dim>
					<dim>4</dim>
					<dim>4</dim>
				</port>
			</output>
			<blobs>
				<weights offset="3251120" size="256"/>
				<biases offset="3251376" size="256"/>
			</blobs>
		</layer>
		<layer id="287" name="unit3_4/branch_0/Conv/Conv2D" precision="FP32" type="Convolution">
			<data auto_pad="same_upper" dilations="1,1" group="1" kernel="3,3" output="64" pads_begin="1,1" pads_end="1,1" strides="1,1"/>
			<input>
				<port id="0">
					<dim>1</dim>
					<dim>64</dim>
					<dim>4</dim>
					<dim>4</dim>
				</port>
			</input>
			<output>
				<port id="3">
					<dim>1</dim>
					<dim>64</dim>
					<dim>4</dim>
					<dim>4</dim>
				</port>
			</output>
			<blobs>
				<weights offset="3251632" size="147456"/>
				<biases offset="3399088" size="256"/>
			</blobs>
		</layer>
		<layer id="288" name="unit3_4/branch_0/Conv/Relu" precision="FP32" type="ReLU">
			<input>
				<port id="0">
					<dim>1</dim>
					<dim>64</dim>
					<dim>4</dim>
					<dim>4</dim>
				</port>
			</input>
			<output>
				<port id="1">
					<dim>1</dim>
					<dim>64</dim>
					<dim>4</dim>
					<dim>4</dim>
				</port>
			</output>
		</layer>
		<layer id="289" name="Mul1_7858/Fused_Mul_/FusedScaleShift_" precision="FP32" type="ScaleShift">
			<input>
				<port id="0">
					<dim>1</dim>
					<dim>64</dim>
					<dim>4</dim>
					<dim>4</dim>
				</port>
			</input>
			<output>
				<port id="3">
					<dim>1</dim>
					<dim>64</dim>
					<dim>4</dim>
					<dim>4</dim>
				</port>
			</output>
			<blobs>
				<weights offset="3399344" size="256"/>
				<biases offset="3399600" size="256"/>
			</blobs>
		</layer>
		<layer id="290" name="unit3_4/branch_1/1x1conv/Conv2D" precision="FP32" type="Convolution">
			<data auto_pad="same_upper" dilations="1,1" group="1" kernel="1,1" output="64" pads_begin="0,0" pads_end="0,0" strides="1,1"/>
			<input>
				<port id="0">
					<dim>1</dim>
					<dim>256</dim>
					<dim>4</dim>
					<dim>4</dim>
				</port>
			</input>
			<output>
				<port id="3">
					<dim>1</dim>
					<dim>64</dim>
					<dim>4</dim>
					<dim>4</dim>
				</port>
			</output>
			<blobs>
				<weights offset="3399856" size="65536"/>
				<biases offset="3465392" size="256"/>
			</blobs>
		</layer>
		<layer id="291" name="unit3_4/branch_1/1x1conv/Relu" precision="FP32" type="ReLU">
			<input>
				<port id="0">
					<dim>1</dim>
					<dim>64</dim>
					<dim>4</dim>
					<dim>4</dim>
				</port>
			</input>
			<output>
				<port id="1">
					<dim>1</dim>
					<dim>64</dim>
					<dim>4</dim>
					<dim>4</dim>
				</port>
			</output>
		</layer>
		<layer id="292" name="Mul1_6949/Fused_Mul_/FusedScaleShift_" precision="FP32" type="ScaleShift">
			<input>
				<port id="0">
					<dim>1</dim>
					<dim>64</dim>
					<dim>4</dim>
					<dim>4</dim>
				</port>
			</input>
			<output>
				<port id="3">
					<dim>1</dim>
					<dim>64</dim>
					<dim>4</dim>
					<dim>4</dim>
				</port>
			</output>
			<blobs>
				<weights offset="3465648" size="256"/>
				<biases offset="3465904" size="256"/>
			</blobs>
		</layer>
		<layer id="293" name="unit3_4/branch_1/Conv/Conv2D" precision="FP32" type="Convolution">
			<data auto_pad="same_upper" dilations="1,1" group="1" kernel="3,3" output="64" pads_begin="1,1" pads_end="1,1" strides="1,1"/>
			<input>
				<port id="0">
					<dim>1</dim>
					<dim>64</dim>
					<dim>4</dim>
					<dim>4</dim>
				</port>
			</input>
			<output>
				<port id="3">
					<dim>1</dim>
					<dim>64</dim>
					<dim>4</dim>
					<dim>4</dim>
				</port>
			</output>
			<blobs>
				<weights offset="3466160" size="147456"/>
				<biases offset="3613616" size="256"/>
			</blobs>
		</layer>
		<layer id="294" name="unit3_4/branch_1/Conv/Relu" precision="FP32" type="ReLU">
			<input>
				<port id="0">
					<dim>1</dim>
					<dim>64</dim>
					<dim>4</dim>
					<dim>4</dim>
				</port>
			</input>
			<output>
				<port id="1">
					<dim>1</dim>
					<dim>64</dim>
					<dim>4</dim>
					<dim>4</dim>
				</port>
			</output>
		</layer>
		<layer id="295" name="Mul1_7444/Fused_Mul_/FusedScaleShift_" precision="FP32" type="ScaleShift">
			<input>
				<port id="0">
					<dim>1</dim>
					<dim>64</dim>
					<dim>4</dim>
					<dim>4</dim>
				</port>
			</input>
			<output>
				<port id="3">
					<dim>1</dim>
					<dim>64</dim>
					<dim>4</dim>
					<dim>4</dim>
				</port>
			</output>
			<blobs>
				<weights offset="3613872" size="256"/>
				<biases offset="3614128" size="256"/>
			</blobs>
		</layer>
		<layer id="296" name="unit3_4/concat" precision="FP32" type="Concat">
			<data axis="1"/>
			<input>
				<port id="0">
					<dim>1</dim>
					<dim>64</dim>
					<dim>4</dim>
					<dim>4</dim>
				</port>
				<port id="1">
					<dim>1</dim>
					<dim>64</dim>
					<dim>4</dim>
					<dim>4</dim>
				</port>
			</input>
			<output>
				<port id="2">
					<dim>1</dim>
					<dim>128</dim>
					<dim>4</dim>
					<dim>4</dim>
				</port>
			</output>
		</layer>
		<layer id="297" name="unit3_4/Conv/Conv2D" precision="FP32" type="Convolution">
			<data auto_pad="same_upper" dilations="1,1" group="1" kernel="1,1" output="256" pads_begin="0,0" pads_end="0,0" strides="1,1"/>
			<input>
				<port id="0">
					<dim>1</dim>
					<dim>128</dim>
					<dim>4</dim>
					<dim>4</dim>
				</port>
			</input>
			<output>
				<port id="3">
					<dim>1</dim>
					<dim>256</dim>
					<dim>4</dim>
					<dim>4</dim>
				</port>
			</output>
			<blobs>
				<weights offset="3614384" size="131072"/>
				<biases offset="3745456" size="1024"/>
			</blobs>
		</layer>
		<layer id="298" name="unit3_4/Conv/Relu" precision="FP32" type="ReLU">
			<input>
				<port id="0">
					<dim>1</dim>
					<dim>256</dim>
					<dim>4</dim>
					<dim>4</dim>
				</port>
			</input>
			<output>
				<port id="1">
					<dim>1</dim>
					<dim>256</dim>
					<dim>4</dim>
					<dim>4</dim>
				</port>
			</output>
		</layer>
		<layer id="299" name="unit3_4/SE_Moudle/global_avg_pooling" precision="FP32" type="Pooling">
			<data exclude-pad="true" kernel="4,4" pads_begin="0,0" pads_end="0,0" pool-method="avg" rounding-type="ceil" strides="1,1"/>
			<input>
				<port id="0">
					<dim>1</dim>
					<dim>256</dim>
					<dim>4</dim>
					<dim>4</dim>
				</port>
			</input>
			<output>
				<port id="1">
					<dim>1</dim>
					<dim>256</dim>
					<dim>1</dim>
					<dim>1</dim>
				</port>
			</output>
		</layer>
		<layer id="300" name="unit3_4/SE_Moudle/dim_decrease/Conv2D" precision="FP32" type="Convolution">
			<data auto_pad="same_upper" dilations="1,1" group="1" kernel="1,1" output="16" pads_begin="0,0" pads_end="0,0" strides="1,1"/>
			<input>
				<port id="0">
					<dim>1</dim>
					<dim>256</dim>
					<dim>1</dim>
					<dim>1</dim>
				</port>
			</input>
			<output>
				<port id="3">
					<dim>1</dim>
					<dim>16</dim>
					<dim>1</dim>
					<dim>1</dim>
				</port>
			</output>
			<blobs>
				<weights offset="3746480" size="16384"/>
				<biases offset="3762864" size="64"/>
			</blobs>
		</layer>
		<layer id="301" name="unit3_4/SE_Moudle/dim_decrease/Relu" precision="FP32" type="ReLU">
			<input>
				<port id="0">
					<dim>1</dim>
					<dim>16</dim>
					<dim>1</dim>
					<dim>1</dim>
				</port>
			</input>
			<output>
				<port id="1">
					<dim>1</dim>
					<dim>16</dim>
					<dim>1</dim>
					<dim>1</dim>
				</port>
			</output>
		</layer>
		<layer id="302" name="unit3_4/SE_Moudle/dim_increase/Conv2D" precision="FP32" type="Convolution">
			<data auto_pad="same_upper" dilations="1,1" group="1" kernel="1,1" output="256" pads_begin="0,0" pads_end="0,0" strides="1,1"/>
			<input>
				<port id="0">
					<dim>1</dim>
					<dim>16</dim>
					<dim>1</dim>
					<dim>1</dim>
				</port>
			</input>
			<output>
				<port id="3">
					<dim>1</dim>
					<dim>256</dim>
					<dim>1</dim>
					<dim>1</dim>
				</port>
			</output>
			<blobs>
				<weights offset="3762928" size="16384"/>
				<biases offset="3779312" size="1024"/>
			</blobs>
		</layer>
		<layer id="303" name="unit3_4/SE_Moudle/dim_increase/Sigmoid" precision="FP32" type="Activation">
			<data type="sigmoid"/>
			<input>
				<port id="0">
					<dim>1</dim>
					<dim>256</dim>
					<dim>1</dim>
					<dim>1</dim>
				</port>
			</input>
			<output>
				<port id="1">
					<dim>1</dim>
					<dim>256</dim>
					<dim>1</dim>
					<dim>1</dim>
				</port>
			</output>
		</layer>
		<layer id="304" name="unit3_4/SE_Moudle/mul/Broadcast/" precision="FP32" type="Tile">
			<data axis="2" tiles="4"/>
			<input>
				<port id="0">
					<dim>1</dim>
					<dim>256</dim>
					<dim>1</dim>
					<dim>1</dim>
				</port>
			</input>
			<output>
				<port id="1">
					<dim>1</dim>
					<dim>256</dim>
					<dim>4</dim>
					<dim>1</dim>
				</port>
			</output>
		</layer>
		<layer id="305" name="unit3_4/SE_Moudle/mul/Broadcast/8751" precision="FP32" type="Tile">
			<data axis="3" tiles="4"/>
			<input>
				<port id="0">
					<dim>1</dim>
					<dim>256</dim>
					<dim>4</dim>
					<dim>1</dim>
				</port>
			</input>
			<output>
				<port id="1">
					<dim>1</dim>
					<dim>256</dim>
					<dim>4</dim>
					<dim>4</dim>
				</port>
			</output>
		</layer>
		<layer id="306" name="unit3_4/SE_Moudle/mul" precision="FP32" type="Eltwise">
			<data operation="mul"/>
			<input>
				<port id="0">
					<dim>1</dim>
					<dim>256</dim>
					<dim>4</dim>
					<dim>4</dim>
				</port>
				<port id="1">
					<dim>1</dim>
					<dim>256</dim>
					<dim>4</dim>
					<dim>4</dim>
				</port>
			</input>
			<output>
				<port id="2">
					<dim>1</dim>
					<dim>256</dim>
					<dim>4</dim>
					<dim>4</dim>
				</port>
			</output>
		</layer>
		<layer id="307" name="unit3_4/add" precision="FP32" type="Eltwise">
			<data operation="sum"/>
			<input>
				<port id="0">
					<dim>1</dim>
					<dim>256</dim>
					<dim>4</dim>
					<dim>4</dim>
				</port>
				<port id="1">
					<dim>1</dim>
					<dim>256</dim>
					<dim>4</dim>
					<dim>4</dim>
				</port>
			</input>
			<output>
				<port id="2">
					<dim>1</dim>
					<dim>256</dim>
					<dim>4</dim>
					<dim>4</dim>
				</port>
			</output>
		</layer>
		<layer id="308" name="unit3_4/Addition_relu" precision="FP32" type="ReLU">
			<input>
				<port id="0">
					<dim>1</dim>
					<dim>256</dim>
					<dim>4</dim>
					<dim>4</dim>
				</port>
			</input>
			<output>
				<port id="1">
					<dim>1</dim>
					<dim>256</dim>
					<dim>4</dim>
					<dim>4</dim>
				</port>
			</output>
		</layer>
		<layer id="309" name="unit3_5/branch_0/1x1conv/Conv2D" precision="FP32" type="Convolution">
			<data auto_pad="same_upper" dilations="1,1" group="1" kernel="1,1" output="64" pads_begin="0,0" pads_end="0,0" strides="1,1"/>
			<input>
				<port id="0">
					<dim>1</dim>
					<dim>256</dim>
					<dim>4</dim>
					<dim>4</dim>
				</port>
			</input>
			<output>
				<port id="3">
					<dim>1</dim>
					<dim>64</dim>
					<dim>4</dim>
					<dim>4</dim>
				</port>
			</output>
			<blobs>
				<weights offset="3780336" size="65536"/>
				<biases offset="3845872" size="256"/>
			</blobs>
		</layer>
		<layer id="310" name="unit3_5/branch_0/1x1conv/Relu" precision="FP32" type="ReLU">
			<input>
				<port id="0">
					<dim>1</dim>
					<dim>64</dim>
					<dim>4</dim>
					<dim>4</dim>
				</port>
			</input>
			<output>
				<port id="1">
					<dim>1</dim>
					<dim>64</dim>
					<dim>4</dim>
					<dim>4</dim>
				</port>
			</output>
		</layer>
		<layer id="311" name="Mul1_7408/Fused_Mul_/FusedScaleShift_" precision="FP32" type="ScaleShift">
			<input>
				<port id="0">
					<dim>1</dim>
					<dim>64</dim>
					<dim>4</dim>
					<dim>4</dim>
				</port>
			</input>
			<output>
				<port id="3">
					<dim>1</dim>
					<dim>64</dim>
					<dim>4</dim>
					<dim>4</dim>
				</port>
			</output>
			<blobs>
				<weights offset="3846128" size="256"/>
				<biases offset="3846384" size="256"/>
			</blobs>
		</layer>
		<layer id="312" name="unit3_5/branch_0/Conv/Conv2D" precision="FP32" type="Convolution">
			<data auto_pad="same_upper" dilations="1,1" group="1" kernel="3,3" output="64" pads_begin="1,1" pads_end="1,1" strides="1,1"/>
			<input>
				<port id="0">
					<dim>1</dim>
					<dim>64</dim>
					<dim>4</dim>
					<dim>4</dim>
				</port>
			</input>
			<output>
				<port id="3">
					<dim>1</dim>
					<dim>64</dim>
					<dim>4</dim>
					<dim>4</dim>
				</port>
			</output>
			<blobs>
				<weights offset="3846640" size="147456"/>
				<biases offset="3994096" size="256"/>
			</blobs>
		</layer>
		<layer id="313" name="unit3_5/branch_0/Conv/Relu" precision="FP32" type="ReLU">
			<input>
				<port id="0">
					<dim>1</dim>
					<dim>64</dim>
					<dim>4</dim>
					<dim>4</dim>
				</port>
			</input>
			<output>
				<port id="1">
					<dim>1</dim>
					<dim>64</dim>
					<dim>4</dim>
					<dim>4</dim>
				</port>
			</output>
		</layer>
		<layer id="314" name="Mul1_7138/Fused_Mul_/FusedScaleShift_" precision="FP32" type="ScaleShift">
			<input>
				<port id="0">
					<dim>1</dim>
					<dim>64</dim>
					<dim>4</dim>
					<dim>4</dim>
				</port>
			</input>
			<output>
				<port id="3">
					<dim>1</dim>
					<dim>64</dim>
					<dim>4</dim>
					<dim>4</dim>
				</port>
			</output>
			<blobs>
				<weights offset="3994352" size="256"/>
				<biases offset="3994608" size="256"/>
			</blobs>
		</layer>
		<layer id="315" name="unit3_5/branch_1/1x1conv/Conv2D" precision="FP32" type="Convolution">
			<data auto_pad="same_upper" dilations="1,1" group="1" kernel="1,1" output="64" pads_begin="0,0" pads_end="0,0" strides="1,1"/>
			<input>
				<port id="0">
					<dim>1</dim>
					<dim>256</dim>
					<dim>4</dim>
					<dim>4</dim>
				</port>
			</input>
			<output>
				<port id="3">
					<dim>1</dim>
					<dim>64</dim>
					<dim>4</dim>
					<dim>4</dim>
				</port>
			</output>
			<blobs>
				<weights offset="3994864" size="65536"/>
				<biases offset="4060400" size="256"/>
			</blobs>
		</layer>
		<layer id="316" name="unit3_5/branch_1/1x1conv/Relu" precision="FP32" type="ReLU">
			<input>
				<port id="0">
					<dim>1</dim>
					<dim>64</dim>
					<dim>4</dim>
					<dim>4</dim>
				</port>
			</input>
			<output>
				<port id="1">
					<dim>1</dim>
					<dim>64</dim>
					<dim>4</dim>
					<dim>4</dim>
				</port>
			</output>
		</layer>
		<layer id="317" name="Mul1_7597/Fused_Mul_/FusedScaleShift_" precision="FP32" type="ScaleShift">
			<input>
				<port id="0">
					<dim>1</dim>
					<dim>64</dim>
					<dim>4</dim>
					<dim>4</dim>
				</port>
			</input>
			<output>
				<port id="3">
					<dim>1</dim>
					<dim>64</dim>
					<dim>4</dim>
					<dim>4</dim>
				</port>
			</output>
			<blobs>
				<weights offset="4060656" size="256"/>
				<biases offset="4060912" size="256"/>
			</blobs>
		</layer>
		<layer id="318" name="unit3_5/branch_1/Conv/Conv2D" precision="FP32" type="Convolution">
			<data auto_pad="same_upper" dilations="1,1" group="1" kernel="3,3" output="64" pads_begin="1,1" pads_end="1,1" strides="1,1"/>
			<input>
				<port id="0">
					<dim>1</dim>
					<dim>64</dim>
					<dim>4</dim>
					<dim>4</dim>
				</port>
			</input>
			<output>
				<port id="3">
					<dim>1</dim>
					<dim>64</dim>
					<dim>4</dim>
					<dim>4</dim>
				</port>
			</output>
			<blobs>
				<weights offset="4061168" size="147456"/>
				<biases offset="4208624" size="256"/>
			</blobs>
		</layer>
		<layer id="319" name="unit3_5/branch_1/Conv/Relu" precision="FP32" type="ReLU">
			<input>
				<port id="0">
					<dim>1</dim>
					<dim>64</dim>
					<dim>4</dim>
					<dim>4</dim>
				</port>
			</input>
			<output>
				<port id="1">
					<dim>1</dim>
					<dim>64</dim>
					<dim>4</dim>
					<dim>4</dim>
				</port>
			</output>
		</layer>
		<layer id="320" name="Mul1_7021/Fused_Mul_/FusedScaleShift_" precision="FP32" type="ScaleShift">
			<input>
				<port id="0">
					<dim>1</dim>
					<dim>64</dim>
					<dim>4</dim>
					<dim>4</dim>
				</port>
			</input>
			<output>
				<port id="3">
					<dim>1</dim>
					<dim>64</dim>
					<dim>4</dim>
					<dim>4</dim>
				</port>
			</output>
			<blobs>
				<weights offset="4208880" size="256"/>
				<biases offset="4209136" size="256"/>
			</blobs>
		</layer>
		<layer id="321" name="unit3_5/concat" precision="FP32" type="Concat">
			<data axis="1"/>
			<input>
				<port id="0">
					<dim>1</dim>
					<dim>64</dim>
					<dim>4</dim>
					<dim>4</dim>
				</port>
				<port id="1">
					<dim>1</dim>
					<dim>64</dim>
					<dim>4</dim>
					<dim>4</dim>
				</port>
			</input>
			<output>
				<port id="2">
					<dim>1</dim>
					<dim>128</dim>
					<dim>4</dim>
					<dim>4</dim>
				</port>
			</output>
		</layer>
		<layer id="322" name="unit3_5/Conv/Conv2D" precision="FP32" type="Convolution">
			<data auto_pad="same_upper" dilations="1,1" group="1" kernel="1,1" output="256" pads_begin="0,0" pads_end="0,0" strides="1,1"/>
			<input>
				<port id="0">
					<dim>1</dim>
					<dim>128</dim>
					<dim>4</dim>
					<dim>4</dim>
				</port>
			</input>
			<output>
				<port id="3">
					<dim>1</dim>
					<dim>256</dim>
					<dim>4</dim>
					<dim>4</dim>
				</port>
			</output>
			<blobs>
				<weights offset="4209392" size="131072"/>
				<biases offset="4340464" size="1024"/>
			</blobs>
		</layer>
		<layer id="323" name="unit3_5/Conv/Relu" precision="FP32" type="ReLU">
			<input>
				<port id="0">
					<dim>1</dim>
					<dim>256</dim>
					<dim>4</dim>
					<dim>4</dim>
				</port>
			</input>
			<output>
				<port id="1">
					<dim>1</dim>
					<dim>256</dim>
					<dim>4</dim>
					<dim>4</dim>
				</port>
			</output>
		</layer>
		<layer id="324" name="unit3_5/SE_Moudle/global_avg_pooling" precision="FP32" type="Pooling">
			<data exclude-pad="true" kernel="4,4" pads_begin="0,0" pads_end="0,0" pool-method="avg" rounding-type="ceil" strides="1,1"/>
			<input>
				<port id="0">
					<dim>1</dim>
					<dim>256</dim>
					<dim>4</dim>
					<dim>4</dim>
				</port>
			</input>
			<output>
				<port id="1">
					<dim>1</dim>
					<dim>256</dim>
					<dim>1</dim>
					<dim>1</dim>
				</port>
			</output>
		</layer>
		<layer id="325" name="unit3_5/SE_Moudle/dim_decrease/Conv2D" precision="FP32" type="Convolution">
			<data auto_pad="same_upper" dilations="1,1" group="1" kernel="1,1" output="16" pads_begin="0,0" pads_end="0,0" strides="1,1"/>
			<input>
				<port id="0">
					<dim>1</dim>
					<dim>256</dim>
					<dim>1</dim>
					<dim>1</dim>
				</port>
			</input>
			<output>
				<port id="3">
					<dim>1</dim>
					<dim>16</dim>
					<dim>1</dim>
					<dim>1</dim>
				</port>
			</output>
			<blobs>
				<weights offset="4341488" size="16384"/>
				<biases offset="4357872" size="64"/>
			</blobs>
		</layer>
		<layer id="326" name="unit3_5/SE_Moudle/dim_decrease/Relu" precision="FP32" type="ReLU">
			<input>
				<port id="0">
					<dim>1</dim>
					<dim>16</dim>
					<dim>1</dim>
					<dim>1</dim>
				</port>
			</input>
			<output>
				<port id="1">
					<dim>1</dim>
					<dim>16</dim>
					<dim>1</dim>
					<dim>1</dim>
				</port>
			</output>
		</layer>
		<layer id="327" name="unit3_5/SE_Moudle/dim_increase/Conv2D" precision="FP32" type="Convolution">
			<data auto_pad="same_upper" dilations="1,1" group="1" kernel="1,1" output="256" pads_begin="0,0" pads_end="0,0" strides="1,1"/>
			<input>
				<port id="0">
					<dim>1</dim>
					<dim>16</dim>
					<dim>1</dim>
					<dim>1</dim>
				</port>
			</input>
			<output>
				<port id="3">
					<dim>1</dim>
					<dim>256</dim>
					<dim>1</dim>
					<dim>1</dim>
				</port>
			</output>
			<blobs>
				<weights offset="4357936" size="16384"/>
				<biases offset="4374320" size="1024"/>
			</blobs>
		</layer>
		<layer id="328" name="unit3_5/SE_Moudle/dim_increase/Sigmoid" precision="FP32" type="Activation">
			<data type="sigmoid"/>
			<input>
				<port id="0">
					<dim>1</dim>
					<dim>256</dim>
					<dim>1</dim>
					<dim>1</dim>
				</port>
			</input>
			<output>
				<port id="1">
					<dim>1</dim>
					<dim>256</dim>
					<dim>1</dim>
					<dim>1</dim>
				</port>
			</output>
		</layer>
		<layer id="329" name="unit3_5/SE_Moudle/mul/Broadcast/" precision="FP32" type="Tile">
			<data axis="2" tiles="4"/>
			<input>
				<port id="0">
					<dim>1</dim>
					<dim>256</dim>
					<dim>1</dim>
					<dim>1</dim>
				</port>
			</input>
			<output>
				<port id="1">
					<dim>1</dim>
					<dim>256</dim>
					<dim>4</dim>
					<dim>1</dim>
				</port>
			</output>
		</layer>
		<layer id="330" name="unit3_5/SE_Moudle/mul/Broadcast/8739" precision="FP32" type="Tile">
			<data axis="3" tiles="4"/>
			<input>
				<port id="0">
					<dim>1</dim>
					<dim>256</dim>
					<dim>4</dim>
					<dim>1</dim>
				</port>
			</input>
			<output>
				<port id="1">
					<dim>1</dim>
					<dim>256</dim>
					<dim>4</dim>
					<dim>4</dim>
				</port>
			</output>
		</layer>
		<layer id="331" name="unit3_5/SE_Moudle/mul" precision="FP32" type="Eltwise">
			<data operation="mul"/>
			<input>
				<port id="0">
					<dim>1</dim>
					<dim>256</dim>
					<dim>4</dim>
					<dim>4</dim>
				</port>
				<port id="1">
					<dim>1</dim>
					<dim>256</dim>
					<dim>4</dim>
					<dim>4</dim>
				</port>
			</input>
			<output>
				<port id="2">
					<dim>1</dim>
					<dim>256</dim>
					<dim>4</dim>
					<dim>4</dim>
				</port>
			</output>
		</layer>
		<layer id="332" name="unit3_5/add" precision="FP32" type="Eltwise">
			<data operation="sum"/>
			<input>
				<port id="0">
					<dim>1</dim>
					<dim>256</dim>
					<dim>4</dim>
					<dim>4</dim>
				</port>
				<port id="1">
					<dim>1</dim>
					<dim>256</dim>
					<dim>4</dim>
					<dim>4</dim>
				</port>
			</input>
			<output>
				<port id="2">
					<dim>1</dim>
					<dim>256</dim>
					<dim>4</dim>
					<dim>4</dim>
				</port>
			</output>
		</layer>
		<layer id="333" name="unit3_5/Addition_relu" precision="FP32" type="ReLU">
			<input>
				<port id="0">
					<dim>1</dim>
					<dim>256</dim>
					<dim>4</dim>
					<dim>4</dim>
				</port>
			</input>
			<output>
				<port id="1">
					<dim>1</dim>
					<dim>256</dim>
					<dim>4</dim>
					<dim>4</dim>
				</port>
			</output>
		</layer>
		<layer id="334" name="global_pool" precision="FP32" type="Pooling">
			<data exclude-pad="true" kernel="4,4" pads_begin="0,0" pads_end="0,0" pool-method="avg" rounding-type="ceil" strides="1,1"/>
			<input>
				<port id="0">
					<dim>1</dim>
					<dim>256</dim>
					<dim>4</dim>
					<dim>4</dim>
				</port>
			</input>
			<output>
				<port id="1">
					<dim>1</dim>
					<dim>256</dim>
					<dim>1</dim>
					<dim>1</dim>
				</port>
			</output>
		</layer>
		<layer id="335" name="full_conv/Conv2D" precision="FP32" type="Convolution">
			<data auto_pad="same_upper" dilations="1,1" group="1" kernel="1,1" output="36" pads_begin="0,0" pads_end="0,0" strides="1,1"/>
			<input>
				<port id="0">
					<dim>1</dim>
					<dim>256</dim>
					<dim>1</dim>
					<dim>1</dim>
				</port>
			</input>
			<output>
				<port id="3">
					<dim>1</dim>
					<dim>36</dim>
					<dim>1</dim>
					<dim>1</dim>
				</port>
			</output>
			<blobs>
				<weights offset="4375344" size="36864"/>
				<biases offset="4412208" size="144"/>
			</blobs>
		</layer>
		<layer id="336" name="full_conv/Conv2D/Permute_" precision="FP32" type="Permute">
			<data order="0,2,3,1"/>
			<input>
				<port id="0">
					<dim>1</dim>
					<dim>36</dim>
					<dim>1</dim>
					<dim>1</dim>
				</port>
			</input>
			<output>
				<port id="1">
					<dim>1</dim>
					<dim>1</dim>
					<dim>1</dim>
					<dim>36</dim>
				</port>
			</output>
		</layer>
		<layer id="337" name="SpatialSqueeze" precision="FP32" type="Reshape">
			<data dim="0,-1"/>
			<input>
				<port id="0">
					<dim>1</dim>
					<dim>1</dim>
					<dim>1</dim>
					<dim>36</dim>
				</port>
			</input>
			<output>
				<port id="1">
					<dim>1</dim>
					<dim>36</dim>
				</port>
			</output>
		</layer>
		<layer id="338" name="Softmax" precision="FP32" type="SoftMax">
			<data axis="1"/>
			<input>
				<port id="0">
					<dim>1</dim>
					<dim>36</dim>
				</port>
			</input>
			<output>
				<port id="1">
					<dim>1</dim>
					<dim>36</dim>
				</port>
			</output>
		</layer>
	</layers>
	<edges>
		<edge from-layer="0" from-port="0" to-layer="1" to-port="0"/>
		<edge from-layer="1" from-port="3" to-layer="2" to-port="0"/>
		<edge from-layer="2" from-port="1" to-layer="3" to-port="0"/>
		<edge from-layer="3" from-port="3" to-layer="4" to-port="0"/>
		<edge from-layer="4" from-port="1" to-layer="5" to-port="0"/>
		<edge from-layer="5" from-port="3" to-layer="6" to-port="0"/>
		<edge from-layer="6" from-port="3" to-layer="7" to-port="0"/>
		<edge from-layer="7" from-port="1" to-layer="8" to-port="0"/>
		<edge from-layer="2" from-port="1" to-layer="9" to-port="0"/>
		<edge from-layer="9" from-port="3" to-layer="10" to-port="0"/>
		<edge from-layer="10" from-port="1" to-layer="11" to-port="0"/>
		<edge from-layer="11" from-port="3" to-layer="12" to-port="0"/>
		<edge from-layer="12" from-port="3" to-layer="13" to-port="0"/>
		<edge from-layer="13" from-port="1" to-layer="14" to-port="0"/>
		<edge from-layer="8" from-port="3" to-layer="15" to-port="0"/>
		<edge from-layer="14" from-port="3" to-layer="15" to-port="1"/>
		<edge from-layer="15" from-port="2" to-layer="16" to-port="0"/>
		<edge from-layer="16" from-port="3" to-layer="17" to-port="0"/>
		<edge from-layer="17" from-port="1" to-layer="18" to-port="0"/>
		<edge from-layer="18" from-port="1" to-layer="19" to-port="0"/>
		<edge from-layer="19" from-port="3" to-layer="20" to-port="0"/>
		<edge from-layer="20" from-port="1" to-layer="21" to-port="0"/>
		<edge from-layer="21" from-port="3" to-layer="22" to-port="0"/>
		<edge from-layer="22" from-port="1" to-layer="23" to-port="0"/>
		<edge from-layer="23" from-port="1" to-layer="24" to-port="0"/>
		<edge from-layer="17" from-port="1" to-layer="25" to-port="0"/>
		<edge from-layer="24" from-port="1" to-layer="25" to-port="1"/>
		<edge from-layer="25" from-port="2" to-layer="26" to-port="0"/>
		<edge from-layer="2" from-port="1" to-layer="26" to-port="1"/>
		<edge from-layer="26" from-port="2" to-layer="27" to-port="0"/>
		<edge from-layer="27" from-port="1" to-layer="28" to-port="0"/>
		<edge from-layer="28" from-port="3" to-layer="29" to-port="0"/>
		<edge from-layer="29" from-port="1" to-layer="30" to-port="0"/>
		<edge from-layer="30" from-port="3" to-layer="31" to-port="0"/>
		<edge from-layer="31" from-port="3" to-layer="32" to-port="0"/>
		<edge from-layer="32" from-port="1" to-layer="33" to-port="0"/>
		<edge from-layer="27" from-port="1" to-layer="34" to-port="0"/>
		<edge from-layer="34" from-port="3" to-layer="35" to-port="0"/>
		<edge from-layer="35" from-port="1" to-layer="36" to-port="0"/>
		<edge from-layer="36" from-port="3" to-layer="37" to-port="0"/>
		<edge from-layer="37" from-port="3" to-layer="38" to-port="0"/>
		<edge from-layer="38" from-port="1" to-layer="39" to-port="0"/>
		<edge from-layer="33" from-port="3" to-layer="40" to-port="0"/>
		<edge from-layer="39" from-port="3" to-layer="40" to-port="1"/>
		<edge from-layer="40" from-port="2" to-layer="41" to-port="0"/>
		<edge from-layer="41" from-port="3" to-layer="42" to-port="0"/>
		<edge from-layer="42" from-port="1" to-layer="43" to-port="0"/>
		<edge from-layer="43" from-port="1" to-layer="44" to-port="0"/>
		<edge from-layer="44" from-port="3" to-layer="45" to-port="0"/>
		<edge from-layer="45" from-port="1" to-layer="46" to-port="0"/>
		<edge from-layer="46" from-port="3" to-layer="47" to-port="0"/>
		<edge from-layer="47" from-port="1" to-layer="48" to-port="0"/>
		<edge from-layer="48" from-port="1" to-layer="49" to-port="0"/>
		<edge from-layer="42" from-port="1" to-layer="50" to-port="0"/>
		<edge from-layer="49" from-port="1" to-layer="50" to-port="1"/>
		<edge from-layer="50" from-port="2" to-layer="51" to-port="0"/>
		<edge from-layer="27" from-port="1" to-layer="51" to-port="1"/>
		<edge from-layer="51" from-port="2" to-layer="52" to-port="0"/>
		<edge from-layer="52" from-port="1" to-layer="53" to-port="0"/>
		<edge from-layer="53" from-port="3" to-layer="54" to-port="0"/>
		<edge from-layer="54" from-port="1" to-layer="55" to-port="0"/>
		<edge from-layer="55" from-port="3" to-layer="56" to-port="0"/>
		<edge from-layer="56" from-port="3" to-layer="57" to-port="0"/>
		<edge from-layer="57" from-port="1" to-layer="58" to-port="0"/>
		<edge from-layer="52" from-port="1" to-layer="59" to-port="0"/>
		<edge from-layer="59" from-port="3" to-layer="60" to-port="0"/>
		<edge from-layer="60" from-port="1" to-layer="61" to-port="0"/>
		<edge from-layer="61" from-port="3" to-layer="62" to-port="0"/>
		<edge from-layer="62" from-port="3" to-layer="63" to-port="0"/>
		<edge from-layer="63" from-port="1" to-layer="64" to-port="0"/>
		<edge from-layer="58" from-port="3" to-layer="65" to-port="0"/>
		<edge from-layer="64" from-port="3" to-layer="65" to-port="1"/>
		<edge from-layer="65" from-port="2" to-layer="66" to-port="0"/>
		<edge from-layer="66" from-port="3" to-layer="67" to-port="0"/>
		<edge from-layer="67" from-port="1" to-layer="68" to-port="0"/>
		<edge from-layer="68" from-port="1" to-layer="69" to-port="0"/>
		<edge from-layer="69" from-port="3" to-layer="70" to-port="0"/>
		<edge from-layer="70" from-port="1" to-layer="71" to-port="0"/>
		<edge from-layer="71" from-port="3" to-layer="72" to-port="0"/>
		<edge from-layer="72" from-port="1" to-layer="73" to-port="0"/>
		<edge from-layer="73" from-port="1" to-layer="74" to-port="0"/>
		<edge from-layer="67" from-port="1" to-layer="75" to-port="0"/>
		<edge from-layer="74" from-port="1" to-layer="75" to-port="1"/>
		<edge from-layer="75" from-port="2" to-layer="76" to-port="0"/>
		<edge from-layer="52" from-port="1" to-layer="76" to-port="1"/>
		<edge from-layer="76" from-port="2" to-layer="77" to-port="0"/>
		<edge from-layer="77" from-port="1" to-layer="78" to-port="0"/>
		<edge from-layer="78" from-port="3" to-layer="79" to-port="0"/>
		<edge from-layer="79" from-port="1" to-layer="80" to-port="0"/>
		<edge from-layer="80" from-port="3" to-layer="81" to-port="0"/>
		<edge from-layer="81" from-port="3" to-layer="82" to-port="0"/>
		<edge from-layer="82" from-port="1" to-layer="83" to-port="0"/>
		<edge from-layer="77" from-port="1" to-layer="84" to-port="0"/>
		<edge from-layer="84" from-port="3" to-layer="85" to-port="0"/>
		<edge from-layer="85" from-port="1" to-layer="86" to-port="0"/>
		<edge from-layer="86" from-port="3" to-layer="87" to-port="0"/>
		<edge from-layer="87" from-port="3" to-layer="88" to-port="0"/>
		<edge from-layer="88" from-port="1" to-layer="89" to-port="0"/>
		<edge from-layer="83" from-port="3" to-layer="90" to-port="0"/>
		<edge from-layer="89" from-port="3" to-layer="90" to-port="1"/>
		<edge from-layer="90" from-port="2" to-layer="91" to-port="0"/>
		<edge from-layer="91" from-port="3" to-layer="92" to-port="0"/>
		<edge from-layer="92" from-port="1" to-layer="93" to-port="0"/>
		<edge from-layer="93" from-port="1" to-layer="94" to-port="0"/>
		<edge from-layer="94" from-port="3" to-layer="95" to-port="0"/>
		<edge from-layer="95" from-port="1" to-layer="96" to-port="0"/>
		<edge from-layer="96" from-port="3" to-layer="97" to-port="0"/>
		<edge from-layer="97" from-port="1" to-layer="98" to-port="0"/>
		<edge from-layer="98" from-port="1" to-layer="99" to-port="0"/>
		<edge from-layer="92" from-port="1" to-layer="100" to-port="0"/>
		<edge from-layer="99" from-port="1" to-layer="100" to-port="1"/>
		<edge from-layer="77" from-port="1" to-layer="101" to-port="0"/>
		<edge from-layer="101" from-port="1" to-layer="102" to-port="0"/>
		<edge from-layer="102" from-port="3" to-layer="103" to-port="0"/>
		<edge from-layer="100" from-port="2" to-layer="104" to-port="0"/>
		<edge from-layer="103" from-port="1" to-layer="104" to-port="1"/>
		<edge from-layer="104" from-port="2" to-layer="105" to-port="0"/>
		<edge from-layer="105" from-port="1" to-layer="106" to-port="0"/>
		<edge from-layer="106" from-port="3" to-layer="107" to-port="0"/>
		<edge from-layer="107" from-port="1" to-layer="108" to-port="0"/>
		<edge from-layer="108" from-port="3" to-layer="109" to-port="0"/>
		<edge from-layer="109" from-port="3" to-layer="110" to-port="0"/>
		<edge from-layer="110" from-port="1" to-layer="111" to-port="0"/>
		<edge from-layer="105" from-port="1" to-layer="112" to-port="0"/>
		<edge from-layer="112" from-port="3" to-layer="113" to-port="0"/>
		<edge from-layer="113" from-port="1" to-layer="114" to-port="0"/>
		<edge from-layer="114" from-port="3" to-layer="115" to-port="0"/>
		<edge from-layer="115" from-port="3" to-layer="116" to-port="0"/>
		<edge from-layer="116" from-port="1" to-layer="117" to-port="0"/>
		<edge from-layer="111" from-port="3" to-layer="118" to-port="0"/>
		<edge from-layer="117" from-port="3" to-layer="118" to-port="1"/>
		<edge from-layer="118" from-port="2" to-layer="119" to-port="0"/>
		<edge from-layer="119" from-port="3" to-layer="120" to-port="0"/>
		<edge from-layer="120" from-port="1" to-layer="121" to-port="0"/>
		<edge from-layer="121" from-port="1" to-layer="122" to-port="0"/>
		<edge from-layer="122" from-port="3" to-layer="123" to-port="0"/>
		<edge from-layer="123" from-port="1" to-layer="124" to-port="0"/>
		<edge from-layer="124" from-port="3" to-layer="125" to-port="0"/>
		<edge from-layer="125" from-port="1" to-layer="126" to-port="0"/>
		<edge from-layer="126" from-port="1" to-layer="127" to-port="0"/>
		<edge from-layer="120" from-port="1" to-layer="128" to-port="0"/>
		<edge from-layer="127" from-port="1" to-layer="128" to-port="1"/>
		<edge from-layer="128" from-port="2" to-layer="129" to-port="0"/>
		<edge from-layer="105" from-port="1" to-layer="129" to-port="1"/>
		<edge from-layer="129" from-port="2" to-layer="130" to-port="0"/>
		<edge from-layer="130" from-port="1" to-layer="131" to-port="0"/>
		<edge from-layer="131" from-port="3" to-layer="132" to-port="0"/>
		<edge from-layer="132" from-port="1" to-layer="133" to-port="0"/>
		<edge from-layer="133" from-port="3" to-layer="134" to-port="0"/>
		<edge from-layer="134" from-port="3" to-layer="135" to-port="0"/>
		<edge from-layer="135" from-port="1" to-layer="136" to-port="0"/>
		<edge from-layer="130" from-port="1" to-layer="137" to-port="0"/>
		<edge from-layer="137" from-port="3" to-layer="138" to-port="0"/>
		<edge from-layer="138" from-port="1" to-layer="139" to-port="0"/>
		<edge from-layer="139" from-port="3" to-layer="140" to-port="0"/>
		<edge from-layer="140" from-port="3" to-layer="141" to-port="0"/>
		<edge from-layer="141" from-port="1" to-layer="142" to-port="0"/>
		<edge from-layer="136" from-port="3" to-layer="143" to-port="0"/>
		<edge from-layer="142" from-port="3" to-layer="143" to-port="1"/>
		<edge from-layer="143" from-port="2" to-layer="144" to-port="0"/>
		<edge from-layer="144" from-port="3" to-layer="145" to-port="0"/>
		<edge from-layer="145" from-port="1" to-layer="146" to-port="0"/>
		<edge from-layer="146" from-port="1" to-layer="147" to-port="0"/>
		<edge from-layer="147" from-port="3" to-layer="148" to-port="0"/>
		<edge from-layer="148" from-port="1" to-layer="149" to-port="0"/>
		<edge from-layer="149" from-port="3" to-layer="150" to-port="0"/>
		<edge from-layer="150" from-port="1" to-layer="151" to-port="0"/>
		<edge from-layer="151" from-port="1" to-layer="152" to-port="0"/>
		<edge from-layer="145" from-port="1" to-layer="153" to-port="0"/>
		<edge from-layer="152" from-port="1" to-layer="153" to-port="1"/>
		<edge from-layer="153" from-port="2" to-layer="154" to-port="0"/>
		<edge from-layer="130" from-port="1" to-layer="154" to-port="1"/>
		<edge from-layer="154" from-port="2" to-layer="155" to-port="0"/>
		<edge from-layer="155" from-port="1" to-layer="156" to-port="0"/>
		<edge from-layer="156" from-port="3" to-layer="157" to-port="0"/>
		<edge from-layer="157" from-port="1" to-layer="158" to-port="0"/>
		<edge from-layer="158" from-port="3" to-layer="159" to-port="0"/>
		<edge from-layer="159" from-port="3" to-layer="160" to-port="0"/>
		<edge from-layer="160" from-port="1" to-layer="161" to-port="0"/>
		<edge from-layer="155" from-port="1" to-layer="162" to-port="0"/>
		<edge from-layer="162" from-port="3" to-layer="163" to-port="0"/>
		<edge from-layer="163" from-port="1" to-layer="164" to-port="0"/>
		<edge from-layer="164" from-port="3" to-layer="165" to-port="0"/>
		<edge from-layer="165" from-port="3" to-layer="166" to-port="0"/>
		<edge from-layer="166" from-port="1" to-layer="167" to-port="0"/>
		<edge from-layer="161" from-port="3" to-layer="168" to-port="0"/>
		<edge from-layer="167" from-port="3" to-layer="168" to-port="1"/>
		<edge from-layer="168" from-port="2" to-layer="169" to-port="0"/>
		<edge from-layer="169" from-port="3" to-layer="170" to-port="0"/>
		<edge from-layer="170" from-port="1" to-layer="171" to-port="0"/>
		<edge from-layer="171" from-port="1" to-layer="172" to-port="0"/>
		<edge from-layer="172" from-port="3" to-layer="173" to-port="0"/>
		<edge from-layer="173" from-port="1" to-layer="174" to-port="0"/>
		<edge from-layer="174" from-port="3" to-layer="175" to-port="0"/>
		<edge from-layer="175" from-port="1" to-layer="176" to-port="0"/>
		<edge from-layer="176" from-port="1" to-layer="177" to-port="0"/>
		<edge from-layer="170" from-port="1" to-layer="178" to-port="0"/>
		<edge from-layer="177" from-port="1" to-layer="178" to-port="1"/>
		<edge from-layer="178" from-port="2" to-layer="179" to-port="0"/>
		<edge from-layer="155" from-port="1" to-layer="179" to-port="1"/>
		<edge from-layer="179" from-port="2" to-layer="180" to-port="0"/>
		<edge from-layer="180" from-port="1" to-layer="181" to-port="0"/>
		<edge from-layer="181" from-port="3" to-layer="182" to-port="0"/>
		<edge from-layer="182" from-port="1" to-layer="183" to-port="0"/>
		<edge from-layer="183" from-port="3" to-layer="184" to-port="0"/>
		<edge from-layer="184" from-port="3" to-layer="185" to-port="0"/>
		<edge from-layer="185" from-port="1" to-layer="186" to-port="0"/>
		<edge from-layer="180" from-port="1" to-layer="187" to-port="0"/>
		<edge from-layer="187" from-port="3" to-layer="188" to-port="0"/>
		<edge from-layer="188" from-port="1" to-layer="189" to-port="0"/>
		<edge from-layer="189" from-port="3" to-layer="190" to-port="0"/>
		<edge from-layer="190" from-port="3" to-layer="191" to-port="0"/>
		<edge from-layer="191" from-port="1" to-layer="192" to-port="0"/>
		<edge from-layer="186" from-port="3" to-layer="193" to-port="0"/>
		<edge from-layer="192" from-port="3" to-layer="193" to-port="1"/>
		<edge from-layer="193" from-port="2" to-layer="194" to-port="0"/>
		<edge from-layer="194" from-port="3" to-layer="195" to-port="0"/>
		<edge from-layer="195" from-port="1" to-layer="196" to-port="0"/>
		<edge from-layer="196" from-port="1" to-layer="197" to-port="0"/>
		<edge from-layer="197" from-port="3" to-layer="198" to-port="0"/>
		<edge from-layer="198" from-port="1" to-layer="199" to-port="0"/>
		<edge from-layer="199" from-port="3" to-layer="200" to-port="0"/>
		<edge from-layer="200" from-port="1" to-layer="201" to-port="0"/>
		<edge from-layer="201" from-port="1" to-layer="202" to-port="0"/>
		<edge from-layer="195" from-port="1" to-layer="203" to-port="0"/>
		<edge from-layer="202" from-port="1" to-layer="203" to-port="1"/>
		<edge from-layer="180" from-port="1" to-layer="204" to-port="0"/>
		<edge from-layer="204" from-port="1" to-layer="205" to-port="0"/>
		<edge from-layer="205" from-port="3" to-layer="206" to-port="0"/>
		<edge from-layer="203" from-port="2" to-layer="207" to-port="0"/>
		<edge from-layer="206" from-port="1" to-layer="207" to-port="1"/>
		<edge from-layer="207" from-port="2" to-layer="208" to-port="0"/>
		<edge from-layer="208" from-port="1" to-layer="209" to-port="0"/>
		<edge from-layer="209" from-port="3" to-layer="210" to-port="0"/>
		<edge from-layer="210" from-port="1" to-layer="211" to-port="0"/>
		<edge from-layer="211" from-port="3" to-layer="212" to-port="0"/>
		<edge from-layer="212" from-port="3" to-layer="213" to-port="0"/>
		<edge from-layer="213" from-port="1" to-layer="214" to-port="0"/>
		<edge from-layer="208" from-port="1" to-layer="215" to-port="0"/>
		<edge from-layer="215" from-port="3" to-layer="216" to-port="0"/>
		<edge from-layer="216" from-port="1" to-layer="217" to-port="0"/>
		<edge from-layer="217" from-port="3" to-layer="218" to-port="0"/>
		<edge from-layer="218" from-port="3" to-layer="219" to-port="0"/>
		<edge from-layer="219" from-port="1" to-layer="220" to-port="0"/>
		<edge from-layer="214" from-port="3" to-layer="221" to-port="0"/>
		<edge from-layer="220" from-port="3" to-layer="221" to-port="1"/>
		<edge from-layer="221" from-port="2" to-layer="222" to-port="0"/>
		<edge from-layer="222" from-port="3" to-layer="223" to-port="0"/>
		<edge from-layer="223" from-port="1" to-layer="224" to-port="0"/>
		<edge from-layer="224" from-port="1" to-layer="225" to-port="0"/>
		<edge from-layer="225" from-port="3" to-layer="226" to-port="0"/>
		<edge from-layer="226" from-port="1" to-layer="227" to-port="0"/>
		<edge from-layer="227" from-port="3" to-layer="228" to-port="0"/>
		<edge from-layer="228" from-port="1" to-layer="229" to-port="0"/>
		<edge from-layer="229" from-port="1" to-layer="230" to-port="0"/>
		<edge from-layer="223" from-port="1" to-layer="231" to-port="0"/>
		<edge from-layer="230" from-port="1" to-layer="231" to-port="1"/>
		<edge from-layer="231" from-port="2" to-layer="232" to-port="0"/>
		<edge from-layer="208" from-port="1" to-layer="232" to-port="1"/>
		<edge from-layer="232" from-port="2" to-layer="233" to-port="0"/>
		<edge from-layer="233" from-port="1" to-layer="234" to-port="0"/>
		<edge from-layer="234" from-port="3" to-layer="235" to-port="0"/>
		<edge from-layer="235" from-port="1" to-layer="236" to-port="0"/>
		<edge from-layer="236" from-port="3" to-layer="237" to-port="0"/>
		<edge from-layer="237" from-port="3" to-layer="238" to-port="0"/>
		<edge from-layer="238" from-port="1" to-layer="239" to-port="0"/>
		<edge from-layer="233" from-port="1" to-layer="240" to-port="0"/>
		<edge from-layer="240" from-port="3" to-layer="241" to-port="0"/>
		<edge from-layer="241" from-port="1" to-layer="242" to-port="0"/>
		<edge from-layer="242" from-port="3" to-layer="243" to-port="0"/>
		<edge from-layer="243" from-port="3" to-layer="244" to-port="0"/>
		<edge from-layer="244" from-port="1" to-layer="245" to-port="0"/>
		<edge from-layer="239" from-port="3" to-layer="246" to-port="0"/>
		<edge from-layer="245" from-port="3" to-layer="246" to-port="1"/>
		<edge from-layer="246" from-port="2" to-layer="247" to-port="0"/>
		<edge from-layer="247" from-port="3" to-layer="248" to-port="0"/>
		<edge from-layer="248" from-port="1" to-layer="249" to-port="0"/>
		<edge from-layer="249" from-port="1" to-layer="250" to-port="0"/>
		<edge from-layer="250" from-port="3" to-layer="251" to-port="0"/>
		<edge from-layer="251" from-port="1" to-layer="252" to-port="0"/>
		<edge from-layer="252" from-port="3" to-layer="253" to-port="0"/>
		<edge from-layer="253" from-port="1" to-layer="254" to-port="0"/>
		<edge from-layer="254" from-port="1" to-layer="255" to-port="0"/>
		<edge from-layer="248" from-port="1" to-layer="256" to-port="0"/>
		<edge from-layer="255" from-port="1" to-layer="256" to-port="1"/>
		<edge from-layer="256" from-port="2" to-layer="257" to-port="0"/>
		<edge from-layer="233" from-port="1" to-layer="257" to-port="1"/>
		<edge from-layer="257" from-port="2" to-layer="258" to-port="0"/>
		<edge from-layer="258" from-port="1" to-layer="259" to-port="0"/>
		<edge from-layer="259" from-port="3" to-layer="260" to-port="0"/>
		<edge from-layer="260" from-port="1" to-layer="261" to-port="0"/>
		<edge from-layer="261" from-port="3" to-layer="262" to-port="0"/>
		<edge from-layer="262" from-port="3" to-layer="263" to-port="0"/>
		<edge from-layer="263" from-port="1" to-layer="264" to-port="0"/>
		<edge from-layer="258" from-port="1" to-layer="265" to-port="0"/>
		<edge from-layer="265" from-port="3" to-layer="266" to-port="0"/>
		<edge from-layer="266" from-port="1" to-layer="267" to-port="0"/>
		<edge from-layer="267" from-port="3" to-layer="268" to-port="0"/>
		<edge from-layer="268" from-port="3" to-layer="269" to-port="0"/>
		<edge from-layer="269" from-port="1" to-layer="270" to-port="0"/>
		<edge from-layer="264" from-port="3" to-layer="271" to-port="0"/>
		<edge from-layer="270" from-port="3" to-layer="271" to-port="1"/>
		<edge from-layer="271" from-port="2" to-layer="272" to-port="0"/>
		<edge from-layer="272" from-port="3" to-layer="273" to-port="0"/>
		<edge from-layer="273" from-port="1" to-layer="274" to-port="0"/>
		<edge from-layer="274" from-port="1" to-layer="275" to-port="0"/>
		<edge from-layer="275" from-port="3" to-layer="276" to-port="0"/>
		<edge from-layer="276" from-port="1" to-layer="277" to-port="0"/>
		<edge from-layer="277" from-port="3" to-layer="278" to-port="0"/>
		<edge from-layer="278" from-port="1" to-layer="279" to-port="0"/>
		<edge from-layer="279" from-port="1" to-layer="280" to-port="0"/>
		<edge from-layer="273" from-port="1" to-layer="281" to-port="0"/>
		<edge from-layer="280" from-port="1" to-layer="281" to-port="1"/>
		<edge from-layer="281" from-port="2" to-layer="282" to-port="0"/>
		<edge from-layer="258" from-port="1" to-layer="282" to-port="1"/>
		<edge from-layer="282" from-port="2" to-layer="283" to-port="0"/>
		<edge from-layer="283" from-port="1" to-layer="284" to-port="0"/>
		<edge from-layer="284" from-port="3" to-layer="285" to-port="0"/>
		<edge from-layer="285" from-port="1" to-layer="286" to-port="0"/>
		<edge from-layer="286" from-port="3" to-layer="287" to-port="0"/>
		<edge from-layer="287" from-port="3" to-layer="288" to-port="0"/>
		<edge from-layer="288" from-port="1" to-layer="289" to-port="0"/>
		<edge from-layer="283" from-port="1" to-layer="290" to-port="0"/>
		<edge from-layer="290" from-port="3" to-layer="291" to-port="0"/>
		<edge from-layer="291" from-port="1" to-layer="292" to-port="0"/>
		<edge from-layer="292" from-port="3" to-layer="293" to-port="0"/>
		<edge from-layer="293" from-port="3" to-layer="294" to-port="0"/>
		<edge from-layer="294" from-port="1" to-layer="295" to-port="0"/>
		<edge from-layer="289" from-port="3" to-layer="296" to-port="0"/>
		<edge from-layer="295" from-port="3" to-layer="296" to-port="1"/>
		<edge from-layer="296" from-port="2" to-layer="297" to-port="0"/>
		<edge from-layer="297" from-port="3" to-layer="298" to-port="0"/>
		<edge from-layer="298" from-port="1" to-layer="299" to-port="0"/>
		<edge from-layer="299" from-port="1" to-layer="300" to-port="0"/>
		<edge from-layer="300" from-port="3" to-layer="301" to-port="0"/>
		<edge from-layer="301" from-port="1" to-layer="302" to-port="0"/>
		<edge from-layer="302" from-port="3" to-layer="303" to-port="0"/>
		<edge from-layer="303" from-port="1" to-layer="304" to-port="0"/>
		<edge from-layer="304" from-port="1" to-layer="305" to-port="0"/>
		<edge from-layer="298" from-port="1" to-layer="306" to-port="0"/>
		<edge from-layer="305" from-port="1" to-layer="306" to-port="1"/>
		<edge from-layer="306" from-port="2" to-layer="307" to-port="0"/>
		<edge from-layer="283" from-port="1" to-layer="307" to-port="1"/>
		<edge from-layer="307" from-port="2" to-layer="308" to-port="0"/>
		<edge from-layer="308" from-port="1" to-layer="309" to-port="0"/>
		<edge from-layer="309" from-port="3" to-layer="310" to-port="0"/>
		<edge from-layer="310" from-port="1" to-layer="311" to-port="0"/>
		<edge from-layer="311" from-port="3" to-layer="312" to-port="0"/>
		<edge from-layer="312" from-port="3" to-layer="313" to-port="0"/>
		<edge from-layer="313" from-port="1" to-layer="314" to-port="0"/>
		<edge from-layer="308" from-port="1" to-layer="315" to-port="0"/>
		<edge from-layer="315" from-port="3" to-layer="316" to-port="0"/>
		<edge from-layer="316" from-port="1" to-layer="317" to-port="0"/>
		<edge from-layer="317" from-port="3" to-layer="318" to-port="0"/>
		<edge from-layer="318" from-port="3" to-layer="319" to-port="0"/>
		<edge from-layer="319" from-port="1" to-layer="320" to-port="0"/>
		<edge from-layer="314" from-port="3" to-layer="321" to-port="0"/>
		<edge from-layer="320" from-port="3" to-layer="321" to-port="1"/>
		<edge from-layer="321" from-port="2" to-layer="322" to-port="0"/>
		<edge from-layer="322" from-port="3" to-layer="323" to-port="0"/>
		<edge from-layer="323" from-port="1" to-layer="324" to-port="0"/>
		<edge from-layer="324" from-port="1" to-layer="325" to-port="0"/>
		<edge from-layer="325" from-port="3" to-layer="326" to-port="0"/>
		<edge from-layer="326" from-port="1" to-layer="327" to-port="0"/>
		<edge from-layer="327" from-port="3" to-layer="328" to-port="0"/>
		<edge from-layer="328" from-port="1" to-layer="329" to-port="0"/>
		<edge from-layer="329" from-port="1" to-layer="330" to-port="0"/>
		<edge from-layer="323" from-port="1" to-layer="331" to-port="0"/>
		<edge from-layer="330" from-port="1" to-layer="331" to-port="1"/>
		<edge from-layer="331" from-port="2" to-layer="332" to-port="0"/>
		<edge from-layer="308" from-port="1" to-layer="332" to-port="1"/>
		<edge from-layer="332" from-port="2" to-layer="333" to-port="0"/>
		<edge from-layer="333" from-port="1" to-layer="334" to-port="0"/>
		<edge from-layer="334" from-port="1" to-layer="335" to-port="0"/>
		<edge from-layer="335" from-port="3" to-layer="336" to-port="0"/>
		<edge from-layer="336" from-port="1" to-layer="337" to-port="0"/>
		<edge from-layer="337" from-port="1" to-layer="338" to-port="0"/>
	</edges>
	<meta_data>
		<MO_version value="1.5.12.49d067a0"/>
		<cli_parameters>
			<data_type value="float"/>
			<disable_fusing value="False"/>
			<disable_gfusing value="False"/>
			<disable_nhwc_to_nchw value="False"/>
			<disable_resnet_optimization value="False"/>
			<extensions value="DIR"/>
			<framework value="tf"/>
			<generate_deprecated_IR_V2 value="False"/>
			<input_model value="DIR\SENet_Digit-1000.pb"/>
			<input_model_is_text value="False"/>
			<input_shape value="[1,28,28,3]"/>
			<log_level value="ERROR"/>
			<mean_values value="()"/>
			<move_to_preprocess value="False"/>
			<offload_unsupported_operations_to_tf value="False"/>
			<output_dir value="DIR"/>
			<reverse_input_channels value="False"/>
			<scale_values value="()"/>
			<silent value="False"/>
			<version value="False"/>
			<unset unset_cli_parameters="batch, finegrain_fusing, freeze_placeholder_with_value, input, input_checkpoint, input_meta_graph, model_name, output, saved_model_dir, saved_model_tags, scale, tensorboard_logdir, tensorflow_custom_layer_libraries, tensorflow_custom_operations_config_update, tensorflow_object_detection_api_pipeline_config, tensorflow_operation_patterns, tensorflow_subgraph_patterns, tensorflow_use_custom_operations_config"/>
		</cli_parameters>
	</meta_data>
</net>
