<?xml version="1.0" ?>
<net batch="1" name="ResNeXt-1000C32" version="4">
	<layers>
		<layer id="0" name="inputs" precision="FP32" type="Input">
			<output>
				<port id="0">
					<dim>1</dim>
					<dim>3</dim>
					<dim>28</dim>
					<dim>28</dim>
				</port>
			</output>
		</layer>
		<layer id="1" name="conv1/Conv2D" precision="FP32" type="Convolution">
			<data auto_pad="same_upper" dilations="1,1" group="1" kernel="3,3" output="64" pads_begin="1,1" pads_end="1,1" strides="1,1"/>
			<input>
				<port id="0">
					<dim>1</dim>
					<dim>3</dim>
					<dim>28</dim>
					<dim>28</dim>
				</port>
			</input>
			<output>
				<port id="3">
					<dim>1</dim>
					<dim>64</dim>
					<dim>28</dim>
					<dim>28</dim>
				</port>
			</output>
			<blobs>
				<weights offset="0" size="6912"/>
				<biases offset="6912" size="256"/>
			</blobs>
		</layer>
		<layer id="2" name="bn/Relu" precision="FP32" type="ReLU">
			<input>
				<port id="0">
					<dim>1</dim>
					<dim>64</dim>
					<dim>28</dim>
					<dim>28</dim>
				</port>
			</input>
			<output>
				<port id="1">
					<dim>1</dim>
					<dim>64</dim>
					<dim>28</dim>
					<dim>28</dim>
				</port>
			</output>
		</layer>
		<layer id="3" name="unit0_0/branch_0/1x1conv/Conv2D" precision="FP32" type="Convolution">
			<data auto_pad="same_upper" dilations="1,1" group="1" kernel="1,1" output="1" pads_begin="0,0" pads_end="0,0" strides="1,1"/>
			<input>
				<port id="0">
					<dim>1</dim>
					<dim>64</dim>
					<dim>28</dim>
					<dim>28</dim>
				</port>
			</input>
			<output>
				<port id="3">
					<dim>1</dim>
					<dim>1</dim>
					<dim>28</dim>
					<dim>28</dim>
				</port>
			</output>
			<blobs>
				<weights offset="7168" size="256"/>
				<biases offset="7424" size="4"/>
			</blobs>
		</layer>
		<layer id="4" name="unit0_0/branch_0/bn1/Relu" precision="FP32" type="ReLU">
			<input>
				<port id="0">
					<dim>1</dim>
					<dim>1</dim>
					<dim>28</dim>
					<dim>28</dim>
				</port>
			</input>
			<output>
				<port id="1">
					<dim>1</dim>
					<dim>1</dim>
					<dim>28</dim>
					<dim>28</dim>
				</port>
			</output>
		</layer>
		<layer id="5" name="unit0_0/branch_0/3x3conv/Conv2D" precision="FP32" type="Convolution">
			<data auto_pad="same_upper" dilations="1,1" group="1" kernel="3,3" output="1" pads_begin="1,1" pads_end="1,1" strides="1,1"/>
			<input>
				<port id="0">
					<dim>1</dim>
					<dim>1</dim>
					<dim>28</dim>
					<dim>28</dim>
				</port>
			</input>
			<output>
				<port id="3">
					<dim>1</dim>
					<dim>1</dim>
					<dim>28</dim>
					<dim>28</dim>
				</port>
			</output>
			<blobs>
				<weights offset="7428" size="36"/>
				<biases offset="7464" size="4"/>
			</blobs>
		</layer>
		<layer id="6" name="unit0_0/branch_0/bn2/Relu" precision="FP32" type="ReLU">
			<input>
				<port id="0">
					<dim>1</dim>
					<dim>1</dim>
					<dim>28</dim>
					<dim>28</dim>
				</port>
			</input>
			<output>
				<port id="1">
					<dim>1</dim>
					<dim>1</dim>
					<dim>28</dim>
					<dim>28</dim>
				</port>
			</output>
		</layer>
		<layer id="7" name="unit0_0/branch_1/1x1conv/Conv2D" precision="FP32" type="Convolution">
			<data auto_pad="same_upper" dilations="1,1" group="1" kernel="1,1" output="1" pads_begin="0,0" pads_end="0,0" strides="1,1"/>
			<input>
				<port id="0">
					<dim>1</dim>
					<dim>64</dim>
					<dim>28</dim>
					<dim>28</dim>
				</port>
			</input>
			<output>
				<port id="3">
					<dim>1</dim>
					<dim>1</dim>
					<dim>28</dim>
					<dim>28</dim>
				</port>
			</output>
			<blobs>
				<weights offset="7468" size="256"/>
				<biases offset="7724" size="4"/>
			</blobs>
		</layer>
		<layer id="8" name="unit0_0/branch_1/bn1/Relu" precision="FP32" type="ReLU">
			<input>
				<port id="0">
					<dim>1</dim>
					<dim>1</dim>
					<dim>28</dim>
					<dim>28</dim>
				</port>
			</input>
			<output>
				<port id="1">
					<dim>1</dim>
					<dim>1</dim>
					<dim>28</dim>
					<dim>28</dim>
				</port>
			</output>
		</layer>
		<layer id="9" name="unit0_0/branch_1/3x3conv/Conv2D" precision="FP32" type="Convolution">
			<data auto_pad="same_upper" dilations="1,1" group="1" kernel="3,3" output="1" pads_begin="1,1" pads_end="1,1" strides="1,1"/>
			<input>
				<port id="0">
					<dim>1</dim>
					<dim>1</dim>
					<dim>28</dim>
					<dim>28</dim>
				</port>
			</input>
			<output>
				<port id="3">
					<dim>1</dim>
					<dim>1</dim>
					<dim>28</dim>
					<dim>28</dim>
				</port>
			</output>
			<blobs>
				<weights offset="7728" size="36"/>
				<biases offset="7764" size="4"/>
			</blobs>
		</layer>
		<layer id="10" name="unit0_0/branch_1/bn2/Relu" precision="FP32" type="ReLU">
			<input>
				<port id="0">
					<dim>1</dim>
					<dim>1</dim>
					<dim>28</dim>
					<dim>28</dim>
				</port>
			</input>
			<output>
				<port id="1">
					<dim>1</dim>
					<dim>1</dim>
					<dim>28</dim>
					<dim>28</dim>
				</port>
			</output>
		</layer>
		<layer id="11" name="unit0_0/branch_2/1x1conv/Conv2D" precision="FP32" type="Convolution">
			<data auto_pad="same_upper" dilations="1,1" group="1" kernel="1,1" output="1" pads_begin="0,0" pads_end="0,0" strides="1,1"/>
			<input>
				<port id="0">
					<dim>1</dim>
					<dim>64</dim>
					<dim>28</dim>
					<dim>28</dim>
				</port>
			</input>
			<output>
				<port id="3">
					<dim>1</dim>
					<dim>1</dim>
					<dim>28</dim>
					<dim>28</dim>
				</port>
			</output>
			<blobs>
				<weights offset="7768" size="256"/>
				<biases offset="8024" size="4"/>
			</blobs>
		</layer>
		<layer id="12" name="unit0_0/branch_2/bn1/Relu" precision="FP32" type="ReLU">
			<input>
				<port id="0">
					<dim>1</dim>
					<dim>1</dim>
					<dim>28</dim>
					<dim>28</dim>
				</port>
			</input>
			<output>
				<port id="1">
					<dim>1</dim>
					<dim>1</dim>
					<dim>28</dim>
					<dim>28</dim>
				</port>
			</output>
		</layer>
		<layer id="13" name="unit0_0/branch_2/3x3conv/Conv2D" precision="FP32" type="Convolution">
			<data auto_pad="same_upper" dilations="1,1" group="1" kernel="3,3" output="1" pads_begin="1,1" pads_end="1,1" strides="1,1"/>
			<input>
				<port id="0">
					<dim>1</dim>
					<dim>1</dim>
					<dim>28</dim>
					<dim>28</dim>
				</port>
			</input>
			<output>
				<port id="3">
					<dim>1</dim>
					<dim>1</dim>
					<dim>28</dim>
					<dim>28</dim>
				</port>
			</output>
			<blobs>
				<weights offset="8028" size="36"/>
				<biases offset="8064" size="4"/>
			</blobs>
		</layer>
		<layer id="14" name="unit0_0/branch_2/bn2/Relu" precision="FP32" type="ReLU">
			<input>
				<port id="0">
					<dim>1</dim>
					<dim>1</dim>
					<dim>28</dim>
					<dim>28</dim>
				</port>
			</input>
			<output>
				<port id="1">
					<dim>1</dim>
					<dim>1</dim>
					<dim>28</dim>
					<dim>28</dim>
				</port>
			</output>
		</layer>
		<layer id="15" name="unit0_0/branch_3/1x1conv/Conv2D" precision="FP32" type="Convolution">
			<data auto_pad="same_upper" dilations="1,1" group="1" kernel="1,1" output="1" pads_begin="0,0" pads_end="0,0" strides="1,1"/>
			<input>
				<port id="0">
					<dim>1</dim>
					<dim>64</dim>
					<dim>28</dim>
					<dim>28</dim>
				</port>
			</input>
			<output>
				<port id="3">
					<dim>1</dim>
					<dim>1</dim>
					<dim>28</dim>
					<dim>28</dim>
				</port>
			</output>
			<blobs>
				<weights offset="8068" size="256"/>
				<biases offset="8324" size="4"/>
			</blobs>
		</layer>
		<layer id="16" name="unit0_0/branch_3/bn1/Relu" precision="FP32" type="ReLU">
			<input>
				<port id="0">
					<dim>1</dim>
					<dim>1</dim>
					<dim>28</dim>
					<dim>28</dim>
				</port>
			</input>
			<output>
				<port id="1">
					<dim>1</dim>
					<dim>1</dim>
					<dim>28</dim>
					<dim>28</dim>
				</port>
			</output>
		</layer>
		<layer id="17" name="unit0_0/branch_3/3x3conv/Conv2D" precision="FP32" type="Convolution">
			<data auto_pad="same_upper" dilations="1,1" group="1" kernel="3,3" output="1" pads_begin="1,1" pads_end="1,1" strides="1,1"/>
			<input>
				<port id="0">
					<dim>1</dim>
					<dim>1</dim>
					<dim>28</dim>
					<dim>28</dim>
				</port>
			</input>
			<output>
				<port id="3">
					<dim>1</dim>
					<dim>1</dim>
					<dim>28</dim>
					<dim>28</dim>
				</port>
			</output>
			<blobs>
				<weights offset="8328" size="36"/>
				<biases offset="8364" size="4"/>
			</blobs>
		</layer>
		<layer id="18" name="unit0_0/branch_3/bn2/Relu" precision="FP32" type="ReLU">
			<input>
				<port id="0">
					<dim>1</dim>
					<dim>1</dim>
					<dim>28</dim>
					<dim>28</dim>
				</port>
			</input>
			<output>
				<port id="1">
					<dim>1</dim>
					<dim>1</dim>
					<dim>28</dim>
					<dim>28</dim>
				</port>
			</output>
		</layer>
		<layer id="19" name="unit0_0/branch_4/1x1conv/Conv2D" precision="FP32" type="Convolution">
			<data auto_pad="same_upper" dilations="1,1" group="1" kernel="1,1" output="1" pads_begin="0,0" pads_end="0,0" strides="1,1"/>
			<input>
				<port id="0">
					<dim>1</dim>
					<dim>64</dim>
					<dim>28</dim>
					<dim>28</dim>
				</port>
			</input>
			<output>
				<port id="3">
					<dim>1</dim>
					<dim>1</dim>
					<dim>28</dim>
					<dim>28</dim>
				</port>
			</output>
			<blobs>
				<weights offset="8368" size="256"/>
				<biases offset="8624" size="4"/>
			</blobs>
		</layer>
		<layer id="20" name="unit0_0/branch_4/bn1/Relu" precision="FP32" type="ReLU">
			<input>
				<port id="0">
					<dim>1</dim>
					<dim>1</dim>
					<dim>28</dim>
					<dim>28</dim>
				</port>
			</input>
			<output>
				<port id="1">
					<dim>1</dim>
					<dim>1</dim>
					<dim>28</dim>
					<dim>28</dim>
				</port>
			</output>
		</layer>
		<layer id="21" name="unit0_0/branch_4/3x3conv/Conv2D" precision="FP32" type="Convolution">
			<data auto_pad="same_upper" dilations="1,1" group="1" kernel="3,3" output="1" pads_begin="1,1" pads_end="1,1" strides="1,1"/>
			<input>
				<port id="0">
					<dim>1</dim>
					<dim>1</dim>
					<dim>28</dim>
					<dim>28</dim>
				</port>
			</input>
			<output>
				<port id="3">
					<dim>1</dim>
					<dim>1</dim>
					<dim>28</dim>
					<dim>28</dim>
				</port>
			</output>
			<blobs>
				<weights offset="8628" size="36"/>
				<biases offset="8664" size="4"/>
			</blobs>
		</layer>
		<layer id="22" name="unit0_0/branch_4/bn2/Relu" precision="FP32" type="ReLU">
			<input>
				<port id="0">
					<dim>1</dim>
					<dim>1</dim>
					<dim>28</dim>
					<dim>28</dim>
				</port>
			</input>
			<output>
				<port id="1">
					<dim>1</dim>
					<dim>1</dim>
					<dim>28</dim>
					<dim>28</dim>
				</port>
			</output>
		</layer>
		<layer id="23" name="unit0_0/branch_5/1x1conv/Conv2D" precision="FP32" type="Convolution">
			<data auto_pad="same_upper" dilations="1,1" group="1" kernel="1,1" output="1" pads_begin="0,0" pads_end="0,0" strides="1,1"/>
			<input>
				<port id="0">
					<dim>1</dim>
					<dim>64</dim>
					<dim>28</dim>
					<dim>28</dim>
				</port>
			</input>
			<output>
				<port id="3">
					<dim>1</dim>
					<dim>1</dim>
					<dim>28</dim>
					<dim>28</dim>
				</port>
			</output>
			<blobs>
				<weights offset="8668" size="256"/>
				<biases offset="8924" size="4"/>
			</blobs>
		</layer>
		<layer id="24" name="unit0_0/branch_5/bn1/Relu" precision="FP32" type="ReLU">
			<input>
				<port id="0">
					<dim>1</dim>
					<dim>1</dim>
					<dim>28</dim>
					<dim>28</dim>
				</port>
			</input>
			<output>
				<port id="1">
					<dim>1</dim>
					<dim>1</dim>
					<dim>28</dim>
					<dim>28</dim>
				</port>
			</output>
		</layer>
		<layer id="25" name="unit0_0/branch_5/3x3conv/Conv2D" precision="FP32" type="Convolution">
			<data auto_pad="same_upper" dilations="1,1" group="1" kernel="3,3" output="1" pads_begin="1,1" pads_end="1,1" strides="1,1"/>
			<input>
				<port id="0">
					<dim>1</dim>
					<dim>1</dim>
					<dim>28</dim>
					<dim>28</dim>
				</port>
			</input>
			<output>
				<port id="3">
					<dim>1</dim>
					<dim>1</dim>
					<dim>28</dim>
					<dim>28</dim>
				</port>
			</output>
			<blobs>
				<weights offset="8928" size="36"/>
				<biases offset="8964" size="4"/>
			</blobs>
		</layer>
		<layer id="26" name="unit0_0/branch_5/bn2/Relu" precision="FP32" type="ReLU">
			<input>
				<port id="0">
					<dim>1</dim>
					<dim>1</dim>
					<dim>28</dim>
					<dim>28</dim>
				</port>
			</input>
			<output>
				<port id="1">
					<dim>1</dim>
					<dim>1</dim>
					<dim>28</dim>
					<dim>28</dim>
				</port>
			</output>
		</layer>
		<layer id="27" name="unit0_0/branch_6/1x1conv/Conv2D" precision="FP32" type="Convolution">
			<data auto_pad="same_upper" dilations="1,1" group="1" kernel="1,1" output="1" pads_begin="0,0" pads_end="0,0" strides="1,1"/>
			<input>
				<port id="0">
					<dim>1</dim>
					<dim>64</dim>
					<dim>28</dim>
					<dim>28</dim>
				</port>
			</input>
			<output>
				<port id="3">
					<dim>1</dim>
					<dim>1</dim>
					<dim>28</dim>
					<dim>28</dim>
				</port>
			</output>
			<blobs>
				<weights offset="8968" size="256"/>
				<biases offset="9224" size="4"/>
			</blobs>
		</layer>
		<layer id="28" name="unit0_0/branch_6/bn1/Relu" precision="FP32" type="ReLU">
			<input>
				<port id="0">
					<dim>1</dim>
					<dim>1</dim>
					<dim>28</dim>
					<dim>28</dim>
				</port>
			</input>
			<output>
				<port id="1">
					<dim>1</dim>
					<dim>1</dim>
					<dim>28</dim>
					<dim>28</dim>
				</port>
			</output>
		</layer>
		<layer id="29" name="unit0_0/branch_6/3x3conv/Conv2D" precision="FP32" type="Convolution">
			<data auto_pad="same_upper" dilations="1,1" group="1" kernel="3,3" output="1" pads_begin="1,1" pads_end="1,1" strides="1,1"/>
			<input>
				<port id="0">
					<dim>1</dim>
					<dim>1</dim>
					<dim>28</dim>
					<dim>28</dim>
				</port>
			</input>
			<output>
				<port id="3">
					<dim>1</dim>
					<dim>1</dim>
					<dim>28</dim>
					<dim>28</dim>
				</port>
			</output>
			<blobs>
				<weights offset="9228" size="36"/>
				<biases offset="9264" size="4"/>
			</blobs>
		</layer>
		<layer id="30" name="unit0_0/branch_6/bn2/Relu" precision="FP32" type="ReLU">
			<input>
				<port id="0">
					<dim>1</dim>
					<dim>1</dim>
					<dim>28</dim>
					<dim>28</dim>
				</port>
			</input>
			<output>
				<port id="1">
					<dim>1</dim>
					<dim>1</dim>
					<dim>28</dim>
					<dim>28</dim>
				</port>
			</output>
		</layer>
		<layer id="31" name="unit0_0/branch_7/1x1conv/Conv2D" precision="FP32" type="Convolution">
			<data auto_pad="same_upper" dilations="1,1" group="1" kernel="1,1" output="1" pads_begin="0,0" pads_end="0,0" strides="1,1"/>
			<input>
				<port id="0">
					<dim>1</dim>
					<dim>64</dim>
					<dim>28</dim>
					<dim>28</dim>
				</port>
			</input>
			<output>
				<port id="3">
					<dim>1</dim>
					<dim>1</dim>
					<dim>28</dim>
					<dim>28</dim>
				</port>
			</output>
			<blobs>
				<weights offset="9268" size="256"/>
				<biases offset="9524" size="4"/>
			</blobs>
		</layer>
		<layer id="32" name="unit0_0/branch_7/bn1/Relu" precision="FP32" type="ReLU">
			<input>
				<port id="0">
					<dim>1</dim>
					<dim>1</dim>
					<dim>28</dim>
					<dim>28</dim>
				</port>
			</input>
			<output>
				<port id="1">
					<dim>1</dim>
					<dim>1</dim>
					<dim>28</dim>
					<dim>28</dim>
				</port>
			</output>
		</layer>
		<layer id="33" name="unit0_0/branch_7/3x3conv/Conv2D" precision="FP32" type="Convolution">
			<data auto_pad="same_upper" dilations="1,1" group="1" kernel="3,3" output="1" pads_begin="1,1" pads_end="1,1" strides="1,1"/>
			<input>
				<port id="0">
					<dim>1</dim>
					<dim>1</dim>
					<dim>28</dim>
					<dim>28</dim>
				</port>
			</input>
			<output>
				<port id="3">
					<dim>1</dim>
					<dim>1</dim>
					<dim>28</dim>
					<dim>28</dim>
				</port>
			</output>
			<blobs>
				<weights offset="9528" size="36"/>
				<biases offset="9564" size="4"/>
			</blobs>
		</layer>
		<layer id="34" name="unit0_0/branch_7/bn2/Relu" precision="FP32" type="ReLU">
			<input>
				<port id="0">
					<dim>1</dim>
					<dim>1</dim>
					<dim>28</dim>
					<dim>28</dim>
				</port>
			</input>
			<output>
				<port id="1">
					<dim>1</dim>
					<dim>1</dim>
					<dim>28</dim>
					<dim>28</dim>
				</port>
			</output>
		</layer>
		<layer id="35" name="unit0_0/branch_8/1x1conv/Conv2D" precision="FP32" type="Convolution">
			<data auto_pad="same_upper" dilations="1,1" group="1" kernel="1,1" output="1" pads_begin="0,0" pads_end="0,0" strides="1,1"/>
			<input>
				<port id="0">
					<dim>1</dim>
					<dim>64</dim>
					<dim>28</dim>
					<dim>28</dim>
				</port>
			</input>
			<output>
				<port id="3">
					<dim>1</dim>
					<dim>1</dim>
					<dim>28</dim>
					<dim>28</dim>
				</port>
			</output>
			<blobs>
				<weights offset="9568" size="256"/>
				<biases offset="9824" size="4"/>
			</blobs>
		</layer>
		<layer id="36" name="unit0_0/branch_8/bn1/Relu" precision="FP32" type="ReLU">
			<input>
				<port id="0">
					<dim>1</dim>
					<dim>1</dim>
					<dim>28</dim>
					<dim>28</dim>
				</port>
			</input>
			<output>
				<port id="1">
					<dim>1</dim>
					<dim>1</dim>
					<dim>28</dim>
					<dim>28</dim>
				</port>
			</output>
		</layer>
		<layer id="37" name="unit0_0/branch_8/3x3conv/Conv2D" precision="FP32" type="Convolution">
			<data auto_pad="same_upper" dilations="1,1" group="1" kernel="3,3" output="1" pads_begin="1,1" pads_end="1,1" strides="1,1"/>
			<input>
				<port id="0">
					<dim>1</dim>
					<dim>1</dim>
					<dim>28</dim>
					<dim>28</dim>
				</port>
			</input>
			<output>
				<port id="3">
					<dim>1</dim>
					<dim>1</dim>
					<dim>28</dim>
					<dim>28</dim>
				</port>
			</output>
			<blobs>
				<weights offset="9828" size="36"/>
				<biases offset="9864" size="4"/>
			</blobs>
		</layer>
		<layer id="38" name="unit0_0/branch_8/bn2/Relu" precision="FP32" type="ReLU">
			<input>
				<port id="0">
					<dim>1</dim>
					<dim>1</dim>
					<dim>28</dim>
					<dim>28</dim>
				</port>
			</input>
			<output>
				<port id="1">
					<dim>1</dim>
					<dim>1</dim>
					<dim>28</dim>
					<dim>28</dim>
				</port>
			</output>
		</layer>
		<layer id="39" name="unit0_0/branch_9/1x1conv/Conv2D" precision="FP32" type="Convolution">
			<data auto_pad="same_upper" dilations="1,1" group="1" kernel="1,1" output="1" pads_begin="0,0" pads_end="0,0" strides="1,1"/>
			<input>
				<port id="0">
					<dim>1</dim>
					<dim>64</dim>
					<dim>28</dim>
					<dim>28</dim>
				</port>
			</input>
			<output>
				<port id="3">
					<dim>1</dim>
					<dim>1</dim>
					<dim>28</dim>
					<dim>28</dim>
				</port>
			</output>
			<blobs>
				<weights offset="9868" size="256"/>
				<biases offset="10124" size="4"/>
			</blobs>
		</layer>
		<layer id="40" name="unit0_0/branch_9/bn1/Relu" precision="FP32" type="ReLU">
			<input>
				<port id="0">
					<dim>1</dim>
					<dim>1</dim>
					<dim>28</dim>
					<dim>28</dim>
				</port>
			</input>
			<output>
				<port id="1">
					<dim>1</dim>
					<dim>1</dim>
					<dim>28</dim>
					<dim>28</dim>
				</port>
			</output>
		</layer>
		<layer id="41" name="unit0_0/branch_9/3x3conv/Conv2D" precision="FP32" type="Convolution">
			<data auto_pad="same_upper" dilations="1,1" group="1" kernel="3,3" output="1" pads_begin="1,1" pads_end="1,1" strides="1,1"/>
			<input>
				<port id="0">
					<dim>1</dim>
					<dim>1</dim>
					<dim>28</dim>
					<dim>28</dim>
				</port>
			</input>
			<output>
				<port id="3">
					<dim>1</dim>
					<dim>1</dim>
					<dim>28</dim>
					<dim>28</dim>
				</port>
			</output>
			<blobs>
				<weights offset="10128" size="36"/>
				<biases offset="10164" size="4"/>
			</blobs>
		</layer>
		<layer id="42" name="unit0_0/branch_9/bn2/Relu" precision="FP32" type="ReLU">
			<input>
				<port id="0">
					<dim>1</dim>
					<dim>1</dim>
					<dim>28</dim>
					<dim>28</dim>
				</port>
			</input>
			<output>
				<port id="1">
					<dim>1</dim>
					<dim>1</dim>
					<dim>28</dim>
					<dim>28</dim>
				</port>
			</output>
		</layer>
		<layer id="43" name="unit0_0/branch_10/1x1conv/Conv2D" precision="FP32" type="Convolution">
			<data auto_pad="same_upper" dilations="1,1" group="1" kernel="1,1" output="1" pads_begin="0,0" pads_end="0,0" strides="1,1"/>
			<input>
				<port id="0">
					<dim>1</dim>
					<dim>64</dim>
					<dim>28</dim>
					<dim>28</dim>
				</port>
			</input>
			<output>
				<port id="3">
					<dim>1</dim>
					<dim>1</dim>
					<dim>28</dim>
					<dim>28</dim>
				</port>
			</output>
			<blobs>
				<weights offset="10168" size="256"/>
				<biases offset="10424" size="4"/>
			</blobs>
		</layer>
		<layer id="44" name="unit0_0/branch_10/bn1/Relu" precision="FP32" type="ReLU">
			<input>
				<port id="0">
					<dim>1</dim>
					<dim>1</dim>
					<dim>28</dim>
					<dim>28</dim>
				</port>
			</input>
			<output>
				<port id="1">
					<dim>1</dim>
					<dim>1</dim>
					<dim>28</dim>
					<dim>28</dim>
				</port>
			</output>
		</layer>
		<layer id="45" name="unit0_0/branch_10/3x3conv/Conv2D" precision="FP32" type="Convolution">
			<data auto_pad="same_upper" dilations="1,1" group="1" kernel="3,3" output="1" pads_begin="1,1" pads_end="1,1" strides="1,1"/>
			<input>
				<port id="0">
					<dim>1</dim>
					<dim>1</dim>
					<dim>28</dim>
					<dim>28</dim>
				</port>
			</input>
			<output>
				<port id="3">
					<dim>1</dim>
					<dim>1</dim>
					<dim>28</dim>
					<dim>28</dim>
				</port>
			</output>
			<blobs>
				<weights offset="10428" size="36"/>
				<biases offset="10464" size="4"/>
			</blobs>
		</layer>
		<layer id="46" name="unit0_0/branch_10/bn2/Relu" precision="FP32" type="ReLU">
			<input>
				<port id="0">
					<dim>1</dim>
					<dim>1</dim>
					<dim>28</dim>
					<dim>28</dim>
				</port>
			</input>
			<output>
				<port id="1">
					<dim>1</dim>
					<dim>1</dim>
					<dim>28</dim>
					<dim>28</dim>
				</port>
			</output>
		</layer>
		<layer id="47" name="unit0_0/branch_11/1x1conv/Conv2D" precision="FP32" type="Convolution">
			<data auto_pad="same_upper" dilations="1,1" group="1" kernel="1,1" output="1" pads_begin="0,0" pads_end="0,0" strides="1,1"/>
			<input>
				<port id="0">
					<dim>1</dim>
					<dim>64</dim>
					<dim>28</dim>
					<dim>28</dim>
				</port>
			</input>
			<output>
				<port id="3">
					<dim>1</dim>
					<dim>1</dim>
					<dim>28</dim>
					<dim>28</dim>
				</port>
			</output>
			<blobs>
				<weights offset="10468" size="256"/>
				<biases offset="10724" size="4"/>
			</blobs>
		</layer>
		<layer id="48" name="unit0_0/branch_11/bn1/Relu" precision="FP32" type="ReLU">
			<input>
				<port id="0">
					<dim>1</dim>
					<dim>1</dim>
					<dim>28</dim>
					<dim>28</dim>
				</port>
			</input>
			<output>
				<port id="1">
					<dim>1</dim>
					<dim>1</dim>
					<dim>28</dim>
					<dim>28</dim>
				</port>
			</output>
		</layer>
		<layer id="49" name="unit0_0/branch_11/3x3conv/Conv2D" precision="FP32" type="Convolution">
			<data auto_pad="same_upper" dilations="1,1" group="1" kernel="3,3" output="1" pads_begin="1,1" pads_end="1,1" strides="1,1"/>
			<input>
				<port id="0">
					<dim>1</dim>
					<dim>1</dim>
					<dim>28</dim>
					<dim>28</dim>
				</port>
			</input>
			<output>
				<port id="3">
					<dim>1</dim>
					<dim>1</dim>
					<dim>28</dim>
					<dim>28</dim>
				</port>
			</output>
			<blobs>
				<weights offset="10728" size="36"/>
				<biases offset="10764" size="4"/>
			</blobs>
		</layer>
		<layer id="50" name="unit0_0/branch_11/bn2/Relu" precision="FP32" type="ReLU">
			<input>
				<port id="0">
					<dim>1</dim>
					<dim>1</dim>
					<dim>28</dim>
					<dim>28</dim>
				</port>
			</input>
			<output>
				<port id="1">
					<dim>1</dim>
					<dim>1</dim>
					<dim>28</dim>
					<dim>28</dim>
				</port>
			</output>
		</layer>
		<layer id="51" name="unit0_0/branch_12/1x1conv/Conv2D" precision="FP32" type="Convolution">
			<data auto_pad="same_upper" dilations="1,1" group="1" kernel="1,1" output="1" pads_begin="0,0" pads_end="0,0" strides="1,1"/>
			<input>
				<port id="0">
					<dim>1</dim>
					<dim>64</dim>
					<dim>28</dim>
					<dim>28</dim>
				</port>
			</input>
			<output>
				<port id="3">
					<dim>1</dim>
					<dim>1</dim>
					<dim>28</dim>
					<dim>28</dim>
				</port>
			</output>
			<blobs>
				<weights offset="10768" size="256"/>
				<biases offset="11024" size="4"/>
			</blobs>
		</layer>
		<layer id="52" name="unit0_0/branch_12/bn1/Relu" precision="FP32" type="ReLU">
			<input>
				<port id="0">
					<dim>1</dim>
					<dim>1</dim>
					<dim>28</dim>
					<dim>28</dim>
				</port>
			</input>
			<output>
				<port id="1">
					<dim>1</dim>
					<dim>1</dim>
					<dim>28</dim>
					<dim>28</dim>
				</port>
			</output>
		</layer>
		<layer id="53" name="unit0_0/branch_12/3x3conv/Conv2D" precision="FP32" type="Convolution">
			<data auto_pad="same_upper" dilations="1,1" group="1" kernel="3,3" output="1" pads_begin="1,1" pads_end="1,1" strides="1,1"/>
			<input>
				<port id="0">
					<dim>1</dim>
					<dim>1</dim>
					<dim>28</dim>
					<dim>28</dim>
				</port>
			</input>
			<output>
				<port id="3">
					<dim>1</dim>
					<dim>1</dim>
					<dim>28</dim>
					<dim>28</dim>
				</port>
			</output>
			<blobs>
				<weights offset="11028" size="36"/>
				<biases offset="11064" size="4"/>
			</blobs>
		</layer>
		<layer id="54" name="unit0_0/branch_12/bn2/Relu" precision="FP32" type="ReLU">
			<input>
				<port id="0">
					<dim>1</dim>
					<dim>1</dim>
					<dim>28</dim>
					<dim>28</dim>
				</port>
			</input>
			<output>
				<port id="1">
					<dim>1</dim>
					<dim>1</dim>
					<dim>28</dim>
					<dim>28</dim>
				</port>
			</output>
		</layer>
		<layer id="55" name="unit0_0/branch_13/1x1conv/Conv2D" precision="FP32" type="Convolution">
			<data auto_pad="same_upper" dilations="1,1" group="1" kernel="1,1" output="1" pads_begin="0,0" pads_end="0,0" strides="1,1"/>
			<input>
				<port id="0">
					<dim>1</dim>
					<dim>64</dim>
					<dim>28</dim>
					<dim>28</dim>
				</port>
			</input>
			<output>
				<port id="3">
					<dim>1</dim>
					<dim>1</dim>
					<dim>28</dim>
					<dim>28</dim>
				</port>
			</output>
			<blobs>
				<weights offset="11068" size="256"/>
				<biases offset="11324" size="4"/>
			</blobs>
		</layer>
		<layer id="56" name="unit0_0/branch_13/bn1/Relu" precision="FP32" type="ReLU">
			<input>
				<port id="0">
					<dim>1</dim>
					<dim>1</dim>
					<dim>28</dim>
					<dim>28</dim>
				</port>
			</input>
			<output>
				<port id="1">
					<dim>1</dim>
					<dim>1</dim>
					<dim>28</dim>
					<dim>28</dim>
				</port>
			</output>
		</layer>
		<layer id="57" name="unit0_0/branch_13/3x3conv/Conv2D" precision="FP32" type="Convolution">
			<data auto_pad="same_upper" dilations="1,1" group="1" kernel="3,3" output="1" pads_begin="1,1" pads_end="1,1" strides="1,1"/>
			<input>
				<port id="0">
					<dim>1</dim>
					<dim>1</dim>
					<dim>28</dim>
					<dim>28</dim>
				</port>
			</input>
			<output>
				<port id="3">
					<dim>1</dim>
					<dim>1</dim>
					<dim>28</dim>
					<dim>28</dim>
				</port>
			</output>
			<blobs>
				<weights offset="11328" size="36"/>
				<biases offset="11364" size="4"/>
			</blobs>
		</layer>
		<layer id="58" name="unit0_0/branch_13/bn2/Relu" precision="FP32" type="ReLU">
			<input>
				<port id="0">
					<dim>1</dim>
					<dim>1</dim>
					<dim>28</dim>
					<dim>28</dim>
				</port>
			</input>
			<output>
				<port id="1">
					<dim>1</dim>
					<dim>1</dim>
					<dim>28</dim>
					<dim>28</dim>
				</port>
			</output>
		</layer>
		<layer id="59" name="unit0_0/branch_14/1x1conv/Conv2D" precision="FP32" type="Convolution">
			<data auto_pad="same_upper" dilations="1,1" group="1" kernel="1,1" output="1" pads_begin="0,0" pads_end="0,0" strides="1,1"/>
			<input>
				<port id="0">
					<dim>1</dim>
					<dim>64</dim>
					<dim>28</dim>
					<dim>28</dim>
				</port>
			</input>
			<output>
				<port id="3">
					<dim>1</dim>
					<dim>1</dim>
					<dim>28</dim>
					<dim>28</dim>
				</port>
			</output>
			<blobs>
				<weights offset="11368" size="256"/>
				<biases offset="11624" size="4"/>
			</blobs>
		</layer>
		<layer id="60" name="unit0_0/branch_14/bn1/Relu" precision="FP32" type="ReLU">
			<input>
				<port id="0">
					<dim>1</dim>
					<dim>1</dim>
					<dim>28</dim>
					<dim>28</dim>
				</port>
			</input>
			<output>
				<port id="1">
					<dim>1</dim>
					<dim>1</dim>
					<dim>28</dim>
					<dim>28</dim>
				</port>
			</output>
		</layer>
		<layer id="61" name="unit0_0/branch_14/3x3conv/Conv2D" precision="FP32" type="Convolution">
			<data auto_pad="same_upper" dilations="1,1" group="1" kernel="3,3" output="1" pads_begin="1,1" pads_end="1,1" strides="1,1"/>
			<input>
				<port id="0">
					<dim>1</dim>
					<dim>1</dim>
					<dim>28</dim>
					<dim>28</dim>
				</port>
			</input>
			<output>
				<port id="3">
					<dim>1</dim>
					<dim>1</dim>
					<dim>28</dim>
					<dim>28</dim>
				</port>
			</output>
			<blobs>
				<weights offset="11628" size="36"/>
				<biases offset="11664" size="4"/>
			</blobs>
		</layer>
		<layer id="62" name="unit0_0/branch_14/bn2/Relu" precision="FP32" type="ReLU">
			<input>
				<port id="0">
					<dim>1</dim>
					<dim>1</dim>
					<dim>28</dim>
					<dim>28</dim>
				</port>
			</input>
			<output>
				<port id="1">
					<dim>1</dim>
					<dim>1</dim>
					<dim>28</dim>
					<dim>28</dim>
				</port>
			</output>
		</layer>
		<layer id="63" name="unit0_0/branch_15/1x1conv/Conv2D" precision="FP32" type="Convolution">
			<data auto_pad="same_upper" dilations="1,1" group="1" kernel="1,1" output="1" pads_begin="0,0" pads_end="0,0" strides="1,1"/>
			<input>
				<port id="0">
					<dim>1</dim>
					<dim>64</dim>
					<dim>28</dim>
					<dim>28</dim>
				</port>
			</input>
			<output>
				<port id="3">
					<dim>1</dim>
					<dim>1</dim>
					<dim>28</dim>
					<dim>28</dim>
				</port>
			</output>
			<blobs>
				<weights offset="11668" size="256"/>
				<biases offset="11924" size="4"/>
			</blobs>
		</layer>
		<layer id="64" name="unit0_0/branch_15/bn1/Relu" precision="FP32" type="ReLU">
			<input>
				<port id="0">
					<dim>1</dim>
					<dim>1</dim>
					<dim>28</dim>
					<dim>28</dim>
				</port>
			</input>
			<output>
				<port id="1">
					<dim>1</dim>
					<dim>1</dim>
					<dim>28</dim>
					<dim>28</dim>
				</port>
			</output>
		</layer>
		<layer id="65" name="unit0_0/branch_15/3x3conv/Conv2D" precision="FP32" type="Convolution">
			<data auto_pad="same_upper" dilations="1,1" group="1" kernel="3,3" output="1" pads_begin="1,1" pads_end="1,1" strides="1,1"/>
			<input>
				<port id="0">
					<dim>1</dim>
					<dim>1</dim>
					<dim>28</dim>
					<dim>28</dim>
				</port>
			</input>
			<output>
				<port id="3">
					<dim>1</dim>
					<dim>1</dim>
					<dim>28</dim>
					<dim>28</dim>
				</port>
			</output>
			<blobs>
				<weights offset="11928" size="36"/>
				<biases offset="11964" size="4"/>
			</blobs>
		</layer>
		<layer id="66" name="unit0_0/branch_15/bn2/Relu" precision="FP32" type="ReLU">
			<input>
				<port id="0">
					<dim>1</dim>
					<dim>1</dim>
					<dim>28</dim>
					<dim>28</dim>
				</port>
			</input>
			<output>
				<port id="1">
					<dim>1</dim>
					<dim>1</dim>
					<dim>28</dim>
					<dim>28</dim>
				</port>
			</output>
		</layer>
		<layer id="67" name="unit0_0/branch_16/1x1conv/Conv2D" precision="FP32" type="Convolution">
			<data auto_pad="same_upper" dilations="1,1" group="1" kernel="1,1" output="1" pads_begin="0,0" pads_end="0,0" strides="1,1"/>
			<input>
				<port id="0">
					<dim>1</dim>
					<dim>64</dim>
					<dim>28</dim>
					<dim>28</dim>
				</port>
			</input>
			<output>
				<port id="3">
					<dim>1</dim>
					<dim>1</dim>
					<dim>28</dim>
					<dim>28</dim>
				</port>
			</output>
			<blobs>
				<weights offset="11968" size="256"/>
				<biases offset="12224" size="4"/>
			</blobs>
		</layer>
		<layer id="68" name="unit0_0/branch_16/bn1/Relu" precision="FP32" type="ReLU">
			<input>
				<port id="0">
					<dim>1</dim>
					<dim>1</dim>
					<dim>28</dim>
					<dim>28</dim>
				</port>
			</input>
			<output>
				<port id="1">
					<dim>1</dim>
					<dim>1</dim>
					<dim>28</dim>
					<dim>28</dim>
				</port>
			</output>
		</layer>
		<layer id="69" name="unit0_0/branch_16/3x3conv/Conv2D" precision="FP32" type="Convolution">
			<data auto_pad="same_upper" dilations="1,1" group="1" kernel="3,3" output="1" pads_begin="1,1" pads_end="1,1" strides="1,1"/>
			<input>
				<port id="0">
					<dim>1</dim>
					<dim>1</dim>
					<dim>28</dim>
					<dim>28</dim>
				</port>
			</input>
			<output>
				<port id="3">
					<dim>1</dim>
					<dim>1</dim>
					<dim>28</dim>
					<dim>28</dim>
				</port>
			</output>
			<blobs>
				<weights offset="12228" size="36"/>
				<biases offset="12264" size="4"/>
			</blobs>
		</layer>
		<layer id="70" name="unit0_0/branch_16/bn2/Relu" precision="FP32" type="ReLU">
			<input>
				<port id="0">
					<dim>1</dim>
					<dim>1</dim>
					<dim>28</dim>
					<dim>28</dim>
				</port>
			</input>
			<output>
				<port id="1">
					<dim>1</dim>
					<dim>1</dim>
					<dim>28</dim>
					<dim>28</dim>
				</port>
			</output>
		</layer>
		<layer id="71" name="unit0_0/branch_17/1x1conv/Conv2D" precision="FP32" type="Convolution">
			<data auto_pad="same_upper" dilations="1,1" group="1" kernel="1,1" output="1" pads_begin="0,0" pads_end="0,0" strides="1,1"/>
			<input>
				<port id="0">
					<dim>1</dim>
					<dim>64</dim>
					<dim>28</dim>
					<dim>28</dim>
				</port>
			</input>
			<output>
				<port id="3">
					<dim>1</dim>
					<dim>1</dim>
					<dim>28</dim>
					<dim>28</dim>
				</port>
			</output>
			<blobs>
				<weights offset="12268" size="256"/>
				<biases offset="12524" size="4"/>
			</blobs>
		</layer>
		<layer id="72" name="unit0_0/branch_17/bn1/Relu" precision="FP32" type="ReLU">
			<input>
				<port id="0">
					<dim>1</dim>
					<dim>1</dim>
					<dim>28</dim>
					<dim>28</dim>
				</port>
			</input>
			<output>
				<port id="1">
					<dim>1</dim>
					<dim>1</dim>
					<dim>28</dim>
					<dim>28</dim>
				</port>
			</output>
		</layer>
		<layer id="73" name="unit0_0/branch_17/3x3conv/Conv2D" precision="FP32" type="Convolution">
			<data auto_pad="same_upper" dilations="1,1" group="1" kernel="3,3" output="1" pads_begin="1,1" pads_end="1,1" strides="1,1"/>
			<input>
				<port id="0">
					<dim>1</dim>
					<dim>1</dim>
					<dim>28</dim>
					<dim>28</dim>
				</port>
			</input>
			<output>
				<port id="3">
					<dim>1</dim>
					<dim>1</dim>
					<dim>28</dim>
					<dim>28</dim>
				</port>
			</output>
			<blobs>
				<weights offset="12528" size="36"/>
				<biases offset="12564" size="4"/>
			</blobs>
		</layer>
		<layer id="74" name="unit0_0/branch_17/bn2/Relu" precision="FP32" type="ReLU">
			<input>
				<port id="0">
					<dim>1</dim>
					<dim>1</dim>
					<dim>28</dim>
					<dim>28</dim>
				</port>
			</input>
			<output>
				<port id="1">
					<dim>1</dim>
					<dim>1</dim>
					<dim>28</dim>
					<dim>28</dim>
				</port>
			</output>
		</layer>
		<layer id="75" name="unit0_0/branch_18/1x1conv/Conv2D" precision="FP32" type="Convolution">
			<data auto_pad="same_upper" dilations="1,1" group="1" kernel="1,1" output="1" pads_begin="0,0" pads_end="0,0" strides="1,1"/>
			<input>
				<port id="0">
					<dim>1</dim>
					<dim>64</dim>
					<dim>28</dim>
					<dim>28</dim>
				</port>
			</input>
			<output>
				<port id="3">
					<dim>1</dim>
					<dim>1</dim>
					<dim>28</dim>
					<dim>28</dim>
				</port>
			</output>
			<blobs>
				<weights offset="12568" size="256"/>
				<biases offset="12824" size="4"/>
			</blobs>
		</layer>
		<layer id="76" name="unit0_0/branch_18/bn1/Relu" precision="FP32" type="ReLU">
			<input>
				<port id="0">
					<dim>1</dim>
					<dim>1</dim>
					<dim>28</dim>
					<dim>28</dim>
				</port>
			</input>
			<output>
				<port id="1">
					<dim>1</dim>
					<dim>1</dim>
					<dim>28</dim>
					<dim>28</dim>
				</port>
			</output>
		</layer>
		<layer id="77" name="unit0_0/branch_18/3x3conv/Conv2D" precision="FP32" type="Convolution">
			<data auto_pad="same_upper" dilations="1,1" group="1" kernel="3,3" output="1" pads_begin="1,1" pads_end="1,1" strides="1,1"/>
			<input>
				<port id="0">
					<dim>1</dim>
					<dim>1</dim>
					<dim>28</dim>
					<dim>28</dim>
				</port>
			</input>
			<output>
				<port id="3">
					<dim>1</dim>
					<dim>1</dim>
					<dim>28</dim>
					<dim>28</dim>
				</port>
			</output>
			<blobs>
				<weights offset="12828" size="36"/>
				<biases offset="12864" size="4"/>
			</blobs>
		</layer>
		<layer id="78" name="unit0_0/branch_18/bn2/Relu" precision="FP32" type="ReLU">
			<input>
				<port id="0">
					<dim>1</dim>
					<dim>1</dim>
					<dim>28</dim>
					<dim>28</dim>
				</port>
			</input>
			<output>
				<port id="1">
					<dim>1</dim>
					<dim>1</dim>
					<dim>28</dim>
					<dim>28</dim>
				</port>
			</output>
		</layer>
		<layer id="79" name="unit0_0/branch_19/1x1conv/Conv2D" precision="FP32" type="Convolution">
			<data auto_pad="same_upper" dilations="1,1" group="1" kernel="1,1" output="1" pads_begin="0,0" pads_end="0,0" strides="1,1"/>
			<input>
				<port id="0">
					<dim>1</dim>
					<dim>64</dim>
					<dim>28</dim>
					<dim>28</dim>
				</port>
			</input>
			<output>
				<port id="3">
					<dim>1</dim>
					<dim>1</dim>
					<dim>28</dim>
					<dim>28</dim>
				</port>
			</output>
			<blobs>
				<weights offset="12868" size="256"/>
				<biases offset="13124" size="4"/>
			</blobs>
		</layer>
		<layer id="80" name="unit0_0/branch_19/bn1/Relu" precision="FP32" type="ReLU">
			<input>
				<port id="0">
					<dim>1</dim>
					<dim>1</dim>
					<dim>28</dim>
					<dim>28</dim>
				</port>
			</input>
			<output>
				<port id="1">
					<dim>1</dim>
					<dim>1</dim>
					<dim>28</dim>
					<dim>28</dim>
				</port>
			</output>
		</layer>
		<layer id="81" name="unit0_0/branch_19/3x3conv/Conv2D" precision="FP32" type="Convolution">
			<data auto_pad="same_upper" dilations="1,1" group="1" kernel="3,3" output="1" pads_begin="1,1" pads_end="1,1" strides="1,1"/>
			<input>
				<port id="0">
					<dim>1</dim>
					<dim>1</dim>
					<dim>28</dim>
					<dim>28</dim>
				</port>
			</input>
			<output>
				<port id="3">
					<dim>1</dim>
					<dim>1</dim>
					<dim>28</dim>
					<dim>28</dim>
				</port>
			</output>
			<blobs>
				<weights offset="13128" size="36"/>
				<biases offset="13164" size="4"/>
			</blobs>
		</layer>
		<layer id="82" name="unit0_0/branch_19/bn2/Relu" precision="FP32" type="ReLU">
			<input>
				<port id="0">
					<dim>1</dim>
					<dim>1</dim>
					<dim>28</dim>
					<dim>28</dim>
				</port>
			</input>
			<output>
				<port id="1">
					<dim>1</dim>
					<dim>1</dim>
					<dim>28</dim>
					<dim>28</dim>
				</port>
			</output>
		</layer>
		<layer id="83" name="unit0_0/branch_20/1x1conv/Conv2D" precision="FP32" type="Convolution">
			<data auto_pad="same_upper" dilations="1,1" group="1" kernel="1,1" output="1" pads_begin="0,0" pads_end="0,0" strides="1,1"/>
			<input>
				<port id="0">
					<dim>1</dim>
					<dim>64</dim>
					<dim>28</dim>
					<dim>28</dim>
				</port>
			</input>
			<output>
				<port id="3">
					<dim>1</dim>
					<dim>1</dim>
					<dim>28</dim>
					<dim>28</dim>
				</port>
			</output>
			<blobs>
				<weights offset="13168" size="256"/>
				<biases offset="13424" size="4"/>
			</blobs>
		</layer>
		<layer id="84" name="unit0_0/branch_20/bn1/Relu" precision="FP32" type="ReLU">
			<input>
				<port id="0">
					<dim>1</dim>
					<dim>1</dim>
					<dim>28</dim>
					<dim>28</dim>
				</port>
			</input>
			<output>
				<port id="1">
					<dim>1</dim>
					<dim>1</dim>
					<dim>28</dim>
					<dim>28</dim>
				</port>
			</output>
		</layer>
		<layer id="85" name="unit0_0/branch_20/3x3conv/Conv2D" precision="FP32" type="Convolution">
			<data auto_pad="same_upper" dilations="1,1" group="1" kernel="3,3" output="1" pads_begin="1,1" pads_end="1,1" strides="1,1"/>
			<input>
				<port id="0">
					<dim>1</dim>
					<dim>1</dim>
					<dim>28</dim>
					<dim>28</dim>
				</port>
			</input>
			<output>
				<port id="3">
					<dim>1</dim>
					<dim>1</dim>
					<dim>28</dim>
					<dim>28</dim>
				</port>
			</output>
			<blobs>
				<weights offset="13428" size="36"/>
				<biases offset="13464" size="4"/>
			</blobs>
		</layer>
		<layer id="86" name="unit0_0/branch_20/bn2/Relu" precision="FP32" type="ReLU">
			<input>
				<port id="0">
					<dim>1</dim>
					<dim>1</dim>
					<dim>28</dim>
					<dim>28</dim>
				</port>
			</input>
			<output>
				<port id="1">
					<dim>1</dim>
					<dim>1</dim>
					<dim>28</dim>
					<dim>28</dim>
				</port>
			</output>
		</layer>
		<layer id="87" name="unit0_0/branch_21/1x1conv/Conv2D" precision="FP32" type="Convolution">
			<data auto_pad="same_upper" dilations="1,1" group="1" kernel="1,1" output="1" pads_begin="0,0" pads_end="0,0" strides="1,1"/>
			<input>
				<port id="0">
					<dim>1</dim>
					<dim>64</dim>
					<dim>28</dim>
					<dim>28</dim>
				</port>
			</input>
			<output>
				<port id="3">
					<dim>1</dim>
					<dim>1</dim>
					<dim>28</dim>
					<dim>28</dim>
				</port>
			</output>
			<blobs>
				<weights offset="13468" size="256"/>
				<biases offset="13724" size="4"/>
			</blobs>
		</layer>
		<layer id="88" name="unit0_0/branch_21/bn1/Relu" precision="FP32" type="ReLU">
			<input>
				<port id="0">
					<dim>1</dim>
					<dim>1</dim>
					<dim>28</dim>
					<dim>28</dim>
				</port>
			</input>
			<output>
				<port id="1">
					<dim>1</dim>
					<dim>1</dim>
					<dim>28</dim>
					<dim>28</dim>
				</port>
			</output>
		</layer>
		<layer id="89" name="unit0_0/branch_21/3x3conv/Conv2D" precision="FP32" type="Convolution">
			<data auto_pad="same_upper" dilations="1,1" group="1" kernel="3,3" output="1" pads_begin="1,1" pads_end="1,1" strides="1,1"/>
			<input>
				<port id="0">
					<dim>1</dim>
					<dim>1</dim>
					<dim>28</dim>
					<dim>28</dim>
				</port>
			</input>
			<output>
				<port id="3">
					<dim>1</dim>
					<dim>1</dim>
					<dim>28</dim>
					<dim>28</dim>
				</port>
			</output>
			<blobs>
				<weights offset="13728" size="36"/>
				<biases offset="13764" size="4"/>
			</blobs>
		</layer>
		<layer id="90" name="unit0_0/branch_21/bn2/Relu" precision="FP32" type="ReLU">
			<input>
				<port id="0">
					<dim>1</dim>
					<dim>1</dim>
					<dim>28</dim>
					<dim>28</dim>
				</port>
			</input>
			<output>
				<port id="1">
					<dim>1</dim>
					<dim>1</dim>
					<dim>28</dim>
					<dim>28</dim>
				</port>
			</output>
		</layer>
		<layer id="91" name="unit0_0/branch_22/1x1conv/Conv2D" precision="FP32" type="Convolution">
			<data auto_pad="same_upper" dilations="1,1" group="1" kernel="1,1" output="1" pads_begin="0,0" pads_end="0,0" strides="1,1"/>
			<input>
				<port id="0">
					<dim>1</dim>
					<dim>64</dim>
					<dim>28</dim>
					<dim>28</dim>
				</port>
			</input>
			<output>
				<port id="3">
					<dim>1</dim>
					<dim>1</dim>
					<dim>28</dim>
					<dim>28</dim>
				</port>
			</output>
			<blobs>
				<weights offset="13768" size="256"/>
				<biases offset="14024" size="4"/>
			</blobs>
		</layer>
		<layer id="92" name="unit0_0/branch_22/bn1/Relu" precision="FP32" type="ReLU">
			<input>
				<port id="0">
					<dim>1</dim>
					<dim>1</dim>
					<dim>28</dim>
					<dim>28</dim>
				</port>
			</input>
			<output>
				<port id="1">
					<dim>1</dim>
					<dim>1</dim>
					<dim>28</dim>
					<dim>28</dim>
				</port>
			</output>
		</layer>
		<layer id="93" name="unit0_0/branch_22/3x3conv/Conv2D" precision="FP32" type="Convolution">
			<data auto_pad="same_upper" dilations="1,1" group="1" kernel="3,3" output="1" pads_begin="1,1" pads_end="1,1" strides="1,1"/>
			<input>
				<port id="0">
					<dim>1</dim>
					<dim>1</dim>
					<dim>28</dim>
					<dim>28</dim>
				</port>
			</input>
			<output>
				<port id="3">
					<dim>1</dim>
					<dim>1</dim>
					<dim>28</dim>
					<dim>28</dim>
				</port>
			</output>
			<blobs>
				<weights offset="14028" size="36"/>
				<biases offset="14064" size="4"/>
			</blobs>
		</layer>
		<layer id="94" name="unit0_0/branch_22/bn2/Relu" precision="FP32" type="ReLU">
			<input>
				<port id="0">
					<dim>1</dim>
					<dim>1</dim>
					<dim>28</dim>
					<dim>28</dim>
				</port>
			</input>
			<output>
				<port id="1">
					<dim>1</dim>
					<dim>1</dim>
					<dim>28</dim>
					<dim>28</dim>
				</port>
			</output>
		</layer>
		<layer id="95" name="unit0_0/branch_23/1x1conv/Conv2D" precision="FP32" type="Convolution">
			<data auto_pad="same_upper" dilations="1,1" group="1" kernel="1,1" output="1" pads_begin="0,0" pads_end="0,0" strides="1,1"/>
			<input>
				<port id="0">
					<dim>1</dim>
					<dim>64</dim>
					<dim>28</dim>
					<dim>28</dim>
				</port>
			</input>
			<output>
				<port id="3">
					<dim>1</dim>
					<dim>1</dim>
					<dim>28</dim>
					<dim>28</dim>
				</port>
			</output>
			<blobs>
				<weights offset="14068" size="256"/>
				<biases offset="14324" size="4"/>
			</blobs>
		</layer>
		<layer id="96" name="unit0_0/branch_23/bn1/Relu" precision="FP32" type="ReLU">
			<input>
				<port id="0">
					<dim>1</dim>
					<dim>1</dim>
					<dim>28</dim>
					<dim>28</dim>
				</port>
			</input>
			<output>
				<port id="1">
					<dim>1</dim>
					<dim>1</dim>
					<dim>28</dim>
					<dim>28</dim>
				</port>
			</output>
		</layer>
		<layer id="97" name="unit0_0/branch_23/3x3conv/Conv2D" precision="FP32" type="Convolution">
			<data auto_pad="same_upper" dilations="1,1" group="1" kernel="3,3" output="1" pads_begin="1,1" pads_end="1,1" strides="1,1"/>
			<input>
				<port id="0">
					<dim>1</dim>
					<dim>1</dim>
					<dim>28</dim>
					<dim>28</dim>
				</port>
			</input>
			<output>
				<port id="3">
					<dim>1</dim>
					<dim>1</dim>
					<dim>28</dim>
					<dim>28</dim>
				</port>
			</output>
			<blobs>
				<weights offset="14328" size="36"/>
				<biases offset="14364" size="4"/>
			</blobs>
		</layer>
		<layer id="98" name="unit0_0/branch_23/bn2/Relu" precision="FP32" type="ReLU">
			<input>
				<port id="0">
					<dim>1</dim>
					<dim>1</dim>
					<dim>28</dim>
					<dim>28</dim>
				</port>
			</input>
			<output>
				<port id="1">
					<dim>1</dim>
					<dim>1</dim>
					<dim>28</dim>
					<dim>28</dim>
				</port>
			</output>
		</layer>
		<layer id="99" name="unit0_0/branch_24/1x1conv/Conv2D" precision="FP32" type="Convolution">
			<data auto_pad="same_upper" dilations="1,1" group="1" kernel="1,1" output="1" pads_begin="0,0" pads_end="0,0" strides="1,1"/>
			<input>
				<port id="0">
					<dim>1</dim>
					<dim>64</dim>
					<dim>28</dim>
					<dim>28</dim>
				</port>
			</input>
			<output>
				<port id="3">
					<dim>1</dim>
					<dim>1</dim>
					<dim>28</dim>
					<dim>28</dim>
				</port>
			</output>
			<blobs>
				<weights offset="14368" size="256"/>
				<biases offset="14624" size="4"/>
			</blobs>
		</layer>
		<layer id="100" name="unit0_0/branch_24/bn1/Relu" precision="FP32" type="ReLU">
			<input>
				<port id="0">
					<dim>1</dim>
					<dim>1</dim>
					<dim>28</dim>
					<dim>28</dim>
				</port>
			</input>
			<output>
				<port id="1">
					<dim>1</dim>
					<dim>1</dim>
					<dim>28</dim>
					<dim>28</dim>
				</port>
			</output>
		</layer>
		<layer id="101" name="unit0_0/branch_24/3x3conv/Conv2D" precision="FP32" type="Convolution">
			<data auto_pad="same_upper" dilations="1,1" group="1" kernel="3,3" output="1" pads_begin="1,1" pads_end="1,1" strides="1,1"/>
			<input>
				<port id="0">
					<dim>1</dim>
					<dim>1</dim>
					<dim>28</dim>
					<dim>28</dim>
				</port>
			</input>
			<output>
				<port id="3">
					<dim>1</dim>
					<dim>1</dim>
					<dim>28</dim>
					<dim>28</dim>
				</port>
			</output>
			<blobs>
				<weights offset="14628" size="36"/>
				<biases offset="14664" size="4"/>
			</blobs>
		</layer>
		<layer id="102" name="unit0_0/branch_24/bn2/Relu" precision="FP32" type="ReLU">
			<input>
				<port id="0">
					<dim>1</dim>
					<dim>1</dim>
					<dim>28</dim>
					<dim>28</dim>
				</port>
			</input>
			<output>
				<port id="1">
					<dim>1</dim>
					<dim>1</dim>
					<dim>28</dim>
					<dim>28</dim>
				</port>
			</output>
		</layer>
		<layer id="103" name="unit0_0/branch_25/1x1conv/Conv2D" precision="FP32" type="Convolution">
			<data auto_pad="same_upper" dilations="1,1" group="1" kernel="1,1" output="1" pads_begin="0,0" pads_end="0,0" strides="1,1"/>
			<input>
				<port id="0">
					<dim>1</dim>
					<dim>64</dim>
					<dim>28</dim>
					<dim>28</dim>
				</port>
			</input>
			<output>
				<port id="3">
					<dim>1</dim>
					<dim>1</dim>
					<dim>28</dim>
					<dim>28</dim>
				</port>
			</output>
			<blobs>
				<weights offset="14668" size="256"/>
				<biases offset="14924" size="4"/>
			</blobs>
		</layer>
		<layer id="104" name="unit0_0/branch_25/bn1/Relu" precision="FP32" type="ReLU">
			<input>
				<port id="0">
					<dim>1</dim>
					<dim>1</dim>
					<dim>28</dim>
					<dim>28</dim>
				</port>
			</input>
			<output>
				<port id="1">
					<dim>1</dim>
					<dim>1</dim>
					<dim>28</dim>
					<dim>28</dim>
				</port>
			</output>
		</layer>
		<layer id="105" name="unit0_0/branch_25/3x3conv/Conv2D" precision="FP32" type="Convolution">
			<data auto_pad="same_upper" dilations="1,1" group="1" kernel="3,3" output="1" pads_begin="1,1" pads_end="1,1" strides="1,1"/>
			<input>
				<port id="0">
					<dim>1</dim>
					<dim>1</dim>
					<dim>28</dim>
					<dim>28</dim>
				</port>
			</input>
			<output>
				<port id="3">
					<dim>1</dim>
					<dim>1</dim>
					<dim>28</dim>
					<dim>28</dim>
				</port>
			</output>
			<blobs>
				<weights offset="14928" size="36"/>
				<biases offset="14964" size="4"/>
			</blobs>
		</layer>
		<layer id="106" name="unit0_0/branch_25/bn2/Relu" precision="FP32" type="ReLU">
			<input>
				<port id="0">
					<dim>1</dim>
					<dim>1</dim>
					<dim>28</dim>
					<dim>28</dim>
				</port>
			</input>
			<output>
				<port id="1">
					<dim>1</dim>
					<dim>1</dim>
					<dim>28</dim>
					<dim>28</dim>
				</port>
			</output>
		</layer>
		<layer id="107" name="unit0_0/branch_26/1x1conv/Conv2D" precision="FP32" type="Convolution">
			<data auto_pad="same_upper" dilations="1,1" group="1" kernel="1,1" output="1" pads_begin="0,0" pads_end="0,0" strides="1,1"/>
			<input>
				<port id="0">
					<dim>1</dim>
					<dim>64</dim>
					<dim>28</dim>
					<dim>28</dim>
				</port>
			</input>
			<output>
				<port id="3">
					<dim>1</dim>
					<dim>1</dim>
					<dim>28</dim>
					<dim>28</dim>
				</port>
			</output>
			<blobs>
				<weights offset="14968" size="256"/>
				<biases offset="15224" size="4"/>
			</blobs>
		</layer>
		<layer id="108" name="unit0_0/branch_26/bn1/Relu" precision="FP32" type="ReLU">
			<input>
				<port id="0">
					<dim>1</dim>
					<dim>1</dim>
					<dim>28</dim>
					<dim>28</dim>
				</port>
			</input>
			<output>
				<port id="1">
					<dim>1</dim>
					<dim>1</dim>
					<dim>28</dim>
					<dim>28</dim>
				</port>
			</output>
		</layer>
		<layer id="109" name="unit0_0/branch_26/3x3conv/Conv2D" precision="FP32" type="Convolution">
			<data auto_pad="same_upper" dilations="1,1" group="1" kernel="3,3" output="1" pads_begin="1,1" pads_end="1,1" strides="1,1"/>
			<input>
				<port id="0">
					<dim>1</dim>
					<dim>1</dim>
					<dim>28</dim>
					<dim>28</dim>
				</port>
			</input>
			<output>
				<port id="3">
					<dim>1</dim>
					<dim>1</dim>
					<dim>28</dim>
					<dim>28</dim>
				</port>
			</output>
			<blobs>
				<weights offset="15228" size="36"/>
				<biases offset="15264" size="4"/>
			</blobs>
		</layer>
		<layer id="110" name="unit0_0/branch_26/bn2/Relu" precision="FP32" type="ReLU">
			<input>
				<port id="0">
					<dim>1</dim>
					<dim>1</dim>
					<dim>28</dim>
					<dim>28</dim>
				</port>
			</input>
			<output>
				<port id="1">
					<dim>1</dim>
					<dim>1</dim>
					<dim>28</dim>
					<dim>28</dim>
				</port>
			</output>
		</layer>
		<layer id="111" name="unit0_0/branch_27/1x1conv/Conv2D" precision="FP32" type="Convolution">
			<data auto_pad="same_upper" dilations="1,1" group="1" kernel="1,1" output="1" pads_begin="0,0" pads_end="0,0" strides="1,1"/>
			<input>
				<port id="0">
					<dim>1</dim>
					<dim>64</dim>
					<dim>28</dim>
					<dim>28</dim>
				</port>
			</input>
			<output>
				<port id="3">
					<dim>1</dim>
					<dim>1</dim>
					<dim>28</dim>
					<dim>28</dim>
				</port>
			</output>
			<blobs>
				<weights offset="15268" size="256"/>
				<biases offset="15524" size="4"/>
			</blobs>
		</layer>
		<layer id="112" name="unit0_0/branch_27/bn1/Relu" precision="FP32" type="ReLU">
			<input>
				<port id="0">
					<dim>1</dim>
					<dim>1</dim>
					<dim>28</dim>
					<dim>28</dim>
				</port>
			</input>
			<output>
				<port id="1">
					<dim>1</dim>
					<dim>1</dim>
					<dim>28</dim>
					<dim>28</dim>
				</port>
			</output>
		</layer>
		<layer id="113" name="unit0_0/branch_27/3x3conv/Conv2D" precision="FP32" type="Convolution">
			<data auto_pad="same_upper" dilations="1,1" group="1" kernel="3,3" output="1" pads_begin="1,1" pads_end="1,1" strides="1,1"/>
			<input>
				<port id="0">
					<dim>1</dim>
					<dim>1</dim>
					<dim>28</dim>
					<dim>28</dim>
				</port>
			</input>
			<output>
				<port id="3">
					<dim>1</dim>
					<dim>1</dim>
					<dim>28</dim>
					<dim>28</dim>
				</port>
			</output>
			<blobs>
				<weights offset="15528" size="36"/>
				<biases offset="15564" size="4"/>
			</blobs>
		</layer>
		<layer id="114" name="unit0_0/branch_27/bn2/Relu" precision="FP32" type="ReLU">
			<input>
				<port id="0">
					<dim>1</dim>
					<dim>1</dim>
					<dim>28</dim>
					<dim>28</dim>
				</port>
			</input>
			<output>
				<port id="1">
					<dim>1</dim>
					<dim>1</dim>
					<dim>28</dim>
					<dim>28</dim>
				</port>
			</output>
		</layer>
		<layer id="115" name="unit0_0/branch_28/1x1conv/Conv2D" precision="FP32" type="Convolution">
			<data auto_pad="same_upper" dilations="1,1" group="1" kernel="1,1" output="1" pads_begin="0,0" pads_end="0,0" strides="1,1"/>
			<input>
				<port id="0">
					<dim>1</dim>
					<dim>64</dim>
					<dim>28</dim>
					<dim>28</dim>
				</port>
			</input>
			<output>
				<port id="3">
					<dim>1</dim>
					<dim>1</dim>
					<dim>28</dim>
					<dim>28</dim>
				</port>
			</output>
			<blobs>
				<weights offset="15568" size="256"/>
				<biases offset="15824" size="4"/>
			</blobs>
		</layer>
		<layer id="116" name="unit0_0/branch_28/bn1/Relu" precision="FP32" type="ReLU">
			<input>
				<port id="0">
					<dim>1</dim>
					<dim>1</dim>
					<dim>28</dim>
					<dim>28</dim>
				</port>
			</input>
			<output>
				<port id="1">
					<dim>1</dim>
					<dim>1</dim>
					<dim>28</dim>
					<dim>28</dim>
				</port>
			</output>
		</layer>
		<layer id="117" name="unit0_0/branch_28/3x3conv/Conv2D" precision="FP32" type="Convolution">
			<data auto_pad="same_upper" dilations="1,1" group="1" kernel="3,3" output="1" pads_begin="1,1" pads_end="1,1" strides="1,1"/>
			<input>
				<port id="0">
					<dim>1</dim>
					<dim>1</dim>
					<dim>28</dim>
					<dim>28</dim>
				</port>
			</input>
			<output>
				<port id="3">
					<dim>1</dim>
					<dim>1</dim>
					<dim>28</dim>
					<dim>28</dim>
				</port>
			</output>
			<blobs>
				<weights offset="15828" size="36"/>
				<biases offset="15864" size="4"/>
			</blobs>
		</layer>
		<layer id="118" name="unit0_0/branch_28/bn2/Relu" precision="FP32" type="ReLU">
			<input>
				<port id="0">
					<dim>1</dim>
					<dim>1</dim>
					<dim>28</dim>
					<dim>28</dim>
				</port>
			</input>
			<output>
				<port id="1">
					<dim>1</dim>
					<dim>1</dim>
					<dim>28</dim>
					<dim>28</dim>
				</port>
			</output>
		</layer>
		<layer id="119" name="unit0_0/branch_29/1x1conv/Conv2D" precision="FP32" type="Convolution">
			<data auto_pad="same_upper" dilations="1,1" group="1" kernel="1,1" output="1" pads_begin="0,0" pads_end="0,0" strides="1,1"/>
			<input>
				<port id="0">
					<dim>1</dim>
					<dim>64</dim>
					<dim>28</dim>
					<dim>28</dim>
				</port>
			</input>
			<output>
				<port id="3">
					<dim>1</dim>
					<dim>1</dim>
					<dim>28</dim>
					<dim>28</dim>
				</port>
			</output>
			<blobs>
				<weights offset="15868" size="256"/>
				<biases offset="16124" size="4"/>
			</blobs>
		</layer>
		<layer id="120" name="unit0_0/branch_29/bn1/Relu" precision="FP32" type="ReLU">
			<input>
				<port id="0">
					<dim>1</dim>
					<dim>1</dim>
					<dim>28</dim>
					<dim>28</dim>
				</port>
			</input>
			<output>
				<port id="1">
					<dim>1</dim>
					<dim>1</dim>
					<dim>28</dim>
					<dim>28</dim>
				</port>
			</output>
		</layer>
		<layer id="121" name="unit0_0/branch_29/3x3conv/Conv2D" precision="FP32" type="Convolution">
			<data auto_pad="same_upper" dilations="1,1" group="1" kernel="3,3" output="1" pads_begin="1,1" pads_end="1,1" strides="1,1"/>
			<input>
				<port id="0">
					<dim>1</dim>
					<dim>1</dim>
					<dim>28</dim>
					<dim>28</dim>
				</port>
			</input>
			<output>
				<port id="3">
					<dim>1</dim>
					<dim>1</dim>
					<dim>28</dim>
					<dim>28</dim>
				</port>
			</output>
			<blobs>
				<weights offset="16128" size="36"/>
				<biases offset="16164" size="4"/>
			</blobs>
		</layer>
		<layer id="122" name="unit0_0/branch_29/bn2/Relu" precision="FP32" type="ReLU">
			<input>
				<port id="0">
					<dim>1</dim>
					<dim>1</dim>
					<dim>28</dim>
					<dim>28</dim>
				</port>
			</input>
			<output>
				<port id="1">
					<dim>1</dim>
					<dim>1</dim>
					<dim>28</dim>
					<dim>28</dim>
				</port>
			</output>
		</layer>
		<layer id="123" name="unit0_0/branch_30/1x1conv/Conv2D" precision="FP32" type="Convolution">
			<data auto_pad="same_upper" dilations="1,1" group="1" kernel="1,1" output="1" pads_begin="0,0" pads_end="0,0" strides="1,1"/>
			<input>
				<port id="0">
					<dim>1</dim>
					<dim>64</dim>
					<dim>28</dim>
					<dim>28</dim>
				</port>
			</input>
			<output>
				<port id="3">
					<dim>1</dim>
					<dim>1</dim>
					<dim>28</dim>
					<dim>28</dim>
				</port>
			</output>
			<blobs>
				<weights offset="16168" size="256"/>
				<biases offset="16424" size="4"/>
			</blobs>
		</layer>
		<layer id="124" name="unit0_0/branch_30/bn1/Relu" precision="FP32" type="ReLU">
			<input>
				<port id="0">
					<dim>1</dim>
					<dim>1</dim>
					<dim>28</dim>
					<dim>28</dim>
				</port>
			</input>
			<output>
				<port id="1">
					<dim>1</dim>
					<dim>1</dim>
					<dim>28</dim>
					<dim>28</dim>
				</port>
			</output>
		</layer>
		<layer id="125" name="unit0_0/branch_30/3x3conv/Conv2D" precision="FP32" type="Convolution">
			<data auto_pad="same_upper" dilations="1,1" group="1" kernel="3,3" output="1" pads_begin="1,1" pads_end="1,1" strides="1,1"/>
			<input>
				<port id="0">
					<dim>1</dim>
					<dim>1</dim>
					<dim>28</dim>
					<dim>28</dim>
				</port>
			</input>
			<output>
				<port id="3">
					<dim>1</dim>
					<dim>1</dim>
					<dim>28</dim>
					<dim>28</dim>
				</port>
			</output>
			<blobs>
				<weights offset="16428" size="36"/>
				<biases offset="16464" size="4"/>
			</blobs>
		</layer>
		<layer id="126" name="unit0_0/branch_30/bn2/Relu" precision="FP32" type="ReLU">
			<input>
				<port id="0">
					<dim>1</dim>
					<dim>1</dim>
					<dim>28</dim>
					<dim>28</dim>
				</port>
			</input>
			<output>
				<port id="1">
					<dim>1</dim>
					<dim>1</dim>
					<dim>28</dim>
					<dim>28</dim>
				</port>
			</output>
		</layer>
		<layer id="127" name="unit0_0/branch_31/1x1conv/Conv2D" precision="FP32" type="Convolution">
			<data auto_pad="same_upper" dilations="1,1" group="1" kernel="1,1" output="1" pads_begin="0,0" pads_end="0,0" strides="1,1"/>
			<input>
				<port id="0">
					<dim>1</dim>
					<dim>64</dim>
					<dim>28</dim>
					<dim>28</dim>
				</port>
			</input>
			<output>
				<port id="3">
					<dim>1</dim>
					<dim>1</dim>
					<dim>28</dim>
					<dim>28</dim>
				</port>
			</output>
			<blobs>
				<weights offset="16468" size="256"/>
				<biases offset="16724" size="4"/>
			</blobs>
		</layer>
		<layer id="128" name="unit0_0/branch_31/bn1/Relu" precision="FP32" type="ReLU">
			<input>
				<port id="0">
					<dim>1</dim>
					<dim>1</dim>
					<dim>28</dim>
					<dim>28</dim>
				</port>
			</input>
			<output>
				<port id="1">
					<dim>1</dim>
					<dim>1</dim>
					<dim>28</dim>
					<dim>28</dim>
				</port>
			</output>
		</layer>
		<layer id="129" name="unit0_0/branch_31/3x3conv/Conv2D" precision="FP32" type="Convolution">
			<data auto_pad="same_upper" dilations="1,1" group="1" kernel="3,3" output="1" pads_begin="1,1" pads_end="1,1" strides="1,1"/>
			<input>
				<port id="0">
					<dim>1</dim>
					<dim>1</dim>
					<dim>28</dim>
					<dim>28</dim>
				</port>
			</input>
			<output>
				<port id="3">
					<dim>1</dim>
					<dim>1</dim>
					<dim>28</dim>
					<dim>28</dim>
				</port>
			</output>
			<blobs>
				<weights offset="16728" size="36"/>
				<biases offset="16764" size="4"/>
			</blobs>
		</layer>
		<layer id="130" name="unit0_0/branch_31/bn2/Relu" precision="FP32" type="ReLU">
			<input>
				<port id="0">
					<dim>1</dim>
					<dim>1</dim>
					<dim>28</dim>
					<dim>28</dim>
				</port>
			</input>
			<output>
				<port id="1">
					<dim>1</dim>
					<dim>1</dim>
					<dim>28</dim>
					<dim>28</dim>
				</port>
			</output>
		</layer>
		<layer id="131" name="unit0_0/concat" precision="FP32" type="Concat">
			<data axis="1"/>
			<input>
				<port id="0">
					<dim>1</dim>
					<dim>1</dim>
					<dim>28</dim>
					<dim>28</dim>
				</port>
				<port id="1">
					<dim>1</dim>
					<dim>1</dim>
					<dim>28</dim>
					<dim>28</dim>
				</port>
				<port id="2">
					<dim>1</dim>
					<dim>1</dim>
					<dim>28</dim>
					<dim>28</dim>
				</port>
				<port id="3">
					<dim>1</dim>
					<dim>1</dim>
					<dim>28</dim>
					<dim>28</dim>
				</port>
				<port id="4">
					<dim>1</dim>
					<dim>1</dim>
					<dim>28</dim>
					<dim>28</dim>
				</port>
				<port id="5">
					<dim>1</dim>
					<dim>1</dim>
					<dim>28</dim>
					<dim>28</dim>
				</port>
				<port id="6">
					<dim>1</dim>
					<dim>1</dim>
					<dim>28</dim>
					<dim>28</dim>
				</port>
				<port id="7">
					<dim>1</dim>
					<dim>1</dim>
					<dim>28</dim>
					<dim>28</dim>
				</port>
				<port id="8">
					<dim>1</dim>
					<dim>1</dim>
					<dim>28</dim>
					<dim>28</dim>
				</port>
				<port id="9">
					<dim>1</dim>
					<dim>1</dim>
					<dim>28</dim>
					<dim>28</dim>
				</port>
				<port id="10">
					<dim>1</dim>
					<dim>1</dim>
					<dim>28</dim>
					<dim>28</dim>
				</port>
				<port id="11">
					<dim>1</dim>
					<dim>1</dim>
					<dim>28</dim>
					<dim>28</dim>
				</port>
				<port id="12">
					<dim>1</dim>
					<dim>1</dim>
					<dim>28</dim>
					<dim>28</dim>
				</port>
				<port id="13">
					<dim>1</dim>
					<dim>1</dim>
					<dim>28</dim>
					<dim>28</dim>
				</port>
				<port id="14">
					<dim>1</dim>
					<dim>1</dim>
					<dim>28</dim>
					<dim>28</dim>
				</port>
				<port id="15">
					<dim>1</dim>
					<dim>1</dim>
					<dim>28</dim>
					<dim>28</dim>
				</port>
				<port id="16">
					<dim>1</dim>
					<dim>1</dim>
					<dim>28</dim>
					<dim>28</dim>
				</port>
				<port id="17">
					<dim>1</dim>
					<dim>1</dim>
					<dim>28</dim>
					<dim>28</dim>
				</port>
				<port id="18">
					<dim>1</dim>
					<dim>1</dim>
					<dim>28</dim>
					<dim>28</dim>
				</port>
				<port id="19">
					<dim>1</dim>
					<dim>1</dim>
					<dim>28</dim>
					<dim>28</dim>
				</port>
				<port id="20">
					<dim>1</dim>
					<dim>1</dim>
					<dim>28</dim>
					<dim>28</dim>
				</port>
				<port id="21">
					<dim>1</dim>
					<dim>1</dim>
					<dim>28</dim>
					<dim>28</dim>
				</port>
				<port id="22">
					<dim>1</dim>
					<dim>1</dim>
					<dim>28</dim>
					<dim>28</dim>
				</port>
				<port id="23">
					<dim>1</dim>
					<dim>1</dim>
					<dim>28</dim>
					<dim>28</dim>
				</port>
				<port id="24">
					<dim>1</dim>
					<dim>1</dim>
					<dim>28</dim>
					<dim>28</dim>
				</port>
				<port id="25">
					<dim>1</dim>
					<dim>1</dim>
					<dim>28</dim>
					<dim>28</dim>
				</port>
				<port id="26">
					<dim>1</dim>
					<dim>1</dim>
					<dim>28</dim>
					<dim>28</dim>
				</port>
				<port id="27">
					<dim>1</dim>
					<dim>1</dim>
					<dim>28</dim>
					<dim>28</dim>
				</port>
				<port id="28">
					<dim>1</dim>
					<dim>1</dim>
					<dim>28</dim>
					<dim>28</dim>
				</port>
				<port id="29">
					<dim>1</dim>
					<dim>1</dim>
					<dim>28</dim>
					<dim>28</dim>
				</port>
				<port id="30">
					<dim>1</dim>
					<dim>1</dim>
					<dim>28</dim>
					<dim>28</dim>
				</port>
				<port id="31">
					<dim>1</dim>
					<dim>1</dim>
					<dim>28</dim>
					<dim>28</dim>
				</port>
			</input>
			<output>
				<port id="32">
					<dim>1</dim>
					<dim>32</dim>
					<dim>28</dim>
					<dim>28</dim>
				</port>
			</output>
		</layer>
		<layer id="132" name="unit0_0/Conv/Conv2D" precision="FP32" type="Convolution">
			<data auto_pad="same_upper" dilations="1,1" group="1" kernel="1,1" output="64" pads_begin="0,0" pads_end="0,0" strides="1,1"/>
			<input>
				<port id="0">
					<dim>1</dim>
					<dim>32</dim>
					<dim>28</dim>
					<dim>28</dim>
				</port>
			</input>
			<output>
				<port id="3">
					<dim>1</dim>
					<dim>64</dim>
					<dim>28</dim>
					<dim>28</dim>
				</port>
			</output>
			<blobs>
				<weights offset="16768" size="8192"/>
				<biases offset="24960" size="256"/>
			</blobs>
		</layer>
		<layer id="133" name="unit0_0/add" precision="FP32" type="Eltwise">
			<data operation="sum"/>
			<input>
				<port id="0">
					<dim>1</dim>
					<dim>64</dim>
					<dim>28</dim>
					<dim>28</dim>
				</port>
				<port id="1">
					<dim>1</dim>
					<dim>64</dim>
					<dim>28</dim>
					<dim>28</dim>
				</port>
			</input>
			<output>
				<port id="2">
					<dim>1</dim>
					<dim>64</dim>
					<dim>28</dim>
					<dim>28</dim>
				</port>
			</output>
		</layer>
		<layer id="134" name="unit0_0/Relu" precision="FP32" type="ReLU">
			<input>
				<port id="0">
					<dim>1</dim>
					<dim>64</dim>
					<dim>28</dim>
					<dim>28</dim>
				</port>
			</input>
			<output>
				<port id="1">
					<dim>1</dim>
					<dim>64</dim>
					<dim>28</dim>
					<dim>28</dim>
				</port>
			</output>
		</layer>
		<layer id="135" name="unit0_1/branch_0/1x1conv/Conv2D" precision="FP32" type="Convolution">
			<data auto_pad="same_upper" dilations="1,1" group="1" kernel="1,1" output="1" pads_begin="0,0" pads_end="0,0" strides="1,1"/>
			<input>
				<port id="0">
					<dim>1</dim>
					<dim>64</dim>
					<dim>28</dim>
					<dim>28</dim>
				</port>
			</input>
			<output>
				<port id="3">
					<dim>1</dim>
					<dim>1</dim>
					<dim>28</dim>
					<dim>28</dim>
				</port>
			</output>
			<blobs>
				<weights offset="25216" size="256"/>
				<biases offset="25472" size="4"/>
			</blobs>
		</layer>
		<layer id="136" name="unit0_1/branch_0/bn1/Relu" precision="FP32" type="ReLU">
			<input>
				<port id="0">
					<dim>1</dim>
					<dim>1</dim>
					<dim>28</dim>
					<dim>28</dim>
				</port>
			</input>
			<output>
				<port id="1">
					<dim>1</dim>
					<dim>1</dim>
					<dim>28</dim>
					<dim>28</dim>
				</port>
			</output>
		</layer>
		<layer id="137" name="unit0_1/branch_0/3x3conv/Conv2D" precision="FP32" type="Convolution">
			<data auto_pad="same_upper" dilations="1,1" group="1" kernel="3,3" output="1" pads_begin="1,1" pads_end="1,1" strides="1,1"/>
			<input>
				<port id="0">
					<dim>1</dim>
					<dim>1</dim>
					<dim>28</dim>
					<dim>28</dim>
				</port>
			</input>
			<output>
				<port id="3">
					<dim>1</dim>
					<dim>1</dim>
					<dim>28</dim>
					<dim>28</dim>
				</port>
			</output>
			<blobs>
				<weights offset="25476" size="36"/>
				<biases offset="25512" size="4"/>
			</blobs>
		</layer>
		<layer id="138" name="unit0_1/branch_0/bn2/Relu" precision="FP32" type="ReLU">
			<input>
				<port id="0">
					<dim>1</dim>
					<dim>1</dim>
					<dim>28</dim>
					<dim>28</dim>
				</port>
			</input>
			<output>
				<port id="1">
					<dim>1</dim>
					<dim>1</dim>
					<dim>28</dim>
					<dim>28</dim>
				</port>
			</output>
		</layer>
		<layer id="139" name="unit0_1/branch_1/1x1conv/Conv2D" precision="FP32" type="Convolution">
			<data auto_pad="same_upper" dilations="1,1" group="1" kernel="1,1" output="1" pads_begin="0,0" pads_end="0,0" strides="1,1"/>
			<input>
				<port id="0">
					<dim>1</dim>
					<dim>64</dim>
					<dim>28</dim>
					<dim>28</dim>
				</port>
			</input>
			<output>
				<port id="3">
					<dim>1</dim>
					<dim>1</dim>
					<dim>28</dim>
					<dim>28</dim>
				</port>
			</output>
			<blobs>
				<weights offset="25516" size="256"/>
				<biases offset="25772" size="4"/>
			</blobs>
		</layer>
		<layer id="140" name="unit0_1/branch_1/bn1/Relu" precision="FP32" type="ReLU">
			<input>
				<port id="0">
					<dim>1</dim>
					<dim>1</dim>
					<dim>28</dim>
					<dim>28</dim>
				</port>
			</input>
			<output>
				<port id="1">
					<dim>1</dim>
					<dim>1</dim>
					<dim>28</dim>
					<dim>28</dim>
				</port>
			</output>
		</layer>
		<layer id="141" name="unit0_1/branch_1/3x3conv/Conv2D" precision="FP32" type="Convolution">
			<data auto_pad="same_upper" dilations="1,1" group="1" kernel="3,3" output="1" pads_begin="1,1" pads_end="1,1" strides="1,1"/>
			<input>
				<port id="0">
					<dim>1</dim>
					<dim>1</dim>
					<dim>28</dim>
					<dim>28</dim>
				</port>
			</input>
			<output>
				<port id="3">
					<dim>1</dim>
					<dim>1</dim>
					<dim>28</dim>
					<dim>28</dim>
				</port>
			</output>
			<blobs>
				<weights offset="25776" size="36"/>
				<biases offset="25812" size="4"/>
			</blobs>
		</layer>
		<layer id="142" name="unit0_1/branch_1/bn2/Relu" precision="FP32" type="ReLU">
			<input>
				<port id="0">
					<dim>1</dim>
					<dim>1</dim>
					<dim>28</dim>
					<dim>28</dim>
				</port>
			</input>
			<output>
				<port id="1">
					<dim>1</dim>
					<dim>1</dim>
					<dim>28</dim>
					<dim>28</dim>
				</port>
			</output>
		</layer>
		<layer id="143" name="unit0_1/branch_2/1x1conv/Conv2D" precision="FP32" type="Convolution">
			<data auto_pad="same_upper" dilations="1,1" group="1" kernel="1,1" output="1" pads_begin="0,0" pads_end="0,0" strides="1,1"/>
			<input>
				<port id="0">
					<dim>1</dim>
					<dim>64</dim>
					<dim>28</dim>
					<dim>28</dim>
				</port>
			</input>
			<output>
				<port id="3">
					<dim>1</dim>
					<dim>1</dim>
					<dim>28</dim>
					<dim>28</dim>
				</port>
			</output>
			<blobs>
				<weights offset="25816" size="256"/>
				<biases offset="26072" size="4"/>
			</blobs>
		</layer>
		<layer id="144" name="unit0_1/branch_2/bn1/Relu" precision="FP32" type="ReLU">
			<input>
				<port id="0">
					<dim>1</dim>
					<dim>1</dim>
					<dim>28</dim>
					<dim>28</dim>
				</port>
			</input>
			<output>
				<port id="1">
					<dim>1</dim>
					<dim>1</dim>
					<dim>28</dim>
					<dim>28</dim>
				</port>
			</output>
		</layer>
		<layer id="145" name="unit0_1/branch_2/3x3conv/Conv2D" precision="FP32" type="Convolution">
			<data auto_pad="same_upper" dilations="1,1" group="1" kernel="3,3" output="1" pads_begin="1,1" pads_end="1,1" strides="1,1"/>
			<input>
				<port id="0">
					<dim>1</dim>
					<dim>1</dim>
					<dim>28</dim>
					<dim>28</dim>
				</port>
			</input>
			<output>
				<port id="3">
					<dim>1</dim>
					<dim>1</dim>
					<dim>28</dim>
					<dim>28</dim>
				</port>
			</output>
			<blobs>
				<weights offset="26076" size="36"/>
				<biases offset="26112" size="4"/>
			</blobs>
		</layer>
		<layer id="146" name="unit0_1/branch_2/bn2/Relu" precision="FP32" type="ReLU">
			<input>
				<port id="0">
					<dim>1</dim>
					<dim>1</dim>
					<dim>28</dim>
					<dim>28</dim>
				</port>
			</input>
			<output>
				<port id="1">
					<dim>1</dim>
					<dim>1</dim>
					<dim>28</dim>
					<dim>28</dim>
				</port>
			</output>
		</layer>
		<layer id="147" name="unit0_1/branch_3/1x1conv/Conv2D" precision="FP32" type="Convolution">
			<data auto_pad="same_upper" dilations="1,1" group="1" kernel="1,1" output="1" pads_begin="0,0" pads_end="0,0" strides="1,1"/>
			<input>
				<port id="0">
					<dim>1</dim>
					<dim>64</dim>
					<dim>28</dim>
					<dim>28</dim>
				</port>
			</input>
			<output>
				<port id="3">
					<dim>1</dim>
					<dim>1</dim>
					<dim>28</dim>
					<dim>28</dim>
				</port>
			</output>
			<blobs>
				<weights offset="26116" size="256"/>
				<biases offset="26372" size="4"/>
			</blobs>
		</layer>
		<layer id="148" name="unit0_1/branch_3/bn1/Relu" precision="FP32" type="ReLU">
			<input>
				<port id="0">
					<dim>1</dim>
					<dim>1</dim>
					<dim>28</dim>
					<dim>28</dim>
				</port>
			</input>
			<output>
				<port id="1">
					<dim>1</dim>
					<dim>1</dim>
					<dim>28</dim>
					<dim>28</dim>
				</port>
			</output>
		</layer>
		<layer id="149" name="unit0_1/branch_3/3x3conv/Conv2D" precision="FP32" type="Convolution">
			<data auto_pad="same_upper" dilations="1,1" group="1" kernel="3,3" output="1" pads_begin="1,1" pads_end="1,1" strides="1,1"/>
			<input>
				<port id="0">
					<dim>1</dim>
					<dim>1</dim>
					<dim>28</dim>
					<dim>28</dim>
				</port>
			</input>
			<output>
				<port id="3">
					<dim>1</dim>
					<dim>1</dim>
					<dim>28</dim>
					<dim>28</dim>
				</port>
			</output>
			<blobs>
				<weights offset="26376" size="36"/>
				<biases offset="26412" size="4"/>
			</blobs>
		</layer>
		<layer id="150" name="unit0_1/branch_3/bn2/Relu" precision="FP32" type="ReLU">
			<input>
				<port id="0">
					<dim>1</dim>
					<dim>1</dim>
					<dim>28</dim>
					<dim>28</dim>
				</port>
			</input>
			<output>
				<port id="1">
					<dim>1</dim>
					<dim>1</dim>
					<dim>28</dim>
					<dim>28</dim>
				</port>
			</output>
		</layer>
		<layer id="151" name="unit0_1/branch_4/1x1conv/Conv2D" precision="FP32" type="Convolution">
			<data auto_pad="same_upper" dilations="1,1" group="1" kernel="1,1" output="1" pads_begin="0,0" pads_end="0,0" strides="1,1"/>
			<input>
				<port id="0">
					<dim>1</dim>
					<dim>64</dim>
					<dim>28</dim>
					<dim>28</dim>
				</port>
			</input>
			<output>
				<port id="3">
					<dim>1</dim>
					<dim>1</dim>
					<dim>28</dim>
					<dim>28</dim>
				</port>
			</output>
			<blobs>
				<weights offset="26416" size="256"/>
				<biases offset="26672" size="4"/>
			</blobs>
		</layer>
		<layer id="152" name="unit0_1/branch_4/bn1/Relu" precision="FP32" type="ReLU">
			<input>
				<port id="0">
					<dim>1</dim>
					<dim>1</dim>
					<dim>28</dim>
					<dim>28</dim>
				</port>
			</input>
			<output>
				<port id="1">
					<dim>1</dim>
					<dim>1</dim>
					<dim>28</dim>
					<dim>28</dim>
				</port>
			</output>
		</layer>
		<layer id="153" name="unit0_1/branch_4/3x3conv/Conv2D" precision="FP32" type="Convolution">
			<data auto_pad="same_upper" dilations="1,1" group="1" kernel="3,3" output="1" pads_begin="1,1" pads_end="1,1" strides="1,1"/>
			<input>
				<port id="0">
					<dim>1</dim>
					<dim>1</dim>
					<dim>28</dim>
					<dim>28</dim>
				</port>
			</input>
			<output>
				<port id="3">
					<dim>1</dim>
					<dim>1</dim>
					<dim>28</dim>
					<dim>28</dim>
				</port>
			</output>
			<blobs>
				<weights offset="26676" size="36"/>
				<biases offset="26712" size="4"/>
			</blobs>
		</layer>
		<layer id="154" name="unit0_1/branch_4/bn2/Relu" precision="FP32" type="ReLU">
			<input>
				<port id="0">
					<dim>1</dim>
					<dim>1</dim>
					<dim>28</dim>
					<dim>28</dim>
				</port>
			</input>
			<output>
				<port id="1">
					<dim>1</dim>
					<dim>1</dim>
					<dim>28</dim>
					<dim>28</dim>
				</port>
			</output>
		</layer>
		<layer id="155" name="unit0_1/branch_5/1x1conv/Conv2D" precision="FP32" type="Convolution">
			<data auto_pad="same_upper" dilations="1,1" group="1" kernel="1,1" output="1" pads_begin="0,0" pads_end="0,0" strides="1,1"/>
			<input>
				<port id="0">
					<dim>1</dim>
					<dim>64</dim>
					<dim>28</dim>
					<dim>28</dim>
				</port>
			</input>
			<output>
				<port id="3">
					<dim>1</dim>
					<dim>1</dim>
					<dim>28</dim>
					<dim>28</dim>
				</port>
			</output>
			<blobs>
				<weights offset="26716" size="256"/>
				<biases offset="26972" size="4"/>
			</blobs>
		</layer>
		<layer id="156" name="unit0_1/branch_5/bn1/Relu" precision="FP32" type="ReLU">
			<input>
				<port id="0">
					<dim>1</dim>
					<dim>1</dim>
					<dim>28</dim>
					<dim>28</dim>
				</port>
			</input>
			<output>
				<port id="1">
					<dim>1</dim>
					<dim>1</dim>
					<dim>28</dim>
					<dim>28</dim>
				</port>
			</output>
		</layer>
		<layer id="157" name="unit0_1/branch_5/3x3conv/Conv2D" precision="FP32" type="Convolution">
			<data auto_pad="same_upper" dilations="1,1" group="1" kernel="3,3" output="1" pads_begin="1,1" pads_end="1,1" strides="1,1"/>
			<input>
				<port id="0">
					<dim>1</dim>
					<dim>1</dim>
					<dim>28</dim>
					<dim>28</dim>
				</port>
			</input>
			<output>
				<port id="3">
					<dim>1</dim>
					<dim>1</dim>
					<dim>28</dim>
					<dim>28</dim>
				</port>
			</output>
			<blobs>
				<weights offset="26976" size="36"/>
				<biases offset="27012" size="4"/>
			</blobs>
		</layer>
		<layer id="158" name="unit0_1/branch_5/bn2/Relu" precision="FP32" type="ReLU">
			<input>
				<port id="0">
					<dim>1</dim>
					<dim>1</dim>
					<dim>28</dim>
					<dim>28</dim>
				</port>
			</input>
			<output>
				<port id="1">
					<dim>1</dim>
					<dim>1</dim>
					<dim>28</dim>
					<dim>28</dim>
				</port>
			</output>
		</layer>
		<layer id="159" name="unit0_1/branch_6/1x1conv/Conv2D" precision="FP32" type="Convolution">
			<data auto_pad="same_upper" dilations="1,1" group="1" kernel="1,1" output="1" pads_begin="0,0" pads_end="0,0" strides="1,1"/>
			<input>
				<port id="0">
					<dim>1</dim>
					<dim>64</dim>
					<dim>28</dim>
					<dim>28</dim>
				</port>
			</input>
			<output>
				<port id="3">
					<dim>1</dim>
					<dim>1</dim>
					<dim>28</dim>
					<dim>28</dim>
				</port>
			</output>
			<blobs>
				<weights offset="27016" size="256"/>
				<biases offset="27272" size="4"/>
			</blobs>
		</layer>
		<layer id="160" name="unit0_1/branch_6/bn1/Relu" precision="FP32" type="ReLU">
			<input>
				<port id="0">
					<dim>1</dim>
					<dim>1</dim>
					<dim>28</dim>
					<dim>28</dim>
				</port>
			</input>
			<output>
				<port id="1">
					<dim>1</dim>
					<dim>1</dim>
					<dim>28</dim>
					<dim>28</dim>
				</port>
			</output>
		</layer>
		<layer id="161" name="unit0_1/branch_6/3x3conv/Conv2D" precision="FP32" type="Convolution">
			<data auto_pad="same_upper" dilations="1,1" group="1" kernel="3,3" output="1" pads_begin="1,1" pads_end="1,1" strides="1,1"/>
			<input>
				<port id="0">
					<dim>1</dim>
					<dim>1</dim>
					<dim>28</dim>
					<dim>28</dim>
				</port>
			</input>
			<output>
				<port id="3">
					<dim>1</dim>
					<dim>1</dim>
					<dim>28</dim>
					<dim>28</dim>
				</port>
			</output>
			<blobs>
				<weights offset="27276" size="36"/>
				<biases offset="27312" size="4"/>
			</blobs>
		</layer>
		<layer id="162" name="unit0_1/branch_6/bn2/Relu" precision="FP32" type="ReLU">
			<input>
				<port id="0">
					<dim>1</dim>
					<dim>1</dim>
					<dim>28</dim>
					<dim>28</dim>
				</port>
			</input>
			<output>
				<port id="1">
					<dim>1</dim>
					<dim>1</dim>
					<dim>28</dim>
					<dim>28</dim>
				</port>
			</output>
		</layer>
		<layer id="163" name="unit0_1/branch_7/1x1conv/Conv2D" precision="FP32" type="Convolution">
			<data auto_pad="same_upper" dilations="1,1" group="1" kernel="1,1" output="1" pads_begin="0,0" pads_end="0,0" strides="1,1"/>
			<input>
				<port id="0">
					<dim>1</dim>
					<dim>64</dim>
					<dim>28</dim>
					<dim>28</dim>
				</port>
			</input>
			<output>
				<port id="3">
					<dim>1</dim>
					<dim>1</dim>
					<dim>28</dim>
					<dim>28</dim>
				</port>
			</output>
			<blobs>
				<weights offset="27316" size="256"/>
				<biases offset="27572" size="4"/>
			</blobs>
		</layer>
		<layer id="164" name="unit0_1/branch_7/bn1/Relu" precision="FP32" type="ReLU">
			<input>
				<port id="0">
					<dim>1</dim>
					<dim>1</dim>
					<dim>28</dim>
					<dim>28</dim>
				</port>
			</input>
			<output>
				<port id="1">
					<dim>1</dim>
					<dim>1</dim>
					<dim>28</dim>
					<dim>28</dim>
				</port>
			</output>
		</layer>
		<layer id="165" name="unit0_1/branch_7/3x3conv/Conv2D" precision="FP32" type="Convolution">
			<data auto_pad="same_upper" dilations="1,1" group="1" kernel="3,3" output="1" pads_begin="1,1" pads_end="1,1" strides="1,1"/>
			<input>
				<port id="0">
					<dim>1</dim>
					<dim>1</dim>
					<dim>28</dim>
					<dim>28</dim>
				</port>
			</input>
			<output>
				<port id="3">
					<dim>1</dim>
					<dim>1</dim>
					<dim>28</dim>
					<dim>28</dim>
				</port>
			</output>
			<blobs>
				<weights offset="27576" size="36"/>
				<biases offset="27612" size="4"/>
			</blobs>
		</layer>
		<layer id="166" name="unit0_1/branch_7/bn2/Relu" precision="FP32" type="ReLU">
			<input>
				<port id="0">
					<dim>1</dim>
					<dim>1</dim>
					<dim>28</dim>
					<dim>28</dim>
				</port>
			</input>
			<output>
				<port id="1">
					<dim>1</dim>
					<dim>1</dim>
					<dim>28</dim>
					<dim>28</dim>
				</port>
			</output>
		</layer>
		<layer id="167" name="unit0_1/branch_8/1x1conv/Conv2D" precision="FP32" type="Convolution">
			<data auto_pad="same_upper" dilations="1,1" group="1" kernel="1,1" output="1" pads_begin="0,0" pads_end="0,0" strides="1,1"/>
			<input>
				<port id="0">
					<dim>1</dim>
					<dim>64</dim>
					<dim>28</dim>
					<dim>28</dim>
				</port>
			</input>
			<output>
				<port id="3">
					<dim>1</dim>
					<dim>1</dim>
					<dim>28</dim>
					<dim>28</dim>
				</port>
			</output>
			<blobs>
				<weights offset="27616" size="256"/>
				<biases offset="27872" size="4"/>
			</blobs>
		</layer>
		<layer id="168" name="unit0_1/branch_8/bn1/Relu" precision="FP32" type="ReLU">
			<input>
				<port id="0">
					<dim>1</dim>
					<dim>1</dim>
					<dim>28</dim>
					<dim>28</dim>
				</port>
			</input>
			<output>
				<port id="1">
					<dim>1</dim>
					<dim>1</dim>
					<dim>28</dim>
					<dim>28</dim>
				</port>
			</output>
		</layer>
		<layer id="169" name="unit0_1/branch_8/3x3conv/Conv2D" precision="FP32" type="Convolution">
			<data auto_pad="same_upper" dilations="1,1" group="1" kernel="3,3" output="1" pads_begin="1,1" pads_end="1,1" strides="1,1"/>
			<input>
				<port id="0">
					<dim>1</dim>
					<dim>1</dim>
					<dim>28</dim>
					<dim>28</dim>
				</port>
			</input>
			<output>
				<port id="3">
					<dim>1</dim>
					<dim>1</dim>
					<dim>28</dim>
					<dim>28</dim>
				</port>
			</output>
			<blobs>
				<weights offset="27876" size="36"/>
				<biases offset="27912" size="4"/>
			</blobs>
		</layer>
		<layer id="170" name="unit0_1/branch_8/bn2/Relu" precision="FP32" type="ReLU">
			<input>
				<port id="0">
					<dim>1</dim>
					<dim>1</dim>
					<dim>28</dim>
					<dim>28</dim>
				</port>
			</input>
			<output>
				<port id="1">
					<dim>1</dim>
					<dim>1</dim>
					<dim>28</dim>
					<dim>28</dim>
				</port>
			</output>
		</layer>
		<layer id="171" name="unit0_1/branch_9/1x1conv/Conv2D" precision="FP32" type="Convolution">
			<data auto_pad="same_upper" dilations="1,1" group="1" kernel="1,1" output="1" pads_begin="0,0" pads_end="0,0" strides="1,1"/>
			<input>
				<port id="0">
					<dim>1</dim>
					<dim>64</dim>
					<dim>28</dim>
					<dim>28</dim>
				</port>
			</input>
			<output>
				<port id="3">
					<dim>1</dim>
					<dim>1</dim>
					<dim>28</dim>
					<dim>28</dim>
				</port>
			</output>
			<blobs>
				<weights offset="27916" size="256"/>
				<biases offset="28172" size="4"/>
			</blobs>
		</layer>
		<layer id="172" name="unit0_1/branch_9/bn1/Relu" precision="FP32" type="ReLU">
			<input>
				<port id="0">
					<dim>1</dim>
					<dim>1</dim>
					<dim>28</dim>
					<dim>28</dim>
				</port>
			</input>
			<output>
				<port id="1">
					<dim>1</dim>
					<dim>1</dim>
					<dim>28</dim>
					<dim>28</dim>
				</port>
			</output>
		</layer>
		<layer id="173" name="unit0_1/branch_9/3x3conv/Conv2D" precision="FP32" type="Convolution">
			<data auto_pad="same_upper" dilations="1,1" group="1" kernel="3,3" output="1" pads_begin="1,1" pads_end="1,1" strides="1,1"/>
			<input>
				<port id="0">
					<dim>1</dim>
					<dim>1</dim>
					<dim>28</dim>
					<dim>28</dim>
				</port>
			</input>
			<output>
				<port id="3">
					<dim>1</dim>
					<dim>1</dim>
					<dim>28</dim>
					<dim>28</dim>
				</port>
			</output>
			<blobs>
				<weights offset="28176" size="36"/>
				<biases offset="28212" size="4"/>
			</blobs>
		</layer>
		<layer id="174" name="unit0_1/branch_9/bn2/Relu" precision="FP32" type="ReLU">
			<input>
				<port id="0">
					<dim>1</dim>
					<dim>1</dim>
					<dim>28</dim>
					<dim>28</dim>
				</port>
			</input>
			<output>
				<port id="1">
					<dim>1</dim>
					<dim>1</dim>
					<dim>28</dim>
					<dim>28</dim>
				</port>
			</output>
		</layer>
		<layer id="175" name="unit0_1/branch_10/1x1conv/Conv2D" precision="FP32" type="Convolution">
			<data auto_pad="same_upper" dilations="1,1" group="1" kernel="1,1" output="1" pads_begin="0,0" pads_end="0,0" strides="1,1"/>
			<input>
				<port id="0">
					<dim>1</dim>
					<dim>64</dim>
					<dim>28</dim>
					<dim>28</dim>
				</port>
			</input>
			<output>
				<port id="3">
					<dim>1</dim>
					<dim>1</dim>
					<dim>28</dim>
					<dim>28</dim>
				</port>
			</output>
			<blobs>
				<weights offset="28216" size="256"/>
				<biases offset="28472" size="4"/>
			</blobs>
		</layer>
		<layer id="176" name="unit0_1/branch_10/bn1/Relu" precision="FP32" type="ReLU">
			<input>
				<port id="0">
					<dim>1</dim>
					<dim>1</dim>
					<dim>28</dim>
					<dim>28</dim>
				</port>
			</input>
			<output>
				<port id="1">
					<dim>1</dim>
					<dim>1</dim>
					<dim>28</dim>
					<dim>28</dim>
				</port>
			</output>
		</layer>
		<layer id="177" name="unit0_1/branch_10/3x3conv/Conv2D" precision="FP32" type="Convolution">
			<data auto_pad="same_upper" dilations="1,1" group="1" kernel="3,3" output="1" pads_begin="1,1" pads_end="1,1" strides="1,1"/>
			<input>
				<port id="0">
					<dim>1</dim>
					<dim>1</dim>
					<dim>28</dim>
					<dim>28</dim>
				</port>
			</input>
			<output>
				<port id="3">
					<dim>1</dim>
					<dim>1</dim>
					<dim>28</dim>
					<dim>28</dim>
				</port>
			</output>
			<blobs>
				<weights offset="28476" size="36"/>
				<biases offset="28512" size="4"/>
			</blobs>
		</layer>
		<layer id="178" name="unit0_1/branch_10/bn2/Relu" precision="FP32" type="ReLU">
			<input>
				<port id="0">
					<dim>1</dim>
					<dim>1</dim>
					<dim>28</dim>
					<dim>28</dim>
				</port>
			</input>
			<output>
				<port id="1">
					<dim>1</dim>
					<dim>1</dim>
					<dim>28</dim>
					<dim>28</dim>
				</port>
			</output>
		</layer>
		<layer id="179" name="unit0_1/branch_11/1x1conv/Conv2D" precision="FP32" type="Convolution">
			<data auto_pad="same_upper" dilations="1,1" group="1" kernel="1,1" output="1" pads_begin="0,0" pads_end="0,0" strides="1,1"/>
			<input>
				<port id="0">
					<dim>1</dim>
					<dim>64</dim>
					<dim>28</dim>
					<dim>28</dim>
				</port>
			</input>
			<output>
				<port id="3">
					<dim>1</dim>
					<dim>1</dim>
					<dim>28</dim>
					<dim>28</dim>
				</port>
			</output>
			<blobs>
				<weights offset="28516" size="256"/>
				<biases offset="28772" size="4"/>
			</blobs>
		</layer>
		<layer id="180" name="unit0_1/branch_11/bn1/Relu" precision="FP32" type="ReLU">
			<input>
				<port id="0">
					<dim>1</dim>
					<dim>1</dim>
					<dim>28</dim>
					<dim>28</dim>
				</port>
			</input>
			<output>
				<port id="1">
					<dim>1</dim>
					<dim>1</dim>
					<dim>28</dim>
					<dim>28</dim>
				</port>
			</output>
		</layer>
		<layer id="181" name="unit0_1/branch_11/3x3conv/Conv2D" precision="FP32" type="Convolution">
			<data auto_pad="same_upper" dilations="1,1" group="1" kernel="3,3" output="1" pads_begin="1,1" pads_end="1,1" strides="1,1"/>
			<input>
				<port id="0">
					<dim>1</dim>
					<dim>1</dim>
					<dim>28</dim>
					<dim>28</dim>
				</port>
			</input>
			<output>
				<port id="3">
					<dim>1</dim>
					<dim>1</dim>
					<dim>28</dim>
					<dim>28</dim>
				</port>
			</output>
			<blobs>
				<weights offset="28776" size="36"/>
				<biases offset="28812" size="4"/>
			</blobs>
		</layer>
		<layer id="182" name="unit0_1/branch_11/bn2/Relu" precision="FP32" type="ReLU">
			<input>
				<port id="0">
					<dim>1</dim>
					<dim>1</dim>
					<dim>28</dim>
					<dim>28</dim>
				</port>
			</input>
			<output>
				<port id="1">
					<dim>1</dim>
					<dim>1</dim>
					<dim>28</dim>
					<dim>28</dim>
				</port>
			</output>
		</layer>
		<layer id="183" name="unit0_1/branch_12/1x1conv/Conv2D" precision="FP32" type="Convolution">
			<data auto_pad="same_upper" dilations="1,1" group="1" kernel="1,1" output="1" pads_begin="0,0" pads_end="0,0" strides="1,1"/>
			<input>
				<port id="0">
					<dim>1</dim>
					<dim>64</dim>
					<dim>28</dim>
					<dim>28</dim>
				</port>
			</input>
			<output>
				<port id="3">
					<dim>1</dim>
					<dim>1</dim>
					<dim>28</dim>
					<dim>28</dim>
				</port>
			</output>
			<blobs>
				<weights offset="28816" size="256"/>
				<biases offset="29072" size="4"/>
			</blobs>
		</layer>
		<layer id="184" name="unit0_1/branch_12/bn1/Relu" precision="FP32" type="ReLU">
			<input>
				<port id="0">
					<dim>1</dim>
					<dim>1</dim>
					<dim>28</dim>
					<dim>28</dim>
				</port>
			</input>
			<output>
				<port id="1">
					<dim>1</dim>
					<dim>1</dim>
					<dim>28</dim>
					<dim>28</dim>
				</port>
			</output>
		</layer>
		<layer id="185" name="unit0_1/branch_12/3x3conv/Conv2D" precision="FP32" type="Convolution">
			<data auto_pad="same_upper" dilations="1,1" group="1" kernel="3,3" output="1" pads_begin="1,1" pads_end="1,1" strides="1,1"/>
			<input>
				<port id="0">
					<dim>1</dim>
					<dim>1</dim>
					<dim>28</dim>
					<dim>28</dim>
				</port>
			</input>
			<output>
				<port id="3">
					<dim>1</dim>
					<dim>1</dim>
					<dim>28</dim>
					<dim>28</dim>
				</port>
			</output>
			<blobs>
				<weights offset="29076" size="36"/>
				<biases offset="29112" size="4"/>
			</blobs>
		</layer>
		<layer id="186" name="unit0_1/branch_12/bn2/Relu" precision="FP32" type="ReLU">
			<input>
				<port id="0">
					<dim>1</dim>
					<dim>1</dim>
					<dim>28</dim>
					<dim>28</dim>
				</port>
			</input>
			<output>
				<port id="1">
					<dim>1</dim>
					<dim>1</dim>
					<dim>28</dim>
					<dim>28</dim>
				</port>
			</output>
		</layer>
		<layer id="187" name="unit0_1/branch_13/1x1conv/Conv2D" precision="FP32" type="Convolution">
			<data auto_pad="same_upper" dilations="1,1" group="1" kernel="1,1" output="1" pads_begin="0,0" pads_end="0,0" strides="1,1"/>
			<input>
				<port id="0">
					<dim>1</dim>
					<dim>64</dim>
					<dim>28</dim>
					<dim>28</dim>
				</port>
			</input>
			<output>
				<port id="3">
					<dim>1</dim>
					<dim>1</dim>
					<dim>28</dim>
					<dim>28</dim>
				</port>
			</output>
			<blobs>
				<weights offset="29116" size="256"/>
				<biases offset="29372" size="4"/>
			</blobs>
		</layer>
		<layer id="188" name="unit0_1/branch_13/bn1/Relu" precision="FP32" type="ReLU">
			<input>
				<port id="0">
					<dim>1</dim>
					<dim>1</dim>
					<dim>28</dim>
					<dim>28</dim>
				</port>
			</input>
			<output>
				<port id="1">
					<dim>1</dim>
					<dim>1</dim>
					<dim>28</dim>
					<dim>28</dim>
				</port>
			</output>
		</layer>
		<layer id="189" name="unit0_1/branch_13/3x3conv/Conv2D" precision="FP32" type="Convolution">
			<data auto_pad="same_upper" dilations="1,1" group="1" kernel="3,3" output="1" pads_begin="1,1" pads_end="1,1" strides="1,1"/>
			<input>
				<port id="0">
					<dim>1</dim>
					<dim>1</dim>
					<dim>28</dim>
					<dim>28</dim>
				</port>
			</input>
			<output>
				<port id="3">
					<dim>1</dim>
					<dim>1</dim>
					<dim>28</dim>
					<dim>28</dim>
				</port>
			</output>
			<blobs>
				<weights offset="29376" size="36"/>
				<biases offset="29412" size="4"/>
			</blobs>
		</layer>
		<layer id="190" name="unit0_1/branch_13/bn2/Relu" precision="FP32" type="ReLU">
			<input>
				<port id="0">
					<dim>1</dim>
					<dim>1</dim>
					<dim>28</dim>
					<dim>28</dim>
				</port>
			</input>
			<output>
				<port id="1">
					<dim>1</dim>
					<dim>1</dim>
					<dim>28</dim>
					<dim>28</dim>
				</port>
			</output>
		</layer>
		<layer id="191" name="unit0_1/branch_14/1x1conv/Conv2D" precision="FP32" type="Convolution">
			<data auto_pad="same_upper" dilations="1,1" group="1" kernel="1,1" output="1" pads_begin="0,0" pads_end="0,0" strides="1,1"/>
			<input>
				<port id="0">
					<dim>1</dim>
					<dim>64</dim>
					<dim>28</dim>
					<dim>28</dim>
				</port>
			</input>
			<output>
				<port id="3">
					<dim>1</dim>
					<dim>1</dim>
					<dim>28</dim>
					<dim>28</dim>
				</port>
			</output>
			<blobs>
				<weights offset="29416" size="256"/>
				<biases offset="29672" size="4"/>
			</blobs>
		</layer>
		<layer id="192" name="unit0_1/branch_14/bn1/Relu" precision="FP32" type="ReLU">
			<input>
				<port id="0">
					<dim>1</dim>
					<dim>1</dim>
					<dim>28</dim>
					<dim>28</dim>
				</port>
			</input>
			<output>
				<port id="1">
					<dim>1</dim>
					<dim>1</dim>
					<dim>28</dim>
					<dim>28</dim>
				</port>
			</output>
		</layer>
		<layer id="193" name="unit0_1/branch_14/3x3conv/Conv2D" precision="FP32" type="Convolution">
			<data auto_pad="same_upper" dilations="1,1" group="1" kernel="3,3" output="1" pads_begin="1,1" pads_end="1,1" strides="1,1"/>
			<input>
				<port id="0">
					<dim>1</dim>
					<dim>1</dim>
					<dim>28</dim>
					<dim>28</dim>
				</port>
			</input>
			<output>
				<port id="3">
					<dim>1</dim>
					<dim>1</dim>
					<dim>28</dim>
					<dim>28</dim>
				</port>
			</output>
			<blobs>
				<weights offset="29676" size="36"/>
				<biases offset="29712" size="4"/>
			</blobs>
		</layer>
		<layer id="194" name="unit0_1/branch_14/bn2/Relu" precision="FP32" type="ReLU">
			<input>
				<port id="0">
					<dim>1</dim>
					<dim>1</dim>
					<dim>28</dim>
					<dim>28</dim>
				</port>
			</input>
			<output>
				<port id="1">
					<dim>1</dim>
					<dim>1</dim>
					<dim>28</dim>
					<dim>28</dim>
				</port>
			</output>
		</layer>
		<layer id="195" name="unit0_1/branch_15/1x1conv/Conv2D" precision="FP32" type="Convolution">
			<data auto_pad="same_upper" dilations="1,1" group="1" kernel="1,1" output="1" pads_begin="0,0" pads_end="0,0" strides="1,1"/>
			<input>
				<port id="0">
					<dim>1</dim>
					<dim>64</dim>
					<dim>28</dim>
					<dim>28</dim>
				</port>
			</input>
			<output>
				<port id="3">
					<dim>1</dim>
					<dim>1</dim>
					<dim>28</dim>
					<dim>28</dim>
				</port>
			</output>
			<blobs>
				<weights offset="29716" size="256"/>
				<biases offset="29972" size="4"/>
			</blobs>
		</layer>
		<layer id="196" name="unit0_1/branch_15/bn1/Relu" precision="FP32" type="ReLU">
			<input>
				<port id="0">
					<dim>1</dim>
					<dim>1</dim>
					<dim>28</dim>
					<dim>28</dim>
				</port>
			</input>
			<output>
				<port id="1">
					<dim>1</dim>
					<dim>1</dim>
					<dim>28</dim>
					<dim>28</dim>
				</port>
			</output>
		</layer>
		<layer id="197" name="unit0_1/branch_15/3x3conv/Conv2D" precision="FP32" type="Convolution">
			<data auto_pad="same_upper" dilations="1,1" group="1" kernel="3,3" output="1" pads_begin="1,1" pads_end="1,1" strides="1,1"/>
			<input>
				<port id="0">
					<dim>1</dim>
					<dim>1</dim>
					<dim>28</dim>
					<dim>28</dim>
				</port>
			</input>
			<output>
				<port id="3">
					<dim>1</dim>
					<dim>1</dim>
					<dim>28</dim>
					<dim>28</dim>
				</port>
			</output>
			<blobs>
				<weights offset="29976" size="36"/>
				<biases offset="30012" size="4"/>
			</blobs>
		</layer>
		<layer id="198" name="unit0_1/branch_15/bn2/Relu" precision="FP32" type="ReLU">
			<input>
				<port id="0">
					<dim>1</dim>
					<dim>1</dim>
					<dim>28</dim>
					<dim>28</dim>
				</port>
			</input>
			<output>
				<port id="1">
					<dim>1</dim>
					<dim>1</dim>
					<dim>28</dim>
					<dim>28</dim>
				</port>
			</output>
		</layer>
		<layer id="199" name="unit0_1/branch_16/1x1conv/Conv2D" precision="FP32" type="Convolution">
			<data auto_pad="same_upper" dilations="1,1" group="1" kernel="1,1" output="1" pads_begin="0,0" pads_end="0,0" strides="1,1"/>
			<input>
				<port id="0">
					<dim>1</dim>
					<dim>64</dim>
					<dim>28</dim>
					<dim>28</dim>
				</port>
			</input>
			<output>
				<port id="3">
					<dim>1</dim>
					<dim>1</dim>
					<dim>28</dim>
					<dim>28</dim>
				</port>
			</output>
			<blobs>
				<weights offset="30016" size="256"/>
				<biases offset="30272" size="4"/>
			</blobs>
		</layer>
		<layer id="200" name="unit0_1/branch_16/bn1/Relu" precision="FP32" type="ReLU">
			<input>
				<port id="0">
					<dim>1</dim>
					<dim>1</dim>
					<dim>28</dim>
					<dim>28</dim>
				</port>
			</input>
			<output>
				<port id="1">
					<dim>1</dim>
					<dim>1</dim>
					<dim>28</dim>
					<dim>28</dim>
				</port>
			</output>
		</layer>
		<layer id="201" name="unit0_1/branch_16/3x3conv/Conv2D" precision="FP32" type="Convolution">
			<data auto_pad="same_upper" dilations="1,1" group="1" kernel="3,3" output="1" pads_begin="1,1" pads_end="1,1" strides="1,1"/>
			<input>
				<port id="0">
					<dim>1</dim>
					<dim>1</dim>
					<dim>28</dim>
					<dim>28</dim>
				</port>
			</input>
			<output>
				<port id="3">
					<dim>1</dim>
					<dim>1</dim>
					<dim>28</dim>
					<dim>28</dim>
				</port>
			</output>
			<blobs>
				<weights offset="30276" size="36"/>
				<biases offset="30312" size="4"/>
			</blobs>
		</layer>
		<layer id="202" name="unit0_1/branch_16/bn2/Relu" precision="FP32" type="ReLU">
			<input>
				<port id="0">
					<dim>1</dim>
					<dim>1</dim>
					<dim>28</dim>
					<dim>28</dim>
				</port>
			</input>
			<output>
				<port id="1">
					<dim>1</dim>
					<dim>1</dim>
					<dim>28</dim>
					<dim>28</dim>
				</port>
			</output>
		</layer>
		<layer id="203" name="unit0_1/branch_17/1x1conv/Conv2D" precision="FP32" type="Convolution">
			<data auto_pad="same_upper" dilations="1,1" group="1" kernel="1,1" output="1" pads_begin="0,0" pads_end="0,0" strides="1,1"/>
			<input>
				<port id="0">
					<dim>1</dim>
					<dim>64</dim>
					<dim>28</dim>
					<dim>28</dim>
				</port>
			</input>
			<output>
				<port id="3">
					<dim>1</dim>
					<dim>1</dim>
					<dim>28</dim>
					<dim>28</dim>
				</port>
			</output>
			<blobs>
				<weights offset="30316" size="256"/>
				<biases offset="30572" size="4"/>
			</blobs>
		</layer>
		<layer id="204" name="unit0_1/branch_17/bn1/Relu" precision="FP32" type="ReLU">
			<input>
				<port id="0">
					<dim>1</dim>
					<dim>1</dim>
					<dim>28</dim>
					<dim>28</dim>
				</port>
			</input>
			<output>
				<port id="1">
					<dim>1</dim>
					<dim>1</dim>
					<dim>28</dim>
					<dim>28</dim>
				</port>
			</output>
		</layer>
		<layer id="205" name="unit0_1/branch_17/3x3conv/Conv2D" precision="FP32" type="Convolution">
			<data auto_pad="same_upper" dilations="1,1" group="1" kernel="3,3" output="1" pads_begin="1,1" pads_end="1,1" strides="1,1"/>
			<input>
				<port id="0">
					<dim>1</dim>
					<dim>1</dim>
					<dim>28</dim>
					<dim>28</dim>
				</port>
			</input>
			<output>
				<port id="3">
					<dim>1</dim>
					<dim>1</dim>
					<dim>28</dim>
					<dim>28</dim>
				</port>
			</output>
			<blobs>
				<weights offset="30576" size="36"/>
				<biases offset="30612" size="4"/>
			</blobs>
		</layer>
		<layer id="206" name="unit0_1/branch_17/bn2/Relu" precision="FP32" type="ReLU">
			<input>
				<port id="0">
					<dim>1</dim>
					<dim>1</dim>
					<dim>28</dim>
					<dim>28</dim>
				</port>
			</input>
			<output>
				<port id="1">
					<dim>1</dim>
					<dim>1</dim>
					<dim>28</dim>
					<dim>28</dim>
				</port>
			</output>
		</layer>
		<layer id="207" name="unit0_1/branch_18/1x1conv/Conv2D" precision="FP32" type="Convolution">
			<data auto_pad="same_upper" dilations="1,1" group="1" kernel="1,1" output="1" pads_begin="0,0" pads_end="0,0" strides="1,1"/>
			<input>
				<port id="0">
					<dim>1</dim>
					<dim>64</dim>
					<dim>28</dim>
					<dim>28</dim>
				</port>
			</input>
			<output>
				<port id="3">
					<dim>1</dim>
					<dim>1</dim>
					<dim>28</dim>
					<dim>28</dim>
				</port>
			</output>
			<blobs>
				<weights offset="30616" size="256"/>
				<biases offset="30872" size="4"/>
			</blobs>
		</layer>
		<layer id="208" name="unit0_1/branch_18/bn1/Relu" precision="FP32" type="ReLU">
			<input>
				<port id="0">
					<dim>1</dim>
					<dim>1</dim>
					<dim>28</dim>
					<dim>28</dim>
				</port>
			</input>
			<output>
				<port id="1">
					<dim>1</dim>
					<dim>1</dim>
					<dim>28</dim>
					<dim>28</dim>
				</port>
			</output>
		</layer>
		<layer id="209" name="unit0_1/branch_18/3x3conv/Conv2D" precision="FP32" type="Convolution">
			<data auto_pad="same_upper" dilations="1,1" group="1" kernel="3,3" output="1" pads_begin="1,1" pads_end="1,1" strides="1,1"/>
			<input>
				<port id="0">
					<dim>1</dim>
					<dim>1</dim>
					<dim>28</dim>
					<dim>28</dim>
				</port>
			</input>
			<output>
				<port id="3">
					<dim>1</dim>
					<dim>1</dim>
					<dim>28</dim>
					<dim>28</dim>
				</port>
			</output>
			<blobs>
				<weights offset="30876" size="36"/>
				<biases offset="30912" size="4"/>
			</blobs>
		</layer>
		<layer id="210" name="unit0_1/branch_18/bn2/Relu" precision="FP32" type="ReLU">
			<input>
				<port id="0">
					<dim>1</dim>
					<dim>1</dim>
					<dim>28</dim>
					<dim>28</dim>
				</port>
			</input>
			<output>
				<port id="1">
					<dim>1</dim>
					<dim>1</dim>
					<dim>28</dim>
					<dim>28</dim>
				</port>
			</output>
		</layer>
		<layer id="211" name="unit0_1/branch_19/1x1conv/Conv2D" precision="FP32" type="Convolution">
			<data auto_pad="same_upper" dilations="1,1" group="1" kernel="1,1" output="1" pads_begin="0,0" pads_end="0,0" strides="1,1"/>
			<input>
				<port id="0">
					<dim>1</dim>
					<dim>64</dim>
					<dim>28</dim>
					<dim>28</dim>
				</port>
			</input>
			<output>
				<port id="3">
					<dim>1</dim>
					<dim>1</dim>
					<dim>28</dim>
					<dim>28</dim>
				</port>
			</output>
			<blobs>
				<weights offset="30916" size="256"/>
				<biases offset="31172" size="4"/>
			</blobs>
		</layer>
		<layer id="212" name="unit0_1/branch_19/bn1/Relu" precision="FP32" type="ReLU">
			<input>
				<port id="0">
					<dim>1</dim>
					<dim>1</dim>
					<dim>28</dim>
					<dim>28</dim>
				</port>
			</input>
			<output>
				<port id="1">
					<dim>1</dim>
					<dim>1</dim>
					<dim>28</dim>
					<dim>28</dim>
				</port>
			</output>
		</layer>
		<layer id="213" name="unit0_1/branch_19/3x3conv/Conv2D" precision="FP32" type="Convolution">
			<data auto_pad="same_upper" dilations="1,1" group="1" kernel="3,3" output="1" pads_begin="1,1" pads_end="1,1" strides="1,1"/>
			<input>
				<port id="0">
					<dim>1</dim>
					<dim>1</dim>
					<dim>28</dim>
					<dim>28</dim>
				</port>
			</input>
			<output>
				<port id="3">
					<dim>1</dim>
					<dim>1</dim>
					<dim>28</dim>
					<dim>28</dim>
				</port>
			</output>
			<blobs>
				<weights offset="31176" size="36"/>
				<biases offset="31212" size="4"/>
			</blobs>
		</layer>
		<layer id="214" name="unit0_1/branch_19/bn2/Relu" precision="FP32" type="ReLU">
			<input>
				<port id="0">
					<dim>1</dim>
					<dim>1</dim>
					<dim>28</dim>
					<dim>28</dim>
				</port>
			</input>
			<output>
				<port id="1">
					<dim>1</dim>
					<dim>1</dim>
					<dim>28</dim>
					<dim>28</dim>
				</port>
			</output>
		</layer>
		<layer id="215" name="unit0_1/branch_20/1x1conv/Conv2D" precision="FP32" type="Convolution">
			<data auto_pad="same_upper" dilations="1,1" group="1" kernel="1,1" output="1" pads_begin="0,0" pads_end="0,0" strides="1,1"/>
			<input>
				<port id="0">
					<dim>1</dim>
					<dim>64</dim>
					<dim>28</dim>
					<dim>28</dim>
				</port>
			</input>
			<output>
				<port id="3">
					<dim>1</dim>
					<dim>1</dim>
					<dim>28</dim>
					<dim>28</dim>
				</port>
			</output>
			<blobs>
				<weights offset="31216" size="256"/>
				<biases offset="31472" size="4"/>
			</blobs>
		</layer>
		<layer id="216" name="unit0_1/branch_20/bn1/Relu" precision="FP32" type="ReLU">
			<input>
				<port id="0">
					<dim>1</dim>
					<dim>1</dim>
					<dim>28</dim>
					<dim>28</dim>
				</port>
			</input>
			<output>
				<port id="1">
					<dim>1</dim>
					<dim>1</dim>
					<dim>28</dim>
					<dim>28</dim>
				</port>
			</output>
		</layer>
		<layer id="217" name="unit0_1/branch_20/3x3conv/Conv2D" precision="FP32" type="Convolution">
			<data auto_pad="same_upper" dilations="1,1" group="1" kernel="3,3" output="1" pads_begin="1,1" pads_end="1,1" strides="1,1"/>
			<input>
				<port id="0">
					<dim>1</dim>
					<dim>1</dim>
					<dim>28</dim>
					<dim>28</dim>
				</port>
			</input>
			<output>
				<port id="3">
					<dim>1</dim>
					<dim>1</dim>
					<dim>28</dim>
					<dim>28</dim>
				</port>
			</output>
			<blobs>
				<weights offset="31476" size="36"/>
				<biases offset="31512" size="4"/>
			</blobs>
		</layer>
		<layer id="218" name="unit0_1/branch_20/bn2/Relu" precision="FP32" type="ReLU">
			<input>
				<port id="0">
					<dim>1</dim>
					<dim>1</dim>
					<dim>28</dim>
					<dim>28</dim>
				</port>
			</input>
			<output>
				<port id="1">
					<dim>1</dim>
					<dim>1</dim>
					<dim>28</dim>
					<dim>28</dim>
				</port>
			</output>
		</layer>
		<layer id="219" name="unit0_1/branch_21/1x1conv/Conv2D" precision="FP32" type="Convolution">
			<data auto_pad="same_upper" dilations="1,1" group="1" kernel="1,1" output="1" pads_begin="0,0" pads_end="0,0" strides="1,1"/>
			<input>
				<port id="0">
					<dim>1</dim>
					<dim>64</dim>
					<dim>28</dim>
					<dim>28</dim>
				</port>
			</input>
			<output>
				<port id="3">
					<dim>1</dim>
					<dim>1</dim>
					<dim>28</dim>
					<dim>28</dim>
				</port>
			</output>
			<blobs>
				<weights offset="31516" size="256"/>
				<biases offset="31772" size="4"/>
			</blobs>
		</layer>
		<layer id="220" name="unit0_1/branch_21/bn1/Relu" precision="FP32" type="ReLU">
			<input>
				<port id="0">
					<dim>1</dim>
					<dim>1</dim>
					<dim>28</dim>
					<dim>28</dim>
				</port>
			</input>
			<output>
				<port id="1">
					<dim>1</dim>
					<dim>1</dim>
					<dim>28</dim>
					<dim>28</dim>
				</port>
			</output>
		</layer>
		<layer id="221" name="unit0_1/branch_21/3x3conv/Conv2D" precision="FP32" type="Convolution">
			<data auto_pad="same_upper" dilations="1,1" group="1" kernel="3,3" output="1" pads_begin="1,1" pads_end="1,1" strides="1,1"/>
			<input>
				<port id="0">
					<dim>1</dim>
					<dim>1</dim>
					<dim>28</dim>
					<dim>28</dim>
				</port>
			</input>
			<output>
				<port id="3">
					<dim>1</dim>
					<dim>1</dim>
					<dim>28</dim>
					<dim>28</dim>
				</port>
			</output>
			<blobs>
				<weights offset="31776" size="36"/>
				<biases offset="31812" size="4"/>
			</blobs>
		</layer>
		<layer id="222" name="unit0_1/branch_21/bn2/Relu" precision="FP32" type="ReLU">
			<input>
				<port id="0">
					<dim>1</dim>
					<dim>1</dim>
					<dim>28</dim>
					<dim>28</dim>
				</port>
			</input>
			<output>
				<port id="1">
					<dim>1</dim>
					<dim>1</dim>
					<dim>28</dim>
					<dim>28</dim>
				</port>
			</output>
		</layer>
		<layer id="223" name="unit0_1/branch_22/1x1conv/Conv2D" precision="FP32" type="Convolution">
			<data auto_pad="same_upper" dilations="1,1" group="1" kernel="1,1" output="1" pads_begin="0,0" pads_end="0,0" strides="1,1"/>
			<input>
				<port id="0">
					<dim>1</dim>
					<dim>64</dim>
					<dim>28</dim>
					<dim>28</dim>
				</port>
			</input>
			<output>
				<port id="3">
					<dim>1</dim>
					<dim>1</dim>
					<dim>28</dim>
					<dim>28</dim>
				</port>
			</output>
			<blobs>
				<weights offset="31816" size="256"/>
				<biases offset="32072" size="4"/>
			</blobs>
		</layer>
		<layer id="224" name="unit0_1/branch_22/bn1/Relu" precision="FP32" type="ReLU">
			<input>
				<port id="0">
					<dim>1</dim>
					<dim>1</dim>
					<dim>28</dim>
					<dim>28</dim>
				</port>
			</input>
			<output>
				<port id="1">
					<dim>1</dim>
					<dim>1</dim>
					<dim>28</dim>
					<dim>28</dim>
				</port>
			</output>
		</layer>
		<layer id="225" name="unit0_1/branch_22/3x3conv/Conv2D" precision="FP32" type="Convolution">
			<data auto_pad="same_upper" dilations="1,1" group="1" kernel="3,3" output="1" pads_begin="1,1" pads_end="1,1" strides="1,1"/>
			<input>
				<port id="0">
					<dim>1</dim>
					<dim>1</dim>
					<dim>28</dim>
					<dim>28</dim>
				</port>
			</input>
			<output>
				<port id="3">
					<dim>1</dim>
					<dim>1</dim>
					<dim>28</dim>
					<dim>28</dim>
				</port>
			</output>
			<blobs>
				<weights offset="32076" size="36"/>
				<biases offset="32112" size="4"/>
			</blobs>
		</layer>
		<layer id="226" name="unit0_1/branch_22/bn2/Relu" precision="FP32" type="ReLU">
			<input>
				<port id="0">
					<dim>1</dim>
					<dim>1</dim>
					<dim>28</dim>
					<dim>28</dim>
				</port>
			</input>
			<output>
				<port id="1">
					<dim>1</dim>
					<dim>1</dim>
					<dim>28</dim>
					<dim>28</dim>
				</port>
			</output>
		</layer>
		<layer id="227" name="unit0_1/branch_23/1x1conv/Conv2D" precision="FP32" type="Convolution">
			<data auto_pad="same_upper" dilations="1,1" group="1" kernel="1,1" output="1" pads_begin="0,0" pads_end="0,0" strides="1,1"/>
			<input>
				<port id="0">
					<dim>1</dim>
					<dim>64</dim>
					<dim>28</dim>
					<dim>28</dim>
				</port>
			</input>
			<output>
				<port id="3">
					<dim>1</dim>
					<dim>1</dim>
					<dim>28</dim>
					<dim>28</dim>
				</port>
			</output>
			<blobs>
				<weights offset="32116" size="256"/>
				<biases offset="32372" size="4"/>
			</blobs>
		</layer>
		<layer id="228" name="unit0_1/branch_23/bn1/Relu" precision="FP32" type="ReLU">
			<input>
				<port id="0">
					<dim>1</dim>
					<dim>1</dim>
					<dim>28</dim>
					<dim>28</dim>
				</port>
			</input>
			<output>
				<port id="1">
					<dim>1</dim>
					<dim>1</dim>
					<dim>28</dim>
					<dim>28</dim>
				</port>
			</output>
		</layer>
		<layer id="229" name="unit0_1/branch_23/3x3conv/Conv2D" precision="FP32" type="Convolution">
			<data auto_pad="same_upper" dilations="1,1" group="1" kernel="3,3" output="1" pads_begin="1,1" pads_end="1,1" strides="1,1"/>
			<input>
				<port id="0">
					<dim>1</dim>
					<dim>1</dim>
					<dim>28</dim>
					<dim>28</dim>
				</port>
			</input>
			<output>
				<port id="3">
					<dim>1</dim>
					<dim>1</dim>
					<dim>28</dim>
					<dim>28</dim>
				</port>
			</output>
			<blobs>
				<weights offset="32376" size="36"/>
				<biases offset="32412" size="4"/>
			</blobs>
		</layer>
		<layer id="230" name="unit0_1/branch_23/bn2/Relu" precision="FP32" type="ReLU">
			<input>
				<port id="0">
					<dim>1</dim>
					<dim>1</dim>
					<dim>28</dim>
					<dim>28</dim>
				</port>
			</input>
			<output>
				<port id="1">
					<dim>1</dim>
					<dim>1</dim>
					<dim>28</dim>
					<dim>28</dim>
				</port>
			</output>
		</layer>
		<layer id="231" name="unit0_1/branch_24/1x1conv/Conv2D" precision="FP32" type="Convolution">
			<data auto_pad="same_upper" dilations="1,1" group="1" kernel="1,1" output="1" pads_begin="0,0" pads_end="0,0" strides="1,1"/>
			<input>
				<port id="0">
					<dim>1</dim>
					<dim>64</dim>
					<dim>28</dim>
					<dim>28</dim>
				</port>
			</input>
			<output>
				<port id="3">
					<dim>1</dim>
					<dim>1</dim>
					<dim>28</dim>
					<dim>28</dim>
				</port>
			</output>
			<blobs>
				<weights offset="32416" size="256"/>
				<biases offset="32672" size="4"/>
			</blobs>
		</layer>
		<layer id="232" name="unit0_1/branch_24/bn1/Relu" precision="FP32" type="ReLU">
			<input>
				<port id="0">
					<dim>1</dim>
					<dim>1</dim>
					<dim>28</dim>
					<dim>28</dim>
				</port>
			</input>
			<output>
				<port id="1">
					<dim>1</dim>
					<dim>1</dim>
					<dim>28</dim>
					<dim>28</dim>
				</port>
			</output>
		</layer>
		<layer id="233" name="unit0_1/branch_24/3x3conv/Conv2D" precision="FP32" type="Convolution">
			<data auto_pad="same_upper" dilations="1,1" group="1" kernel="3,3" output="1" pads_begin="1,1" pads_end="1,1" strides="1,1"/>
			<input>
				<port id="0">
					<dim>1</dim>
					<dim>1</dim>
					<dim>28</dim>
					<dim>28</dim>
				</port>
			</input>
			<output>
				<port id="3">
					<dim>1</dim>
					<dim>1</dim>
					<dim>28</dim>
					<dim>28</dim>
				</port>
			</output>
			<blobs>
				<weights offset="32676" size="36"/>
				<biases offset="32712" size="4"/>
			</blobs>
		</layer>
		<layer id="234" name="unit0_1/branch_24/bn2/Relu" precision="FP32" type="ReLU">
			<input>
				<port id="0">
					<dim>1</dim>
					<dim>1</dim>
					<dim>28</dim>
					<dim>28</dim>
				</port>
			</input>
			<output>
				<port id="1">
					<dim>1</dim>
					<dim>1</dim>
					<dim>28</dim>
					<dim>28</dim>
				</port>
			</output>
		</layer>
		<layer id="235" name="unit0_1/branch_25/1x1conv/Conv2D" precision="FP32" type="Convolution">
			<data auto_pad="same_upper" dilations="1,1" group="1" kernel="1,1" output="1" pads_begin="0,0" pads_end="0,0" strides="1,1"/>
			<input>
				<port id="0">
					<dim>1</dim>
					<dim>64</dim>
					<dim>28</dim>
					<dim>28</dim>
				</port>
			</input>
			<output>
				<port id="3">
					<dim>1</dim>
					<dim>1</dim>
					<dim>28</dim>
					<dim>28</dim>
				</port>
			</output>
			<blobs>
				<weights offset="32716" size="256"/>
				<biases offset="32972" size="4"/>
			</blobs>
		</layer>
		<layer id="236" name="unit0_1/branch_25/bn1/Relu" precision="FP32" type="ReLU">
			<input>
				<port id="0">
					<dim>1</dim>
					<dim>1</dim>
					<dim>28</dim>
					<dim>28</dim>
				</port>
			</input>
			<output>
				<port id="1">
					<dim>1</dim>
					<dim>1</dim>
					<dim>28</dim>
					<dim>28</dim>
				</port>
			</output>
		</layer>
		<layer id="237" name="unit0_1/branch_25/3x3conv/Conv2D" precision="FP32" type="Convolution">
			<data auto_pad="same_upper" dilations="1,1" group="1" kernel="3,3" output="1" pads_begin="1,1" pads_end="1,1" strides="1,1"/>
			<input>
				<port id="0">
					<dim>1</dim>
					<dim>1</dim>
					<dim>28</dim>
					<dim>28</dim>
				</port>
			</input>
			<output>
				<port id="3">
					<dim>1</dim>
					<dim>1</dim>
					<dim>28</dim>
					<dim>28</dim>
				</port>
			</output>
			<blobs>
				<weights offset="32976" size="36"/>
				<biases offset="33012" size="4"/>
			</blobs>
		</layer>
		<layer id="238" name="unit0_1/branch_25/bn2/Relu" precision="FP32" type="ReLU">
			<input>
				<port id="0">
					<dim>1</dim>
					<dim>1</dim>
					<dim>28</dim>
					<dim>28</dim>
				</port>
			</input>
			<output>
				<port id="1">
					<dim>1</dim>
					<dim>1</dim>
					<dim>28</dim>
					<dim>28</dim>
				</port>
			</output>
		</layer>
		<layer id="239" name="unit0_1/branch_26/1x1conv/Conv2D" precision="FP32" type="Convolution">
			<data auto_pad="same_upper" dilations="1,1" group="1" kernel="1,1" output="1" pads_begin="0,0" pads_end="0,0" strides="1,1"/>
			<input>
				<port id="0">
					<dim>1</dim>
					<dim>64</dim>
					<dim>28</dim>
					<dim>28</dim>
				</port>
			</input>
			<output>
				<port id="3">
					<dim>1</dim>
					<dim>1</dim>
					<dim>28</dim>
					<dim>28</dim>
				</port>
			</output>
			<blobs>
				<weights offset="33016" size="256"/>
				<biases offset="33272" size="4"/>
			</blobs>
		</layer>
		<layer id="240" name="unit0_1/branch_26/bn1/Relu" precision="FP32" type="ReLU">
			<input>
				<port id="0">
					<dim>1</dim>
					<dim>1</dim>
					<dim>28</dim>
					<dim>28</dim>
				</port>
			</input>
			<output>
				<port id="1">
					<dim>1</dim>
					<dim>1</dim>
					<dim>28</dim>
					<dim>28</dim>
				</port>
			</output>
		</layer>
		<layer id="241" name="unit0_1/branch_26/3x3conv/Conv2D" precision="FP32" type="Convolution">
			<data auto_pad="same_upper" dilations="1,1" group="1" kernel="3,3" output="1" pads_begin="1,1" pads_end="1,1" strides="1,1"/>
			<input>
				<port id="0">
					<dim>1</dim>
					<dim>1</dim>
					<dim>28</dim>
					<dim>28</dim>
				</port>
			</input>
			<output>
				<port id="3">
					<dim>1</dim>
					<dim>1</dim>
					<dim>28</dim>
					<dim>28</dim>
				</port>
			</output>
			<blobs>
				<weights offset="33276" size="36"/>
				<biases offset="33312" size="4"/>
			</blobs>
		</layer>
		<layer id="242" name="unit0_1/branch_26/bn2/Relu" precision="FP32" type="ReLU">
			<input>
				<port id="0">
					<dim>1</dim>
					<dim>1</dim>
					<dim>28</dim>
					<dim>28</dim>
				</port>
			</input>
			<output>
				<port id="1">
					<dim>1</dim>
					<dim>1</dim>
					<dim>28</dim>
					<dim>28</dim>
				</port>
			</output>
		</layer>
		<layer id="243" name="unit0_1/branch_27/1x1conv/Conv2D" precision="FP32" type="Convolution">
			<data auto_pad="same_upper" dilations="1,1" group="1" kernel="1,1" output="1" pads_begin="0,0" pads_end="0,0" strides="1,1"/>
			<input>
				<port id="0">
					<dim>1</dim>
					<dim>64</dim>
					<dim>28</dim>
					<dim>28</dim>
				</port>
			</input>
			<output>
				<port id="3">
					<dim>1</dim>
					<dim>1</dim>
					<dim>28</dim>
					<dim>28</dim>
				</port>
			</output>
			<blobs>
				<weights offset="33316" size="256"/>
				<biases offset="33572" size="4"/>
			</blobs>
		</layer>
		<layer id="244" name="unit0_1/branch_27/bn1/Relu" precision="FP32" type="ReLU">
			<input>
				<port id="0">
					<dim>1</dim>
					<dim>1</dim>
					<dim>28</dim>
					<dim>28</dim>
				</port>
			</input>
			<output>
				<port id="1">
					<dim>1</dim>
					<dim>1</dim>
					<dim>28</dim>
					<dim>28</dim>
				</port>
			</output>
		</layer>
		<layer id="245" name="unit0_1/branch_27/3x3conv/Conv2D" precision="FP32" type="Convolution">
			<data auto_pad="same_upper" dilations="1,1" group="1" kernel="3,3" output="1" pads_begin="1,1" pads_end="1,1" strides="1,1"/>
			<input>
				<port id="0">
					<dim>1</dim>
					<dim>1</dim>
					<dim>28</dim>
					<dim>28</dim>
				</port>
			</input>
			<output>
				<port id="3">
					<dim>1</dim>
					<dim>1</dim>
					<dim>28</dim>
					<dim>28</dim>
				</port>
			</output>
			<blobs>
				<weights offset="33576" size="36"/>
				<biases offset="33612" size="4"/>
			</blobs>
		</layer>
		<layer id="246" name="unit0_1/branch_27/bn2/Relu" precision="FP32" type="ReLU">
			<input>
				<port id="0">
					<dim>1</dim>
					<dim>1</dim>
					<dim>28</dim>
					<dim>28</dim>
				</port>
			</input>
			<output>
				<port id="1">
					<dim>1</dim>
					<dim>1</dim>
					<dim>28</dim>
					<dim>28</dim>
				</port>
			</output>
		</layer>
		<layer id="247" name="unit0_1/branch_28/1x1conv/Conv2D" precision="FP32" type="Convolution">
			<data auto_pad="same_upper" dilations="1,1" group="1" kernel="1,1" output="1" pads_begin="0,0" pads_end="0,0" strides="1,1"/>
			<input>
				<port id="0">
					<dim>1</dim>
					<dim>64</dim>
					<dim>28</dim>
					<dim>28</dim>
				</port>
			</input>
			<output>
				<port id="3">
					<dim>1</dim>
					<dim>1</dim>
					<dim>28</dim>
					<dim>28</dim>
				</port>
			</output>
			<blobs>
				<weights offset="33616" size="256"/>
				<biases offset="33872" size="4"/>
			</blobs>
		</layer>
		<layer id="248" name="unit0_1/branch_28/bn1/Relu" precision="FP32" type="ReLU">
			<input>
				<port id="0">
					<dim>1</dim>
					<dim>1</dim>
					<dim>28</dim>
					<dim>28</dim>
				</port>
			</input>
			<output>
				<port id="1">
					<dim>1</dim>
					<dim>1</dim>
					<dim>28</dim>
					<dim>28</dim>
				</port>
			</output>
		</layer>
		<layer id="249" name="unit0_1/branch_28/3x3conv/Conv2D" precision="FP32" type="Convolution">
			<data auto_pad="same_upper" dilations="1,1" group="1" kernel="3,3" output="1" pads_begin="1,1" pads_end="1,1" strides="1,1"/>
			<input>
				<port id="0">
					<dim>1</dim>
					<dim>1</dim>
					<dim>28</dim>
					<dim>28</dim>
				</port>
			</input>
			<output>
				<port id="3">
					<dim>1</dim>
					<dim>1</dim>
					<dim>28</dim>
					<dim>28</dim>
				</port>
			</output>
			<blobs>
				<weights offset="33876" size="36"/>
				<biases offset="33912" size="4"/>
			</blobs>
		</layer>
		<layer id="250" name="unit0_1/branch_28/bn2/Relu" precision="FP32" type="ReLU">
			<input>
				<port id="0">
					<dim>1</dim>
					<dim>1</dim>
					<dim>28</dim>
					<dim>28</dim>
				</port>
			</input>
			<output>
				<port id="1">
					<dim>1</dim>
					<dim>1</dim>
					<dim>28</dim>
					<dim>28</dim>
				</port>
			</output>
		</layer>
		<layer id="251" name="unit0_1/branch_29/1x1conv/Conv2D" precision="FP32" type="Convolution">
			<data auto_pad="same_upper" dilations="1,1" group="1" kernel="1,1" output="1" pads_begin="0,0" pads_end="0,0" strides="1,1"/>
			<input>
				<port id="0">
					<dim>1</dim>
					<dim>64</dim>
					<dim>28</dim>
					<dim>28</dim>
				</port>
			</input>
			<output>
				<port id="3">
					<dim>1</dim>
					<dim>1</dim>
					<dim>28</dim>
					<dim>28</dim>
				</port>
			</output>
			<blobs>
				<weights offset="33916" size="256"/>
				<biases offset="34172" size="4"/>
			</blobs>
		</layer>
		<layer id="252" name="unit0_1/branch_29/bn1/Relu" precision="FP32" type="ReLU">
			<input>
				<port id="0">
					<dim>1</dim>
					<dim>1</dim>
					<dim>28</dim>
					<dim>28</dim>
				</port>
			</input>
			<output>
				<port id="1">
					<dim>1</dim>
					<dim>1</dim>
					<dim>28</dim>
					<dim>28</dim>
				</port>
			</output>
		</layer>
		<layer id="253" name="unit0_1/branch_29/3x3conv/Conv2D" precision="FP32" type="Convolution">
			<data auto_pad="same_upper" dilations="1,1" group="1" kernel="3,3" output="1" pads_begin="1,1" pads_end="1,1" strides="1,1"/>
			<input>
				<port id="0">
					<dim>1</dim>
					<dim>1</dim>
					<dim>28</dim>
					<dim>28</dim>
				</port>
			</input>
			<output>
				<port id="3">
					<dim>1</dim>
					<dim>1</dim>
					<dim>28</dim>
					<dim>28</dim>
				</port>
			</output>
			<blobs>
				<weights offset="34176" size="36"/>
				<biases offset="34212" size="4"/>
			</blobs>
		</layer>
		<layer id="254" name="unit0_1/branch_29/bn2/Relu" precision="FP32" type="ReLU">
			<input>
				<port id="0">
					<dim>1</dim>
					<dim>1</dim>
					<dim>28</dim>
					<dim>28</dim>
				</port>
			</input>
			<output>
				<port id="1">
					<dim>1</dim>
					<dim>1</dim>
					<dim>28</dim>
					<dim>28</dim>
				</port>
			</output>
		</layer>
		<layer id="255" name="unit0_1/branch_30/1x1conv/Conv2D" precision="FP32" type="Convolution">
			<data auto_pad="same_upper" dilations="1,1" group="1" kernel="1,1" output="1" pads_begin="0,0" pads_end="0,0" strides="1,1"/>
			<input>
				<port id="0">
					<dim>1</dim>
					<dim>64</dim>
					<dim>28</dim>
					<dim>28</dim>
				</port>
			</input>
			<output>
				<port id="3">
					<dim>1</dim>
					<dim>1</dim>
					<dim>28</dim>
					<dim>28</dim>
				</port>
			</output>
			<blobs>
				<weights offset="34216" size="256"/>
				<biases offset="34472" size="4"/>
			</blobs>
		</layer>
		<layer id="256" name="unit0_1/branch_30/bn1/Relu" precision="FP32" type="ReLU">
			<input>
				<port id="0">
					<dim>1</dim>
					<dim>1</dim>
					<dim>28</dim>
					<dim>28</dim>
				</port>
			</input>
			<output>
				<port id="1">
					<dim>1</dim>
					<dim>1</dim>
					<dim>28</dim>
					<dim>28</dim>
				</port>
			</output>
		</layer>
		<layer id="257" name="unit0_1/branch_30/3x3conv/Conv2D" precision="FP32" type="Convolution">
			<data auto_pad="same_upper" dilations="1,1" group="1" kernel="3,3" output="1" pads_begin="1,1" pads_end="1,1" strides="1,1"/>
			<input>
				<port id="0">
					<dim>1</dim>
					<dim>1</dim>
					<dim>28</dim>
					<dim>28</dim>
				</port>
			</input>
			<output>
				<port id="3">
					<dim>1</dim>
					<dim>1</dim>
					<dim>28</dim>
					<dim>28</dim>
				</port>
			</output>
			<blobs>
				<weights offset="34476" size="36"/>
				<biases offset="34512" size="4"/>
			</blobs>
		</layer>
		<layer id="258" name="unit0_1/branch_30/bn2/Relu" precision="FP32" type="ReLU">
			<input>
				<port id="0">
					<dim>1</dim>
					<dim>1</dim>
					<dim>28</dim>
					<dim>28</dim>
				</port>
			</input>
			<output>
				<port id="1">
					<dim>1</dim>
					<dim>1</dim>
					<dim>28</dim>
					<dim>28</dim>
				</port>
			</output>
		</layer>
		<layer id="259" name="unit0_1/branch_31/1x1conv/Conv2D" precision="FP32" type="Convolution">
			<data auto_pad="same_upper" dilations="1,1" group="1" kernel="1,1" output="1" pads_begin="0,0" pads_end="0,0" strides="1,1"/>
			<input>
				<port id="0">
					<dim>1</dim>
					<dim>64</dim>
					<dim>28</dim>
					<dim>28</dim>
				</port>
			</input>
			<output>
				<port id="3">
					<dim>1</dim>
					<dim>1</dim>
					<dim>28</dim>
					<dim>28</dim>
				</port>
			</output>
			<blobs>
				<weights offset="34516" size="256"/>
				<biases offset="34772" size="4"/>
			</blobs>
		</layer>
		<layer id="260" name="unit0_1/branch_31/bn1/Relu" precision="FP32" type="ReLU">
			<input>
				<port id="0">
					<dim>1</dim>
					<dim>1</dim>
					<dim>28</dim>
					<dim>28</dim>
				</port>
			</input>
			<output>
				<port id="1">
					<dim>1</dim>
					<dim>1</dim>
					<dim>28</dim>
					<dim>28</dim>
				</port>
			</output>
		</layer>
		<layer id="261" name="unit0_1/branch_31/3x3conv/Conv2D" precision="FP32" type="Convolution">
			<data auto_pad="same_upper" dilations="1,1" group="1" kernel="3,3" output="1" pads_begin="1,1" pads_end="1,1" strides="1,1"/>
			<input>
				<port id="0">
					<dim>1</dim>
					<dim>1</dim>
					<dim>28</dim>
					<dim>28</dim>
				</port>
			</input>
			<output>
				<port id="3">
					<dim>1</dim>
					<dim>1</dim>
					<dim>28</dim>
					<dim>28</dim>
				</port>
			</output>
			<blobs>
				<weights offset="34776" size="36"/>
				<biases offset="34812" size="4"/>
			</blobs>
		</layer>
		<layer id="262" name="unit0_1/branch_31/bn2/Relu" precision="FP32" type="ReLU">
			<input>
				<port id="0">
					<dim>1</dim>
					<dim>1</dim>
					<dim>28</dim>
					<dim>28</dim>
				</port>
			</input>
			<output>
				<port id="1">
					<dim>1</dim>
					<dim>1</dim>
					<dim>28</dim>
					<dim>28</dim>
				</port>
			</output>
		</layer>
		<layer id="263" name="unit0_1/concat" precision="FP32" type="Concat">
			<data axis="1"/>
			<input>
				<port id="0">
					<dim>1</dim>
					<dim>1</dim>
					<dim>28</dim>
					<dim>28</dim>
				</port>
				<port id="1">
					<dim>1</dim>
					<dim>1</dim>
					<dim>28</dim>
					<dim>28</dim>
				</port>
				<port id="2">
					<dim>1</dim>
					<dim>1</dim>
					<dim>28</dim>
					<dim>28</dim>
				</port>
				<port id="3">
					<dim>1</dim>
					<dim>1</dim>
					<dim>28</dim>
					<dim>28</dim>
				</port>
				<port id="4">
					<dim>1</dim>
					<dim>1</dim>
					<dim>28</dim>
					<dim>28</dim>
				</port>
				<port id="5">
					<dim>1</dim>
					<dim>1</dim>
					<dim>28</dim>
					<dim>28</dim>
				</port>
				<port id="6">
					<dim>1</dim>
					<dim>1</dim>
					<dim>28</dim>
					<dim>28</dim>
				</port>
				<port id="7">
					<dim>1</dim>
					<dim>1</dim>
					<dim>28</dim>
					<dim>28</dim>
				</port>
				<port id="8">
					<dim>1</dim>
					<dim>1</dim>
					<dim>28</dim>
					<dim>28</dim>
				</port>
				<port id="9">
					<dim>1</dim>
					<dim>1</dim>
					<dim>28</dim>
					<dim>28</dim>
				</port>
				<port id="10">
					<dim>1</dim>
					<dim>1</dim>
					<dim>28</dim>
					<dim>28</dim>
				</port>
				<port id="11">
					<dim>1</dim>
					<dim>1</dim>
					<dim>28</dim>
					<dim>28</dim>
				</port>
				<port id="12">
					<dim>1</dim>
					<dim>1</dim>
					<dim>28</dim>
					<dim>28</dim>
				</port>
				<port id="13">
					<dim>1</dim>
					<dim>1</dim>
					<dim>28</dim>
					<dim>28</dim>
				</port>
				<port id="14">
					<dim>1</dim>
					<dim>1</dim>
					<dim>28</dim>
					<dim>28</dim>
				</port>
				<port id="15">
					<dim>1</dim>
					<dim>1</dim>
					<dim>28</dim>
					<dim>28</dim>
				</port>
				<port id="16">
					<dim>1</dim>
					<dim>1</dim>
					<dim>28</dim>
					<dim>28</dim>
				</port>
				<port id="17">
					<dim>1</dim>
					<dim>1</dim>
					<dim>28</dim>
					<dim>28</dim>
				</port>
				<port id="18">
					<dim>1</dim>
					<dim>1</dim>
					<dim>28</dim>
					<dim>28</dim>
				</port>
				<port id="19">
					<dim>1</dim>
					<dim>1</dim>
					<dim>28</dim>
					<dim>28</dim>
				</port>
				<port id="20">
					<dim>1</dim>
					<dim>1</dim>
					<dim>28</dim>
					<dim>28</dim>
				</port>
				<port id="21">
					<dim>1</dim>
					<dim>1</dim>
					<dim>28</dim>
					<dim>28</dim>
				</port>
				<port id="22">
					<dim>1</dim>
					<dim>1</dim>
					<dim>28</dim>
					<dim>28</dim>
				</port>
				<port id="23">
					<dim>1</dim>
					<dim>1</dim>
					<dim>28</dim>
					<dim>28</dim>
				</port>
				<port id="24">
					<dim>1</dim>
					<dim>1</dim>
					<dim>28</dim>
					<dim>28</dim>
				</port>
				<port id="25">
					<dim>1</dim>
					<dim>1</dim>
					<dim>28</dim>
					<dim>28</dim>
				</port>
				<port id="26">
					<dim>1</dim>
					<dim>1</dim>
					<dim>28</dim>
					<dim>28</dim>
				</port>
				<port id="27">
					<dim>1</dim>
					<dim>1</dim>
					<dim>28</dim>
					<dim>28</dim>
				</port>
				<port id="28">
					<dim>1</dim>
					<dim>1</dim>
					<dim>28</dim>
					<dim>28</dim>
				</port>
				<port id="29">
					<dim>1</dim>
					<dim>1</dim>
					<dim>28</dim>
					<dim>28</dim>
				</port>
				<port id="30">
					<dim>1</dim>
					<dim>1</dim>
					<dim>28</dim>
					<dim>28</dim>
				</port>
				<port id="31">
					<dim>1</dim>
					<dim>1</dim>
					<dim>28</dim>
					<dim>28</dim>
				</port>
			</input>
			<output>
				<port id="32">
					<dim>1</dim>
					<dim>32</dim>
					<dim>28</dim>
					<dim>28</dim>
				</port>
			</output>
		</layer>
		<layer id="264" name="unit0_1/Conv/Conv2D" precision="FP32" type="Convolution">
			<data auto_pad="same_upper" dilations="1,1" group="1" kernel="1,1" output="64" pads_begin="0,0" pads_end="0,0" strides="1,1"/>
			<input>
				<port id="0">
					<dim>1</dim>
					<dim>32</dim>
					<dim>28</dim>
					<dim>28</dim>
				</port>
			</input>
			<output>
				<port id="3">
					<dim>1</dim>
					<dim>64</dim>
					<dim>28</dim>
					<dim>28</dim>
				</port>
			</output>
			<blobs>
				<weights offset="34816" size="8192"/>
				<biases offset="43008" size="256"/>
			</blobs>
		</layer>
		<layer id="265" name="unit0_1/add" precision="FP32" type="Eltwise">
			<data operation="sum"/>
			<input>
				<port id="0">
					<dim>1</dim>
					<dim>64</dim>
					<dim>28</dim>
					<dim>28</dim>
				</port>
				<port id="1">
					<dim>1</dim>
					<dim>64</dim>
					<dim>28</dim>
					<dim>28</dim>
				</port>
			</input>
			<output>
				<port id="2">
					<dim>1</dim>
					<dim>64</dim>
					<dim>28</dim>
					<dim>28</dim>
				</port>
			</output>
		</layer>
		<layer id="266" name="unit0_1/Relu" precision="FP32" type="ReLU">
			<input>
				<port id="0">
					<dim>1</dim>
					<dim>64</dim>
					<dim>28</dim>
					<dim>28</dim>
				</port>
			</input>
			<output>
				<port id="1">
					<dim>1</dim>
					<dim>64</dim>
					<dim>28</dim>
					<dim>28</dim>
				</port>
			</output>
		</layer>
		<layer id="267" name="unit0_2/branch_0/1x1conv/Conv2D" precision="FP32" type="Convolution">
			<data auto_pad="same_upper" dilations="1,1" group="1" kernel="1,1" output="1" pads_begin="0,0" pads_end="0,0" strides="1,1"/>
			<input>
				<port id="0">
					<dim>1</dim>
					<dim>64</dim>
					<dim>28</dim>
					<dim>28</dim>
				</port>
			</input>
			<output>
				<port id="3">
					<dim>1</dim>
					<dim>1</dim>
					<dim>28</dim>
					<dim>28</dim>
				</port>
			</output>
			<blobs>
				<weights offset="43264" size="256"/>
				<biases offset="43520" size="4"/>
			</blobs>
		</layer>
		<layer id="268" name="unit0_2/branch_0/bn1/Relu" precision="FP32" type="ReLU">
			<input>
				<port id="0">
					<dim>1</dim>
					<dim>1</dim>
					<dim>28</dim>
					<dim>28</dim>
				</port>
			</input>
			<output>
				<port id="1">
					<dim>1</dim>
					<dim>1</dim>
					<dim>28</dim>
					<dim>28</dim>
				</port>
			</output>
		</layer>
		<layer id="269" name="unit0_2/branch_0/3x3conv/Conv2D" precision="FP32" type="Convolution">
			<data auto_pad="same_upper" dilations="1,1" group="1" kernel="3,3" output="1" pads_begin="1,1" pads_end="1,1" strides="1,1"/>
			<input>
				<port id="0">
					<dim>1</dim>
					<dim>1</dim>
					<dim>28</dim>
					<dim>28</dim>
				</port>
			</input>
			<output>
				<port id="3">
					<dim>1</dim>
					<dim>1</dim>
					<dim>28</dim>
					<dim>28</dim>
				</port>
			</output>
			<blobs>
				<weights offset="43524" size="36"/>
				<biases offset="43560" size="4"/>
			</blobs>
		</layer>
		<layer id="270" name="unit0_2/branch_0/bn2/Relu" precision="FP32" type="ReLU">
			<input>
				<port id="0">
					<dim>1</dim>
					<dim>1</dim>
					<dim>28</dim>
					<dim>28</dim>
				</port>
			</input>
			<output>
				<port id="1">
					<dim>1</dim>
					<dim>1</dim>
					<dim>28</dim>
					<dim>28</dim>
				</port>
			</output>
		</layer>
		<layer id="271" name="unit0_2/branch_1/1x1conv/Conv2D" precision="FP32" type="Convolution">
			<data auto_pad="same_upper" dilations="1,1" group="1" kernel="1,1" output="1" pads_begin="0,0" pads_end="0,0" strides="1,1"/>
			<input>
				<port id="0">
					<dim>1</dim>
					<dim>64</dim>
					<dim>28</dim>
					<dim>28</dim>
				</port>
			</input>
			<output>
				<port id="3">
					<dim>1</dim>
					<dim>1</dim>
					<dim>28</dim>
					<dim>28</dim>
				</port>
			</output>
			<blobs>
				<weights offset="43564" size="256"/>
				<biases offset="43820" size="4"/>
			</blobs>
		</layer>
		<layer id="272" name="unit0_2/branch_1/bn1/Relu" precision="FP32" type="ReLU">
			<input>
				<port id="0">
					<dim>1</dim>
					<dim>1</dim>
					<dim>28</dim>
					<dim>28</dim>
				</port>
			</input>
			<output>
				<port id="1">
					<dim>1</dim>
					<dim>1</dim>
					<dim>28</dim>
					<dim>28</dim>
				</port>
			</output>
		</layer>
		<layer id="273" name="unit0_2/branch_1/3x3conv/Conv2D" precision="FP32" type="Convolution">
			<data auto_pad="same_upper" dilations="1,1" group="1" kernel="3,3" output="1" pads_begin="1,1" pads_end="1,1" strides="1,1"/>
			<input>
				<port id="0">
					<dim>1</dim>
					<dim>1</dim>
					<dim>28</dim>
					<dim>28</dim>
				</port>
			</input>
			<output>
				<port id="3">
					<dim>1</dim>
					<dim>1</dim>
					<dim>28</dim>
					<dim>28</dim>
				</port>
			</output>
			<blobs>
				<weights offset="43824" size="36"/>
				<biases offset="43860" size="4"/>
			</blobs>
		</layer>
		<layer id="274" name="unit0_2/branch_1/bn2/Relu" precision="FP32" type="ReLU">
			<input>
				<port id="0">
					<dim>1</dim>
					<dim>1</dim>
					<dim>28</dim>
					<dim>28</dim>
				</port>
			</input>
			<output>
				<port id="1">
					<dim>1</dim>
					<dim>1</dim>
					<dim>28</dim>
					<dim>28</dim>
				</port>
			</output>
		</layer>
		<layer id="275" name="unit0_2/branch_2/1x1conv/Conv2D" precision="FP32" type="Convolution">
			<data auto_pad="same_upper" dilations="1,1" group="1" kernel="1,1" output="1" pads_begin="0,0" pads_end="0,0" strides="1,1"/>
			<input>
				<port id="0">
					<dim>1</dim>
					<dim>64</dim>
					<dim>28</dim>
					<dim>28</dim>
				</port>
			</input>
			<output>
				<port id="3">
					<dim>1</dim>
					<dim>1</dim>
					<dim>28</dim>
					<dim>28</dim>
				</port>
			</output>
			<blobs>
				<weights offset="43864" size="256"/>
				<biases offset="44120" size="4"/>
			</blobs>
		</layer>
		<layer id="276" name="unit0_2/branch_2/bn1/Relu" precision="FP32" type="ReLU">
			<input>
				<port id="0">
					<dim>1</dim>
					<dim>1</dim>
					<dim>28</dim>
					<dim>28</dim>
				</port>
			</input>
			<output>
				<port id="1">
					<dim>1</dim>
					<dim>1</dim>
					<dim>28</dim>
					<dim>28</dim>
				</port>
			</output>
		</layer>
		<layer id="277" name="unit0_2/branch_2/3x3conv/Conv2D" precision="FP32" type="Convolution">
			<data auto_pad="same_upper" dilations="1,1" group="1" kernel="3,3" output="1" pads_begin="1,1" pads_end="1,1" strides="1,1"/>
			<input>
				<port id="0">
					<dim>1</dim>
					<dim>1</dim>
					<dim>28</dim>
					<dim>28</dim>
				</port>
			</input>
			<output>
				<port id="3">
					<dim>1</dim>
					<dim>1</dim>
					<dim>28</dim>
					<dim>28</dim>
				</port>
			</output>
			<blobs>
				<weights offset="44124" size="36"/>
				<biases offset="44160" size="4"/>
			</blobs>
		</layer>
		<layer id="278" name="unit0_2/branch_2/bn2/Relu" precision="FP32" type="ReLU">
			<input>
				<port id="0">
					<dim>1</dim>
					<dim>1</dim>
					<dim>28</dim>
					<dim>28</dim>
				</port>
			</input>
			<output>
				<port id="1">
					<dim>1</dim>
					<dim>1</dim>
					<dim>28</dim>
					<dim>28</dim>
				</port>
			</output>
		</layer>
		<layer id="279" name="unit0_2/branch_3/1x1conv/Conv2D" precision="FP32" type="Convolution">
			<data auto_pad="same_upper" dilations="1,1" group="1" kernel="1,1" output="1" pads_begin="0,0" pads_end="0,0" strides="1,1"/>
			<input>
				<port id="0">
					<dim>1</dim>
					<dim>64</dim>
					<dim>28</dim>
					<dim>28</dim>
				</port>
			</input>
			<output>
				<port id="3">
					<dim>1</dim>
					<dim>1</dim>
					<dim>28</dim>
					<dim>28</dim>
				</port>
			</output>
			<blobs>
				<weights offset="44164" size="256"/>
				<biases offset="44420" size="4"/>
			</blobs>
		</layer>
		<layer id="280" name="unit0_2/branch_3/bn1/Relu" precision="FP32" type="ReLU">
			<input>
				<port id="0">
					<dim>1</dim>
					<dim>1</dim>
					<dim>28</dim>
					<dim>28</dim>
				</port>
			</input>
			<output>
				<port id="1">
					<dim>1</dim>
					<dim>1</dim>
					<dim>28</dim>
					<dim>28</dim>
				</port>
			</output>
		</layer>
		<layer id="281" name="unit0_2/branch_3/3x3conv/Conv2D" precision="FP32" type="Convolution">
			<data auto_pad="same_upper" dilations="1,1" group="1" kernel="3,3" output="1" pads_begin="1,1" pads_end="1,1" strides="1,1"/>
			<input>
				<port id="0">
					<dim>1</dim>
					<dim>1</dim>
					<dim>28</dim>
					<dim>28</dim>
				</port>
			</input>
			<output>
				<port id="3">
					<dim>1</dim>
					<dim>1</dim>
					<dim>28</dim>
					<dim>28</dim>
				</port>
			</output>
			<blobs>
				<weights offset="44424" size="36"/>
				<biases offset="44460" size="4"/>
			</blobs>
		</layer>
		<layer id="282" name="unit0_2/branch_3/bn2/Relu" precision="FP32" type="ReLU">
			<input>
				<port id="0">
					<dim>1</dim>
					<dim>1</dim>
					<dim>28</dim>
					<dim>28</dim>
				</port>
			</input>
			<output>
				<port id="1">
					<dim>1</dim>
					<dim>1</dim>
					<dim>28</dim>
					<dim>28</dim>
				</port>
			</output>
		</layer>
		<layer id="283" name="unit0_2/branch_4/1x1conv/Conv2D" precision="FP32" type="Convolution">
			<data auto_pad="same_upper" dilations="1,1" group="1" kernel="1,1" output="1" pads_begin="0,0" pads_end="0,0" strides="1,1"/>
			<input>
				<port id="0">
					<dim>1</dim>
					<dim>64</dim>
					<dim>28</dim>
					<dim>28</dim>
				</port>
			</input>
			<output>
				<port id="3">
					<dim>1</dim>
					<dim>1</dim>
					<dim>28</dim>
					<dim>28</dim>
				</port>
			</output>
			<blobs>
				<weights offset="44464" size="256"/>
				<biases offset="44720" size="4"/>
			</blobs>
		</layer>
		<layer id="284" name="unit0_2/branch_4/bn1/Relu" precision="FP32" type="ReLU">
			<input>
				<port id="0">
					<dim>1</dim>
					<dim>1</dim>
					<dim>28</dim>
					<dim>28</dim>
				</port>
			</input>
			<output>
				<port id="1">
					<dim>1</dim>
					<dim>1</dim>
					<dim>28</dim>
					<dim>28</dim>
				</port>
			</output>
		</layer>
		<layer id="285" name="unit0_2/branch_4/3x3conv/Conv2D" precision="FP32" type="Convolution">
			<data auto_pad="same_upper" dilations="1,1" group="1" kernel="3,3" output="1" pads_begin="1,1" pads_end="1,1" strides="1,1"/>
			<input>
				<port id="0">
					<dim>1</dim>
					<dim>1</dim>
					<dim>28</dim>
					<dim>28</dim>
				</port>
			</input>
			<output>
				<port id="3">
					<dim>1</dim>
					<dim>1</dim>
					<dim>28</dim>
					<dim>28</dim>
				</port>
			</output>
			<blobs>
				<weights offset="44724" size="36"/>
				<biases offset="44760" size="4"/>
			</blobs>
		</layer>
		<layer id="286" name="unit0_2/branch_4/bn2/Relu" precision="FP32" type="ReLU">
			<input>
				<port id="0">
					<dim>1</dim>
					<dim>1</dim>
					<dim>28</dim>
					<dim>28</dim>
				</port>
			</input>
			<output>
				<port id="1">
					<dim>1</dim>
					<dim>1</dim>
					<dim>28</dim>
					<dim>28</dim>
				</port>
			</output>
		</layer>
		<layer id="287" name="unit0_2/branch_5/1x1conv/Conv2D" precision="FP32" type="Convolution">
			<data auto_pad="same_upper" dilations="1,1" group="1" kernel="1,1" output="1" pads_begin="0,0" pads_end="0,0" strides="1,1"/>
			<input>
				<port id="0">
					<dim>1</dim>
					<dim>64</dim>
					<dim>28</dim>
					<dim>28</dim>
				</port>
			</input>
			<output>
				<port id="3">
					<dim>1</dim>
					<dim>1</dim>
					<dim>28</dim>
					<dim>28</dim>
				</port>
			</output>
			<blobs>
				<weights offset="44764" size="256"/>
				<biases offset="45020" size="4"/>
			</blobs>
		</layer>
		<layer id="288" name="unit0_2/branch_5/bn1/Relu" precision="FP32" type="ReLU">
			<input>
				<port id="0">
					<dim>1</dim>
					<dim>1</dim>
					<dim>28</dim>
					<dim>28</dim>
				</port>
			</input>
			<output>
				<port id="1">
					<dim>1</dim>
					<dim>1</dim>
					<dim>28</dim>
					<dim>28</dim>
				</port>
			</output>
		</layer>
		<layer id="289" name="unit0_2/branch_5/3x3conv/Conv2D" precision="FP32" type="Convolution">
			<data auto_pad="same_upper" dilations="1,1" group="1" kernel="3,3" output="1" pads_begin="1,1" pads_end="1,1" strides="1,1"/>
			<input>
				<port id="0">
					<dim>1</dim>
					<dim>1</dim>
					<dim>28</dim>
					<dim>28</dim>
				</port>
			</input>
			<output>
				<port id="3">
					<dim>1</dim>
					<dim>1</dim>
					<dim>28</dim>
					<dim>28</dim>
				</port>
			</output>
			<blobs>
				<weights offset="45024" size="36"/>
				<biases offset="45060" size="4"/>
			</blobs>
		</layer>
		<layer id="290" name="unit0_2/branch_5/bn2/Relu" precision="FP32" type="ReLU">
			<input>
				<port id="0">
					<dim>1</dim>
					<dim>1</dim>
					<dim>28</dim>
					<dim>28</dim>
				</port>
			</input>
			<output>
				<port id="1">
					<dim>1</dim>
					<dim>1</dim>
					<dim>28</dim>
					<dim>28</dim>
				</port>
			</output>
		</layer>
		<layer id="291" name="unit0_2/branch_6/1x1conv/Conv2D" precision="FP32" type="Convolution">
			<data auto_pad="same_upper" dilations="1,1" group="1" kernel="1,1" output="1" pads_begin="0,0" pads_end="0,0" strides="1,1"/>
			<input>
				<port id="0">
					<dim>1</dim>
					<dim>64</dim>
					<dim>28</dim>
					<dim>28</dim>
				</port>
			</input>
			<output>
				<port id="3">
					<dim>1</dim>
					<dim>1</dim>
					<dim>28</dim>
					<dim>28</dim>
				</port>
			</output>
			<blobs>
				<weights offset="45064" size="256"/>
				<biases offset="45320" size="4"/>
			</blobs>
		</layer>
		<layer id="292" name="unit0_2/branch_6/bn1/Relu" precision="FP32" type="ReLU">
			<input>
				<port id="0">
					<dim>1</dim>
					<dim>1</dim>
					<dim>28</dim>
					<dim>28</dim>
				</port>
			</input>
			<output>
				<port id="1">
					<dim>1</dim>
					<dim>1</dim>
					<dim>28</dim>
					<dim>28</dim>
				</port>
			</output>
		</layer>
		<layer id="293" name="unit0_2/branch_6/3x3conv/Conv2D" precision="FP32" type="Convolution">
			<data auto_pad="same_upper" dilations="1,1" group="1" kernel="3,3" output="1" pads_begin="1,1" pads_end="1,1" strides="1,1"/>
			<input>
				<port id="0">
					<dim>1</dim>
					<dim>1</dim>
					<dim>28</dim>
					<dim>28</dim>
				</port>
			</input>
			<output>
				<port id="3">
					<dim>1</dim>
					<dim>1</dim>
					<dim>28</dim>
					<dim>28</dim>
				</port>
			</output>
			<blobs>
				<weights offset="45324" size="36"/>
				<biases offset="45360" size="4"/>
			</blobs>
		</layer>
		<layer id="294" name="unit0_2/branch_6/bn2/Relu" precision="FP32" type="ReLU">
			<input>
				<port id="0">
					<dim>1</dim>
					<dim>1</dim>
					<dim>28</dim>
					<dim>28</dim>
				</port>
			</input>
			<output>
				<port id="1">
					<dim>1</dim>
					<dim>1</dim>
					<dim>28</dim>
					<dim>28</dim>
				</port>
			</output>
		</layer>
		<layer id="295" name="unit0_2/branch_7/1x1conv/Conv2D" precision="FP32" type="Convolution">
			<data auto_pad="same_upper" dilations="1,1" group="1" kernel="1,1" output="1" pads_begin="0,0" pads_end="0,0" strides="1,1"/>
			<input>
				<port id="0">
					<dim>1</dim>
					<dim>64</dim>
					<dim>28</dim>
					<dim>28</dim>
				</port>
			</input>
			<output>
				<port id="3">
					<dim>1</dim>
					<dim>1</dim>
					<dim>28</dim>
					<dim>28</dim>
				</port>
			</output>
			<blobs>
				<weights offset="45364" size="256"/>
				<biases offset="45620" size="4"/>
			</blobs>
		</layer>
		<layer id="296" name="unit0_2/branch_7/bn1/Relu" precision="FP32" type="ReLU">
			<input>
				<port id="0">
					<dim>1</dim>
					<dim>1</dim>
					<dim>28</dim>
					<dim>28</dim>
				</port>
			</input>
			<output>
				<port id="1">
					<dim>1</dim>
					<dim>1</dim>
					<dim>28</dim>
					<dim>28</dim>
				</port>
			</output>
		</layer>
		<layer id="297" name="unit0_2/branch_7/3x3conv/Conv2D" precision="FP32" type="Convolution">
			<data auto_pad="same_upper" dilations="1,1" group="1" kernel="3,3" output="1" pads_begin="1,1" pads_end="1,1" strides="1,1"/>
			<input>
				<port id="0">
					<dim>1</dim>
					<dim>1</dim>
					<dim>28</dim>
					<dim>28</dim>
				</port>
			</input>
			<output>
				<port id="3">
					<dim>1</dim>
					<dim>1</dim>
					<dim>28</dim>
					<dim>28</dim>
				</port>
			</output>
			<blobs>
				<weights offset="45624" size="36"/>
				<biases offset="45660" size="4"/>
			</blobs>
		</layer>
		<layer id="298" name="unit0_2/branch_7/bn2/Relu" precision="FP32" type="ReLU">
			<input>
				<port id="0">
					<dim>1</dim>
					<dim>1</dim>
					<dim>28</dim>
					<dim>28</dim>
				</port>
			</input>
			<output>
				<port id="1">
					<dim>1</dim>
					<dim>1</dim>
					<dim>28</dim>
					<dim>28</dim>
				</port>
			</output>
		</layer>
		<layer id="299" name="unit0_2/branch_8/1x1conv/Conv2D" precision="FP32" type="Convolution">
			<data auto_pad="same_upper" dilations="1,1" group="1" kernel="1,1" output="1" pads_begin="0,0" pads_end="0,0" strides="1,1"/>
			<input>
				<port id="0">
					<dim>1</dim>
					<dim>64</dim>
					<dim>28</dim>
					<dim>28</dim>
				</port>
			</input>
			<output>
				<port id="3">
					<dim>1</dim>
					<dim>1</dim>
					<dim>28</dim>
					<dim>28</dim>
				</port>
			</output>
			<blobs>
				<weights offset="45664" size="256"/>
				<biases offset="45920" size="4"/>
			</blobs>
		</layer>
		<layer id="300" name="unit0_2/branch_8/bn1/Relu" precision="FP32" type="ReLU">
			<input>
				<port id="0">
					<dim>1</dim>
					<dim>1</dim>
					<dim>28</dim>
					<dim>28</dim>
				</port>
			</input>
			<output>
				<port id="1">
					<dim>1</dim>
					<dim>1</dim>
					<dim>28</dim>
					<dim>28</dim>
				</port>
			</output>
		</layer>
		<layer id="301" name="unit0_2/branch_8/3x3conv/Conv2D" precision="FP32" type="Convolution">
			<data auto_pad="same_upper" dilations="1,1" group="1" kernel="3,3" output="1" pads_begin="1,1" pads_end="1,1" strides="1,1"/>
			<input>
				<port id="0">
					<dim>1</dim>
					<dim>1</dim>
					<dim>28</dim>
					<dim>28</dim>
				</port>
			</input>
			<output>
				<port id="3">
					<dim>1</dim>
					<dim>1</dim>
					<dim>28</dim>
					<dim>28</dim>
				</port>
			</output>
			<blobs>
				<weights offset="45924" size="36"/>
				<biases offset="45960" size="4"/>
			</blobs>
		</layer>
		<layer id="302" name="unit0_2/branch_8/bn2/Relu" precision="FP32" type="ReLU">
			<input>
				<port id="0">
					<dim>1</dim>
					<dim>1</dim>
					<dim>28</dim>
					<dim>28</dim>
				</port>
			</input>
			<output>
				<port id="1">
					<dim>1</dim>
					<dim>1</dim>
					<dim>28</dim>
					<dim>28</dim>
				</port>
			</output>
		</layer>
		<layer id="303" name="unit0_2/branch_9/1x1conv/Conv2D" precision="FP32" type="Convolution">
			<data auto_pad="same_upper" dilations="1,1" group="1" kernel="1,1" output="1" pads_begin="0,0" pads_end="0,0" strides="1,1"/>
			<input>
				<port id="0">
					<dim>1</dim>
					<dim>64</dim>
					<dim>28</dim>
					<dim>28</dim>
				</port>
			</input>
			<output>
				<port id="3">
					<dim>1</dim>
					<dim>1</dim>
					<dim>28</dim>
					<dim>28</dim>
				</port>
			</output>
			<blobs>
				<weights offset="45964" size="256"/>
				<biases offset="46220" size="4"/>
			</blobs>
		</layer>
		<layer id="304" name="unit0_2/branch_9/bn1/Relu" precision="FP32" type="ReLU">
			<input>
				<port id="0">
					<dim>1</dim>
					<dim>1</dim>
					<dim>28</dim>
					<dim>28</dim>
				</port>
			</input>
			<output>
				<port id="1">
					<dim>1</dim>
					<dim>1</dim>
					<dim>28</dim>
					<dim>28</dim>
				</port>
			</output>
		</layer>
		<layer id="305" name="unit0_2/branch_9/3x3conv/Conv2D" precision="FP32" type="Convolution">
			<data auto_pad="same_upper" dilations="1,1" group="1" kernel="3,3" output="1" pads_begin="1,1" pads_end="1,1" strides="1,1"/>
			<input>
				<port id="0">
					<dim>1</dim>
					<dim>1</dim>
					<dim>28</dim>
					<dim>28</dim>
				</port>
			</input>
			<output>
				<port id="3">
					<dim>1</dim>
					<dim>1</dim>
					<dim>28</dim>
					<dim>28</dim>
				</port>
			</output>
			<blobs>
				<weights offset="46224" size="36"/>
				<biases offset="46260" size="4"/>
			</blobs>
		</layer>
…
		<edge from-layer="651" from-port="3" to-layer="652" to-port="0"/>
		<edge from-layer="532" from-port="1" to-layer="653" to-port="0"/>
		<edge from-layer="653" from-port="3" to-layer="654" to-port="0"/>
		<edge from-layer="654" from-port="1" to-layer="655" to-port="0"/>
		<edge from-layer="655" from-port="3" to-layer="656" to-port="0"/>
		<edge from-layer="532" from-port="1" to-layer="657" to-port="0"/>
		<edge from-layer="657" from-port="3" to-layer="658" to-port="0"/>
		<edge from-layer="658" from-port="1" to-layer="659" to-port="0"/>
		<edge from-layer="659" from-port="3" to-layer="660" to-port="0"/>
		<edge from-layer="536" from-port="1" to-layer="661" to-port="0"/>
		<edge from-layer="540" from-port="1" to-layer="661" to-port="1"/>
		<edge from-layer="544" from-port="1" to-layer="661" to-port="2"/>
		<edge from-layer="548" from-port="1" to-layer="661" to-port="3"/>
		<edge from-layer="552" from-port="1" to-layer="661" to-port="4"/>
		<edge from-layer="556" from-port="1" to-layer="661" to-port="5"/>
		<edge from-layer="560" from-port="1" to-layer="661" to-port="6"/>
		<edge from-layer="564" from-port="1" to-layer="661" to-port="7"/>
		<edge from-layer="568" from-port="1" to-layer="661" to-port="8"/>
		<edge from-layer="572" from-port="1" to-layer="661" to-port="9"/>
		<edge from-layer="576" from-port="1" to-layer="661" to-port="10"/>
		<edge from-layer="580" from-port="1" to-layer="661" to-port="11"/>
		<edge from-layer="584" from-port="1" to-layer="661" to-port="12"/>
		<edge from-layer="588" from-port="1" to-layer="661" to-port="13"/>
		<edge from-layer="592" from-port="1" to-layer="661" to-port="14"/>
		<edge from-layer="596" from-port="1" to-layer="661" to-port="15"/>
		<edge from-layer="600" from-port="1" to-layer="661" to-port="16"/>
		<edge from-layer="604" from-port="1" to-layer="661" to-port="17"/>
		<edge from-layer="608" from-port="1" to-layer="661" to-port="18"/>
		<edge from-layer="612" from-port="1" to-layer="661" to-port="19"/>
		<edge from-layer="616" from-port="1" to-layer="661" to-port="20"/>
		<edge from-layer="620" from-port="1" to-layer="661" to-port="21"/>
		<edge from-layer="624" from-port="1" to-layer="661" to-port="22"/>
		<edge from-layer="628" from-port="1" to-layer="661" to-port="23"/>
		<edge from-layer="632" from-port="1" to-layer="661" to-port="24"/>
		<edge from-layer="636" from-port="1" to-layer="661" to-port="25"/>
		<edge from-layer="640" from-port="1" to-layer="661" to-port="26"/>
		<edge from-layer="644" from-port="1" to-layer="661" to-port="27"/>
		<edge from-layer="648" from-port="1" to-layer="661" to-port="28"/>
		<edge from-layer="652" from-port="1" to-layer="661" to-port="29"/>
		<edge from-layer="656" from-port="1" to-layer="661" to-port="30"/>
		<edge from-layer="660" from-port="1" to-layer="661" to-port="31"/>
		<edge from-layer="661" from-port="32" to-layer="662" to-port="0"/>
		<edge from-layer="662" from-port="3" to-layer="663" to-port="0"/>
		<edge from-layer="532" from-port="1" to-layer="663" to-port="1"/>
		<edge from-layer="663" from-port="2" to-layer="664" to-port="0"/>
		<edge from-layer="664" from-port="1" to-layer="665" to-port="0"/>
		<edge from-layer="665" from-port="3" to-layer="666" to-port="0"/>
		<edge from-layer="666" from-port="1" to-layer="667" to-port="0"/>
		<edge from-layer="667" from-port="3" to-layer="668" to-port="0"/>
		<edge from-layer="664" from-port="1" to-layer="669" to-port="0"/>
		<edge from-layer="669" from-port="3" to-layer="670" to-port="0"/>
		<edge from-layer="670" from-port="1" to-layer="671" to-port="0"/>
		<edge from-layer="671" from-port="3" to-layer="672" to-port="0"/>
		<edge from-layer="664" from-port="1" to-layer="673" to-port="0"/>
		<edge from-layer="673" from-port="3" to-layer="674" to-port="0"/>
		<edge from-layer="674" from-port="1" to-layer="675" to-port="0"/>
		<edge from-layer="675" from-port="3" to-layer="676" to-port="0"/>
		<edge from-layer="664" from-port="1" to-layer="677" to-port="0"/>
		<edge from-layer="677" from-port="3" to-layer="678" to-port="0"/>
		<edge from-layer="678" from-port="1" to-layer="679" to-port="0"/>
		<edge from-layer="679" from-port="3" to-layer="680" to-port="0"/>
		<edge from-layer="664" from-port="1" to-layer="681" to-port="0"/>
		<edge from-layer="681" from-port="3" to-layer="682" to-port="0"/>
		<edge from-layer="682" from-port="1" to-layer="683" to-port="0"/>
		<edge from-layer="683" from-port="3" to-layer="684" to-port="0"/>
		<edge from-layer="664" from-port="1" to-layer="685" to-port="0"/>
		<edge from-layer="685" from-port="3" to-layer="686" to-port="0"/>
		<edge from-layer="686" from-port="1" to-layer="687" to-port="0"/>
		<edge from-layer="687" from-port="3" to-layer="688" to-port="0"/>
		<edge from-layer="664" from-port="1" to-layer="689" to-port="0"/>
		<edge from-layer="689" from-port="3" to-layer="690" to-port="0"/>
		<edge from-layer="690" from-port="1" to-layer="691" to-port="0"/>
		<edge from-layer="691" from-port="3" to-layer="692" to-port="0"/>
		<edge from-layer="664" from-port="1" to-layer="693" to-port="0"/>
		<edge from-layer="693" from-port="3" to-layer="694" to-port="0"/>
		<edge from-layer="694" from-port="1" to-layer="695" to-port="0"/>
		<edge from-layer="695" from-port="3" to-layer="696" to-port="0"/>
		<edge from-layer="664" from-port="1" to-layer="697" to-port="0"/>
		<edge from-layer="697" from-port="3" to-layer="698" to-port="0"/>
		<edge from-layer="698" from-port="1" to-layer="699" to-port="0"/>
		<edge from-layer="699" from-port="3" to-layer="700" to-port="0"/>
		<edge from-layer="664" from-port="1" to-layer="701" to-port="0"/>
		<edge from-layer="701" from-port="3" to-layer="702" to-port="0"/>
		<edge from-layer="702" from-port="1" to-layer="703" to-port="0"/>
		<edge from-layer="703" from-port="3" to-layer="704" to-port="0"/>
		<edge from-layer="664" from-port="1" to-layer="705" to-port="0"/>
		<edge from-layer="705" from-port="3" to-layer="706" to-port="0"/>
		<edge from-layer="706" from-port="1" to-layer="707" to-port="0"/>
		<edge from-layer="707" from-port="3" to-layer="708" to-port="0"/>
		<edge from-layer="664" from-port="1" to-layer="709" to-port="0"/>
		<edge from-layer="709" from-port="3" to-layer="710" to-port="0"/>
		<edge from-layer="710" from-port="1" to-layer="711" to-port="0"/>
		<edge from-layer="711" from-port="3" to-layer="712" to-port="0"/>
		<edge from-layer="664" from-port="1" to-layer="713" to-port="0"/>
		<edge from-layer="713" from-port="3" to-layer="714" to-port="0"/>
		<edge from-layer="714" from-port="1" to-layer="715" to-port="0"/>
		<edge from-layer="715" from-port="3" to-layer="716" to-port="0"/>
		<edge from-layer="664" from-port="1" to-layer="717" to-port="0"/>
		<edge from-layer="717" from-port="3" to-layer="718" to-port="0"/>
		<edge from-layer="718" from-port="1" to-layer="719" to-port="0"/>
		<edge from-layer="719" from-port="3" to-layer="720" to-port="0"/>
		<edge from-layer="664" from-port="1" to-layer="721" to-port="0"/>
		<edge from-layer="721" from-port="3" to-layer="722" to-port="0"/>
		<edge from-layer="722" from-port="1" to-layer="723" to-port="0"/>
		<edge from-layer="723" from-port="3" to-layer="724" to-port="0"/>
		<edge from-layer="664" from-port="1" to-layer="725" to-port="0"/>
		<edge from-layer="725" from-port="3" to-layer="726" to-port="0"/>
		<edge from-layer="726" from-port="1" to-layer="727" to-port="0"/>
		<edge from-layer="727" from-port="3" to-layer="728" to-port="0"/>
		<edge from-layer="664" from-port="1" to-layer="729" to-port="0"/>
		<edge from-layer="729" from-port="3" to-layer="730" to-port="0"/>
		<edge from-layer="730" from-port="1" to-layer="731" to-port="0"/>
		<edge from-layer="731" from-port="3" to-layer="732" to-port="0"/>
		<edge from-layer="664" from-port="1" to-layer="733" to-port="0"/>
		<edge from-layer="733" from-port="3" to-layer="734" to-port="0"/>
		<edge from-layer="734" from-port="1" to-layer="735" to-port="0"/>
		<edge from-layer="735" from-port="3" to-layer="736" to-port="0"/>
		<edge from-layer="664" from-port="1" to-layer="737" to-port="0"/>
		<edge from-layer="737" from-port="3" to-layer="738" to-port="0"/>
		<edge from-layer="738" from-port="1" to-layer="739" to-port="0"/>
		<edge from-layer="739" from-port="3" to-layer="740" to-port="0"/>
		<edge from-layer="664" from-port="1" to-layer="741" to-port="0"/>
		<edge from-layer="741" from-port="3" to-layer="742" to-port="0"/>
		<edge from-layer="742" from-port="1" to-layer="743" to-port="0"/>
		<edge from-layer="743" from-port="3" to-layer="744" to-port="0"/>
		<edge from-layer="664" from-port="1" to-layer="745" to-port="0"/>
		<edge from-layer="745" from-port="3" to-layer="746" to-port="0"/>
		<edge from-layer="746" from-port="1" to-layer="747" to-port="0"/>
		<edge from-layer="747" from-port="3" to-layer="748" to-port="0"/>
		<edge from-layer="664" from-port="1" to-layer="749" to-port="0"/>
		<edge from-layer="749" from-port="3" to-layer="750" to-port="0"/>
		<edge from-layer="750" from-port="1" to-layer="751" to-port="0"/>
		<edge from-layer="751" from-port="3" to-layer="752" to-port="0"/>
		<edge from-layer="664" from-port="1" to-layer="753" to-port="0"/>
		<edge from-layer="753" from-port="3" to-layer="754" to-port="0"/>
		<edge from-layer="754" from-port="1" to-layer="755" to-port="0"/>
		<edge from-layer="755" from-port="3" to-layer="756" to-port="0"/>
		<edge from-layer="664" from-port="1" to-layer="757" to-port="0"/>
		<edge from-layer="757" from-port="3" to-layer="758" to-port="0"/>
		<edge from-layer="758" from-port="1" to-layer="759" to-port="0"/>
		<edge from-layer="759" from-port="3" to-layer="760" to-port="0"/>
		<edge from-layer="664" from-port="1" to-layer="761" to-port="0"/>
		<edge from-layer="761" from-port="3" to-layer="762" to-port="0"/>
		<edge from-layer="762" from-port="1" to-layer="763" to-port="0"/>
		<edge from-layer="763" from-port="3" to-layer="764" to-port="0"/>
		<edge from-layer="664" from-port="1" to-layer="765" to-port="0"/>
		<edge from-layer="765" from-port="3" to-layer="766" to-port="0"/>
		<edge from-layer="766" from-port="1" to-layer="767" to-port="0"/>
		<edge from-layer="767" from-port="3" to-layer="768" to-port="0"/>
		<edge from-layer="664" from-port="1" to-layer="769" to-port="0"/>
		<edge from-layer="769" from-port="3" to-layer="770" to-port="0"/>
		<edge from-layer="770" from-port="1" to-layer="771" to-port="0"/>
		<edge from-layer="771" from-port="3" to-layer="772" to-port="0"/>
		<edge from-layer="664" from-port="1" to-layer="773" to-port="0"/>
		<edge from-layer="773" from-port="3" to-layer="774" to-port="0"/>
		<edge from-layer="774" from-port="1" to-layer="775" to-port="0"/>
		<edge from-layer="775" from-port="3" to-layer="776" to-port="0"/>
		<edge from-layer="664" from-port="1" to-layer="777" to-port="0"/>
		<edge from-layer="777" from-port="3" to-layer="778" to-port="0"/>
		<edge from-layer="778" from-port="1" to-layer="779" to-port="0"/>
		<edge from-layer="779" from-port="3" to-layer="780" to-port="0"/>
		<edge from-layer="664" from-port="1" to-layer="781" to-port="0"/>
		<edge from-layer="781" from-port="3" to-layer="782" to-port="0"/>
		<edge from-layer="782" from-port="1" to-layer="783" to-port="0"/>
		<edge from-layer="783" from-port="3" to-layer="784" to-port="0"/>
		<edge from-layer="664" from-port="1" to-layer="785" to-port="0"/>
		<edge from-layer="785" from-port="3" to-layer="786" to-port="0"/>
		<edge from-layer="786" from-port="1" to-layer="787" to-port="0"/>
		<edge from-layer="787" from-port="3" to-layer="788" to-port="0"/>
		<edge from-layer="664" from-port="1" to-layer="789" to-port="0"/>
		<edge from-layer="789" from-port="3" to-layer="790" to-port="0"/>
		<edge from-layer="790" from-port="1" to-layer="791" to-port="0"/>
		<edge from-layer="791" from-port="3" to-layer="792" to-port="0"/>
		<edge from-layer="668" from-port="1" to-layer="793" to-port="0"/>
		<edge from-layer="672" from-port="1" to-layer="793" to-port="1"/>
		<edge from-layer="676" from-port="1" to-layer="793" to-port="2"/>
		<edge from-layer="680" from-port="1" to-layer="793" to-port="3"/>
		<edge from-layer="684" from-port="1" to-layer="793" to-port="4"/>
		<edge from-layer="688" from-port="1" to-layer="793" to-port="5"/>
		<edge from-layer="692" from-port="1" to-layer="793" to-port="6"/>
		<edge from-layer="696" from-port="1" to-layer="793" to-port="7"/>
		<edge from-layer="700" from-port="1" to-layer="793" to-port="8"/>
		<edge from-layer="704" from-port="1" to-layer="793" to-port="9"/>
		<edge from-layer="708" from-port="1" to-layer="793" to-port="10"/>
		<edge from-layer="712" from-port="1" to-layer="793" to-port="11"/>
		<edge from-layer="716" from-port="1" to-layer="793" to-port="12"/>
		<edge from-layer="720" from-port="1" to-layer="793" to-port="13"/>
		<edge from-layer="724" from-port="1" to-layer="793" to-port="14"/>
		<edge from-layer="728" from-port="1" to-layer="793" to-port="15"/>
		<edge from-layer="732" from-port="1" to-layer="793" to-port="16"/>
		<edge from-layer="736" from-port="1" to-layer="793" to-port="17"/>
		<edge from-layer="740" from-port="1" to-layer="793" to-port="18"/>
		<edge from-layer="744" from-port="1" to-layer="793" to-port="19"/>
		<edge from-layer="748" from-port="1" to-layer="793" to-port="20"/>
		<edge from-layer="752" from-port="1" to-layer="793" to-port="21"/>
		<edge from-layer="756" from-port="1" to-layer="793" to-port="22"/>
		<edge from-layer="760" from-port="1" to-layer="793" to-port="23"/>
		<edge from-layer="764" from-port="1" to-layer="793" to-port="24"/>
		<edge from-layer="768" from-port="1" to-layer="793" to-port="25"/>
		<edge from-layer="772" from-port="1" to-layer="793" to-port="26"/>
		<edge from-layer="776" from-port="1" to-layer="793" to-port="27"/>
		<edge from-layer="780" from-port="1" to-layer="793" to-port="28"/>
		<edge from-layer="784" from-port="1" to-layer="793" to-port="29"/>
		<edge from-layer="788" from-port="1" to-layer="793" to-port="30"/>
		<edge from-layer="792" from-port="1" to-layer="793" to-port="31"/>
		<edge from-layer="793" from-port="32" to-layer="794" to-port="0"/>
		<edge from-layer="794" from-port="3" to-layer="795" to-port="0"/>
		<edge from-layer="664" from-port="1" to-layer="795" to-port="1"/>
		<edge from-layer="795" from-port="2" to-layer="796" to-port="0"/>
		<edge from-layer="796" from-port="1" to-layer="797" to-port="0"/>
		<edge from-layer="797" from-port="3" to-layer="798" to-port="0"/>
		<edge from-layer="798" from-port="1" to-layer="799" to-port="0"/>
		<edge from-layer="799" from-port="3" to-layer="800" to-port="0"/>
		<edge from-layer="796" from-port="1" to-layer="801" to-port="0"/>
		<edge from-layer="801" from-port="3" to-layer="802" to-port="0"/>
		<edge from-layer="802" from-port="1" to-layer="803" to-port="0"/>
		<edge from-layer="803" from-port="3" to-layer="804" to-port="0"/>
		<edge from-layer="796" from-port="1" to-layer="805" to-port="0"/>
		<edge from-layer="805" from-port="3" to-layer="806" to-port="0"/>
		<edge from-layer="806" from-port="1" to-layer="807" to-port="0"/>
		<edge from-layer="807" from-port="3" to-layer="808" to-port="0"/>
		<edge from-layer="796" from-port="1" to-layer="809" to-port="0"/>
		<edge from-layer="809" from-port="3" to-layer="810" to-port="0"/>
		<edge from-layer="810" from-port="1" to-layer="811" to-port="0"/>
		<edge from-layer="811" from-port="3" to-layer="812" to-port="0"/>
		<edge from-layer="796" from-port="1" to-layer="813" to-port="0"/>
		<edge from-layer="813" from-port="3" to-layer="814" to-port="0"/>
		<edge from-layer="814" from-port="1" to-layer="815" to-port="0"/>
		<edge from-layer="815" from-port="3" to-layer="816" to-port="0"/>
		<edge from-layer="796" from-port="1" to-layer="817" to-port="0"/>
		<edge from-layer="817" from-port="3" to-layer="818" to-port="0"/>
		<edge from-layer="818" from-port="1" to-layer="819" to-port="0"/>
		<edge from-layer="819" from-port="3" to-layer="820" to-port="0"/>
		<edge from-layer="796" from-port="1" to-layer="821" to-port="0"/>
		<edge from-layer="821" from-port="3" to-layer="822" to-port="0"/>
		<edge from-layer="822" from-port="1" to-layer="823" to-port="0"/>
		<edge from-layer="823" from-port="3" to-layer="824" to-port="0"/>
		<edge from-layer="796" from-port="1" to-layer="825" to-port="0"/>
		<edge from-layer="825" from-port="3" to-layer="826" to-port="0"/>
		<edge from-layer="826" from-port="1" to-layer="827" to-port="0"/>
		<edge from-layer="827" from-port="3" to-layer="828" to-port="0"/>
		<edge from-layer="796" from-port="1" to-layer="829" to-port="0"/>
		<edge from-layer="829" from-port="3" to-layer="830" to-port="0"/>
		<edge from-layer="830" from-port="1" to-layer="831" to-port="0"/>
		<edge from-layer="831" from-port="3" to-layer="832" to-port="0"/>
		<edge from-layer="796" from-port="1" to-layer="833" to-port="0"/>
		<edge from-layer="833" from-port="3" to-layer="834" to-port="0"/>
		<edge from-layer="834" from-port="1" to-layer="835" to-port="0"/>
		<edge from-layer="835" from-port="3" to-layer="836" to-port="0"/>
		<edge from-layer="796" from-port="1" to-layer="837" to-port="0"/>
		<edge from-layer="837" from-port="3" to-layer="838" to-port="0"/>
		<edge from-layer="838" from-port="1" to-layer="839" to-port="0"/>
		<edge from-layer="839" from-port="3" to-layer="840" to-port="0"/>
		<edge from-layer="796" from-port="1" to-layer="841" to-port="0"/>
		<edge from-layer="841" from-port="3" to-layer="842" to-port="0"/>
		<edge from-layer="842" from-port="1" to-layer="843" to-port="0"/>
		<edge from-layer="843" from-port="3" to-layer="844" to-port="0"/>
		<edge from-layer="796" from-port="1" to-layer="845" to-port="0"/>
		<edge from-layer="845" from-port="3" to-layer="846" to-port="0"/>
		<edge from-layer="846" from-port="1" to-layer="847" to-port="0"/>
		<edge from-layer="847" from-port="3" to-layer="848" to-port="0"/>
		<edge from-layer="796" from-port="1" to-layer="849" to-port="0"/>
		<edge from-layer="849" from-port="3" to-layer="850" to-port="0"/>
		<edge from-layer="850" from-port="1" to-layer="851" to-port="0"/>
		<edge from-layer="851" from-port="3" to-layer="852" to-port="0"/>
		<edge from-layer="796" from-port="1" to-layer="853" to-port="0"/>
		<edge from-layer="853" from-port="3" to-layer="854" to-port="0"/>
		<edge from-layer="854" from-port="1" to-layer="855" to-port="0"/>
		<edge from-layer="855" from-port="3" to-layer="856" to-port="0"/>
		<edge from-layer="796" from-port="1" to-layer="857" to-port="0"/>
		<edge from-layer="857" from-port="3" to-layer="858" to-port="0"/>
		<edge from-layer="858" from-port="1" to-layer="859" to-port="0"/>
		<edge from-layer="859" from-port="3" to-layer="860" to-port="0"/>
		<edge from-layer="796" from-port="1" to-layer="861" to-port="0"/>
		<edge from-layer="861" from-port="3" to-layer="862" to-port="0"/>
		<edge from-layer="862" from-port="1" to-layer="863" to-port="0"/>
		<edge from-layer="863" from-port="3" to-layer="864" to-port="0"/>
		<edge from-layer="796" from-port="1" to-layer="865" to-port="0"/>
		<edge from-layer="865" from-port="3" to-layer="866" to-port="0"/>
		<edge from-layer="866" from-port="1" to-layer="867" to-port="0"/>
		<edge from-layer="867" from-port="3" to-layer="868" to-port="0"/>
		<edge from-layer="796" from-port="1" to-layer="869" to-port="0"/>
		<edge from-layer="869" from-port="3" to-layer="870" to-port="0"/>
		<edge from-layer="870" from-port="1" to-layer="871" to-port="0"/>
		<edge from-layer="871" from-port="3" to-layer="872" to-port="0"/>
		<edge from-layer="796" from-port="1" to-layer="873" to-port="0"/>
		<edge from-layer="873" from-port="3" to-layer="874" to-port="0"/>
		<edge from-layer="874" from-port="1" to-layer="875" to-port="0"/>
		<edge from-layer="875" from-port="3" to-layer="876" to-port="0"/>
		<edge from-layer="796" from-port="1" to-layer="877" to-port="0"/>
		<edge from-layer="877" from-port="3" to-layer="878" to-port="0"/>
		<edge from-layer="878" from-port="1" to-layer="879" to-port="0"/>
		<edge from-layer="879" from-port="3" to-layer="880" to-port="0"/>
		<edge from-layer="796" from-port="1" to-layer="881" to-port="0"/>
		<edge from-layer="881" from-port="3" to-layer="882" to-port="0"/>
		<edge from-layer="882" from-port="1" to-layer="883" to-port="0"/>
		<edge from-layer="883" from-port="3" to-layer="884" to-port="0"/>
		<edge from-layer="796" from-port="1" to-layer="885" to-port="0"/>
		<edge from-layer="885" from-port="3" to-layer="886" to-port="0"/>
		<edge from-layer="886" from-port="1" to-layer="887" to-port="0"/>
		<edge from-layer="887" from-port="3" to-layer="888" to-port="0"/>
		<edge from-layer="796" from-port="1" to-layer="889" to-port="0"/>
		<edge from-layer="889" from-port="3" to-layer="890" to-port="0"/>
		<edge from-layer="890" from-port="1" to-layer="891" to-port="0"/>
		<edge from-layer="891" from-port="3" to-layer="892" to-port="0"/>
		<edge from-layer="796" from-port="1" to-layer="893" to-port="0"/>
		<edge from-layer="893" from-port="3" to-layer="894" to-port="0"/>
		<edge from-layer="894" from-port="1" to-layer="895" to-port="0"/>
		<edge from-layer="895" from-port="3" to-layer="896" to-port="0"/>
		<edge from-layer="796" from-port="1" to-layer="897" to-port="0"/>
		<edge from-layer="897" from-port="3" to-layer="898" to-port="0"/>
		<edge from-layer="898" from-port="1" to-layer="899" to-port="0"/>
		<edge from-layer="899" from-port="3" to-layer="900" to-port="0"/>
		<edge from-layer="796" from-port="1" to-layer="901" to-port="0"/>
		<edge from-layer="901" from-port="3" to-layer="902" to-port="0"/>
		<edge from-layer="902" from-port="1" to-layer="903" to-port="0"/>
		<edge from-layer="903" from-port="3" to-layer="904" to-port="0"/>
		<edge from-layer="796" from-port="1" to-layer="905" to-port="0"/>
		<edge from-layer="905" from-port="3" to-layer="906" to-port="0"/>
		<edge from-layer="906" from-port="1" to-layer="907" to-port="0"/>
		<edge from-layer="907" from-port="3" to-layer="908" to-port="0"/>
		<edge from-layer="796" from-port="1" to-layer="909" to-port="0"/>
		<edge from-layer="909" from-port="3" to-layer="910" to-port="0"/>
		<edge from-layer="910" from-port="1" to-layer="911" to-port="0"/>
		<edge from-layer="911" from-port="3" to-layer="912" to-port="0"/>
		<edge from-layer="796" from-port="1" to-layer="913" to-port="0"/>
		<edge from-layer="913" from-port="3" to-layer="914" to-port="0"/>
		<edge from-layer="914" from-port="1" to-layer="915" to-port="0"/>
		<edge from-layer="915" from-port="3" to-layer="916" to-port="0"/>
		<edge from-layer="796" from-port="1" to-layer="917" to-port="0"/>
		<edge from-layer="917" from-port="3" to-layer="918" to-port="0"/>
		<edge from-layer="918" from-port="1" to-layer="919" to-port="0"/>
		<edge from-layer="919" from-port="3" to-layer="920" to-port="0"/>
		<edge from-layer="796" from-port="1" to-layer="921" to-port="0"/>
		<edge from-layer="921" from-port="3" to-layer="922" to-port="0"/>
		<edge from-layer="922" from-port="1" to-layer="923" to-port="0"/>
		<edge from-layer="923" from-port="3" to-layer="924" to-port="0"/>
		<edge from-layer="800" from-port="1" to-layer="925" to-port="0"/>
		<edge from-layer="804" from-port="1" to-layer="925" to-port="1"/>
		<edge from-layer="808" from-port="1" to-layer="925" to-port="2"/>
		<edge from-layer="812" from-port="1" to-layer="925" to-port="3"/>
		<edge from-layer="816" from-port="1" to-layer="925" to-port="4"/>
		<edge from-layer="820" from-port="1" to-layer="925" to-port="5"/>
		<edge from-layer="824" from-port="1" to-layer="925" to-port="6"/>
		<edge from-layer="828" from-port="1" to-layer="925" to-port="7"/>
		<edge from-layer="832" from-port="1" to-layer="925" to-port="8"/>
		<edge from-layer="836" from-port="1" to-layer="925" to-port="9"/>
		<edge from-layer="840" from-port="1" to-layer="925" to-port="10"/>
		<edge from-layer="844" from-port="1" to-layer="925" to-port="11"/>
		<edge from-layer="848" from-port="1" to-layer="925" to-port="12"/>
		<edge from-layer="852" from-port="1" to-layer="925" to-port="13"/>
		<edge from-layer="856" from-port="1" to-layer="925" to-port="14"/>
		<edge from-layer="860" from-port="1" to-layer="925" to-port="15"/>
		<edge from-layer="864" from-port="1" to-layer="925" to-port="16"/>
		<edge from-layer="868" from-port="1" to-layer="925" to-port="17"/>
		<edge from-layer="872" from-port="1" to-layer="925" to-port="18"/>
		<edge from-layer="876" from-port="1" to-layer="925" to-port="19"/>
		<edge from-layer="880" from-port="1" to-layer="925" to-port="20"/>
		<edge from-layer="884" from-port="1" to-layer="925" to-port="21"/>
		<edge from-layer="888" from-port="1" to-layer="925" to-port="22"/>
		<edge from-layer="892" from-port="1" to-layer="925" to-port="23"/>
		<edge from-layer="896" from-port="1" to-layer="925" to-port="24"/>
		<edge from-layer="900" from-port="1" to-layer="925" to-port="25"/>
		<edge from-layer="904" from-port="1" to-layer="925" to-port="26"/>
		<edge from-layer="908" from-port="1" to-layer="925" to-port="27"/>
		<edge from-layer="912" from-port="1" to-layer="925" to-port="28"/>
		<edge from-layer="916" from-port="1" to-layer="925" to-port="29"/>
		<edge from-layer="920" from-port="1" to-layer="925" to-port="30"/>
		<edge from-layer="924" from-port="1" to-layer="925" to-port="31"/>
		<edge from-layer="925" from-port="32" to-layer="926" to-port="0"/>
		<edge from-layer="796" from-port="1" to-layer="927" to-port="0"/>
		<edge from-layer="927" from-port="1" to-layer="928" to-port="0"/>
		<edge from-layer="926" from-port="3" to-layer="929" to-port="0"/>
		<edge from-layer="928" from-port="3" to-layer="929" to-port="1"/>
		<edge from-layer="929" from-port="2" to-layer="930" to-port="0"/>
		<edge from-layer="930" from-port="1" to-layer="931" to-port="0"/>
		<edge from-layer="931" from-port="3" to-layer="932" to-port="0"/>
		<edge from-layer="932" from-port="1" to-layer="933" to-port="0"/>
		<edge from-layer="933" from-port="3" to-layer="934" to-port="0"/>
		<edge from-layer="930" from-port="1" to-layer="935" to-port="0"/>
		<edge from-layer="935" from-port="3" to-layer="936" to-port="0"/>
		<edge from-layer="936" from-port="1" to-layer="937" to-port="0"/>
		<edge from-layer="937" from-port="3" to-layer="938" to-port="0"/>
		<edge from-layer="930" from-port="1" to-layer="939" to-port="0"/>
		<edge from-layer="939" from-port="3" to-layer="940" to-port="0"/>
		<edge from-layer="940" from-port="1" to-layer="941" to-port="0"/>
		<edge from-layer="941" from-port="3" to-layer="942" to-port="0"/>
		<edge from-layer="930" from-port="1" to-layer="943" to-port="0"/>
		<edge from-layer="943" from-port="3" to-layer="944" to-port="0"/>
		<edge from-layer="944" from-port="1" to-layer="945" to-port="0"/>
		<edge from-layer="945" from-port="3" to-layer="946" to-port="0"/>
		<edge from-layer="930" from-port="1" to-layer="947" to-port="0"/>
		<edge from-layer="947" from-port="3" to-layer="948" to-port="0"/>
		<edge from-layer="948" from-port="1" to-layer="949" to-port="0"/>
		<edge from-layer="949" from-port="3" to-layer="950" to-port="0"/>
		<edge from-layer="930" from-port="1" to-layer="951" to-port="0"/>
		<edge from-layer="951" from-port="3" to-layer="952" to-port="0"/>
		<edge from-layer="952" from-port="1" to-layer="953" to-port="0"/>
		<edge from-layer="953" from-port="3" to-layer="954" to-port="0"/>
		<edge from-layer="930" from-port="1" to-layer="955" to-port="0"/>
		<edge from-layer="955" from-port="3" to-layer="956" to-port="0"/>
		<edge from-layer="956" from-port="1" to-layer="957" to-port="0"/>
		<edge from-layer="957" from-port="3" to-layer="958" to-port="0"/>
		<edge from-layer="930" from-port="1" to-layer="959" to-port="0"/>
		<edge from-layer="959" from-port="3" to-layer="960" to-port="0"/>
		<edge from-layer="960" from-port="1" to-layer="961" to-port="0"/>
		<edge from-layer="961" from-port="3" to-layer="962" to-port="0"/>
		<edge from-layer="930" from-port="1" to-layer="963" to-port="0"/>
		<edge from-layer="963" from-port="3" to-layer="964" to-port="0"/>
		<edge from-layer="964" from-port="1" to-layer="965" to-port="0"/>
		<edge from-layer="965" from-port="3" to-layer="966" to-port="0"/>
		<edge from-layer="930" from-port="1" to-layer="967" to-port="0"/>
		<edge from-layer="967" from-port="3" to-layer="968" to-port="0"/>
		<edge from-layer="968" from-port="1" to-layer="969" to-port="0"/>
		<edge from-layer="969" from-port="3" to-layer="970" to-port="0"/>
		<edge from-layer="930" from-port="1" to-layer="971" to-port="0"/>
		<edge from-layer="971" from-port="3" to-layer="972" to-port="0"/>
		<edge from-layer="972" from-port="1" to-layer="973" to-port="0"/>
		<edge from-layer="973" from-port="3" to-layer="974" to-port="0"/>
		<edge from-layer="930" from-port="1" to-layer="975" to-port="0"/>
		<edge from-layer="975" from-port="3" to-layer="976" to-port="0"/>
		<edge from-layer="976" from-port="1" to-layer="977" to-port="0"/>
		<edge from-layer="977" from-port="3" to-layer="978" to-port="0"/>
		<edge from-layer="930" from-port="1" to-layer="979" to-port="0"/>
		<edge from-layer="979" from-port="3" to-layer="980" to-port="0"/>
		<edge from-layer="980" from-port="1" to-layer="981" to-port="0"/>
		<edge from-layer="981" from-port="3" to-layer="982" to-port="0"/>
		<edge from-layer="930" from-port="1" to-layer="983" to-port="0"/>
		<edge from-layer="983" from-port="3" to-layer="984" to-port="0"/>
		<edge from-layer="984" from-port="1" to-layer="985" to-port="0"/>
		<edge from-layer="985" from-port="3" to-layer="986" to-port="0"/>
		<edge from-layer="930" from-port="1" to-layer="987" to-port="0"/>
		<edge from-layer="987" from-port="3" to-layer="988" to-port="0"/>
		<edge from-layer="988" from-port="1" to-layer="989" to-port="0"/>
		<edge from-layer="989" from-port="3" to-layer="990" to-port="0"/>
		<edge from-layer="930" from-port="1" to-layer="991" to-port="0"/>
		<edge from-layer="991" from-port="3" to-layer="992" to-port="0"/>
		<edge from-layer="992" from-port="1" to-layer="993" to-port="0"/>
		<edge from-layer="993" from-port="3" to-layer="994" to-port="0"/>
		<edge from-layer="930" from-port="1" to-layer="995" to-port="0"/>
		<edge from-layer="995" from-port="3" to-layer="996" to-port="0"/>
		<edge from-layer="996" from-port="1" to-layer="997" to-port="0"/>
		<edge from-layer="997" from-port="3" to-layer="998" to-port="0"/>
		<edge from-layer="930" from-port="1" to-layer="999" to-port="0"/>
		<edge from-layer="999" from-port="3" to-layer="1000" to-port="0"/>
		<edge from-layer="1000" from-port="1" to-layer="1001" to-port="0"/>
		<edge from-layer="1001" from-port="3" to-layer="1002" to-port="0"/>
		<edge from-layer="930" from-port="1" to-layer="1003" to-port="0"/>
		<edge from-layer="1003" from-port="3" to-layer="1004" to-port="0"/>
		<edge from-layer="1004" from-port="1" to-layer="1005" to-port="0"/>
		<edge from-layer="1005" from-port="3" to-layer="1006" to-port="0"/>
		<edge from-layer="930" from-port="1" to-layer="1007" to-port="0"/>
		<edge from-layer="1007" from-port="3" to-layer="1008" to-port="0"/>
		<edge from-layer="1008" from-port="1" to-layer="1009" to-port="0"/>
		<edge from-layer="1009" from-port="3" to-layer="1010" to-port="0"/>
		<edge from-layer="930" from-port="1" to-layer="1011" to-port="0"/>
		<edge from-layer="1011" from-port="3" to-layer="1012" to-port="0"/>
		<edge from-layer="1012" from-port="1" to-layer="1013" to-port="0"/>
		<edge from-layer="1013" from-port="3" to-layer="1014" to-port="0"/>
		<edge from-layer="930" from-port="1" to-layer="1015" to-port="0"/>
		<edge from-layer="1015" from-port="3" to-layer="1016" to-port="0"/>
		<edge from-layer="1016" from-port="1" to-layer="1017" to-port="0"/>
		<edge from-layer="1017" from-port="3" to-layer="1018" to-port="0"/>
		<edge from-layer="930" from-port="1" to-layer="1019" to-port="0"/>
		<edge from-layer="1019" from-port="3" to-layer="1020" to-port="0"/>
		<edge from-layer="1020" from-port="1" to-layer="1021" to-port="0"/>
		<edge from-layer="1021" from-port="3" to-layer="1022" to-port="0"/>
		<edge from-layer="930" from-port="1" to-layer="1023" to-port="0"/>
		<edge from-layer="1023" from-port="3" to-layer="1024" to-port="0"/>
		<edge from-layer="1024" from-port="1" to-layer="1025" to-port="0"/>
		<edge from-layer="1025" from-port="3" to-layer="1026" to-port="0"/>
		<edge from-layer="930" from-port="1" to-layer="1027" to-port="0"/>
		<edge from-layer="1027" from-port="3" to-layer="1028" to-port="0"/>
		<edge from-layer="1028" from-port="1" to-layer="1029" to-port="0"/>
		<edge from-layer="1029" from-port="3" to-layer="1030" to-port="0"/>
		<edge from-layer="930" from-port="1" to-layer="1031" to-port="0"/>
		<edge from-layer="1031" from-port="3" to-layer="1032" to-port="0"/>
		<edge from-layer="1032" from-port="1" to-layer="1033" to-port="0"/>
		<edge from-layer="1033" from-port="3" to-layer="1034" to-port="0"/>
		<edge from-layer="930" from-port="1" to-layer="1035" to-port="0"/>
		<edge from-layer="1035" from-port="3" to-layer="1036" to-port="0"/>
		<edge from-layer="1036" from-port="1" to-layer="1037" to-port="0"/>
		<edge from-layer="1037" from-port="3" to-layer="1038" to-port="0"/>
		<edge from-layer="930" from-port="1" to-layer="1039" to-port="0"/>
		<edge from-layer="1039" from-port="3" to-layer="1040" to-port="0"/>
		<edge from-layer="1040" from-port="1" to-layer="1041" to-port="0"/>
		<edge from-layer="1041" from-port="3" to-layer="1042" to-port="0"/>
		<edge from-layer="930" from-port="1" to-layer="1043" to-port="0"/>
		<edge from-layer="1043" from-port="3" to-layer="1044" to-port="0"/>
		<edge from-layer="1044" from-port="1" to-layer="1045" to-port="0"/>
		<edge from-layer="1045" from-port="3" to-layer="1046" to-port="0"/>
		<edge from-layer="930" from-port="1" to-layer="1047" to-port="0"/>
		<edge from-layer="1047" from-port="3" to-layer="1048" to-port="0"/>
		<edge from-layer="1048" from-port="1" to-layer="1049" to-port="0"/>
		<edge from-layer="1049" from-port="3" to-layer="1050" to-port="0"/>
		<edge from-layer="930" from-port="1" to-layer="1051" to-port="0"/>
		<edge from-layer="1051" from-port="3" to-layer="1052" to-port="0"/>
		<edge from-layer="1052" from-port="1" to-layer="1053" to-port="0"/>
		<edge from-layer="1053" from-port="3" to-layer="1054" to-port="0"/>
		<edge from-layer="930" from-port="1" to-layer="1055" to-port="0"/>
		<edge from-layer="1055" from-port="3" to-layer="1056" to-port="0"/>
		<edge from-layer="1056" from-port="1" to-layer="1057" to-port="0"/>
		<edge from-layer="1057" from-port="3" to-layer="1058" to-port="0"/>
		<edge from-layer="934" from-port="1" to-layer="1059" to-port="0"/>
		<edge from-layer="938" from-port="1" to-layer="1059" to-port="1"/>
		<edge from-layer="942" from-port="1" to-layer="1059" to-port="2"/>
		<edge from-layer="946" from-port="1" to-layer="1059" to-port="3"/>
		<edge from-layer="950" from-port="1" to-layer="1059" to-port="4"/>
		<edge from-layer="954" from-port="1" to-layer="1059" to-port="5"/>
		<edge from-layer="958" from-port="1" to-layer="1059" to-port="6"/>
		<edge from-layer="962" from-port="1" to-layer="1059" to-port="7"/>
		<edge from-layer="966" from-port="1" to-layer="1059" to-port="8"/>
		<edge from-layer="970" from-port="1" to-layer="1059" to-port="9"/>
		<edge from-layer="974" from-port="1" to-layer="1059" to-port="10"/>
		<edge from-layer="978" from-port="1" to-layer="1059" to-port="11"/>
		<edge from-layer="982" from-port="1" to-layer="1059" to-port="12"/>
		<edge from-layer="986" from-port="1" to-layer="1059" to-port="13"/>
		<edge from-layer="990" from-port="1" to-layer="1059" to-port="14"/>
		<edge from-layer="994" from-port="1" to-layer="1059" to-port="15"/>
		<edge from-layer="998" from-port="1" to-layer="1059" to-port="16"/>
		<edge from-layer="1002" from-port="1" to-layer="1059" to-port="17"/>
		<edge from-layer="1006" from-port="1" to-layer="1059" to-port="18"/>
		<edge from-layer="1010" from-port="1" to-layer="1059" to-port="19"/>
		<edge from-layer="1014" from-port="1" to-layer="1059" to-port="20"/>
		<edge from-layer="1018" from-port="1" to-layer="1059" to-port="21"/>
		<edge from-layer="1022" from-port="1" to-layer="1059" to-port="22"/>
		<edge from-layer="1026" from-port="1" to-layer="1059" to-port="23"/>
		<edge from-layer="1030" from-port="1" to-layer="1059" to-port="24"/>
		<edge from-layer="1034" from-port="1" to-layer="1059" to-port="25"/>
		<edge from-layer="1038" from-port="1" to-layer="1059" to-port="26"/>
		<edge from-layer="1042" from-port="1" to-layer="1059" to-port="27"/>
		<edge from-layer="1046" from-port="1" to-layer="1059" to-port="28"/>
		<edge from-layer="1050" from-port="1" to-layer="1059" to-port="29"/>
		<edge from-layer="1054" from-port="1" to-layer="1059" to-port="30"/>
		<edge from-layer="1058" from-port="1" to-layer="1059" to-port="31"/>
		<edge from-layer="1059" from-port="32" to-layer="1060" to-port="0"/>
		<edge from-layer="1060" from-port="3" to-layer="1061" to-port="0"/>
		<edge from-layer="930" from-port="1" to-layer="1061" to-port="1"/>
		<edge from-layer="1061" from-port="2" to-layer="1062" to-port="0"/>
		<edge from-layer="1062" from-port="1" to-layer="1063" to-port="0"/>
		<edge from-layer="1063" from-port="3" to-layer="1064" to-port="0"/>
		<edge from-layer="1064" from-port="1" to-layer="1065" to-port="0"/>
		<edge from-layer="1065" from-port="3" to-layer="1066" to-port="0"/>
		<edge from-layer="1062" from-port="1" to-layer="1067" to-port="0"/>
		<edge from-layer="1067" from-port="3" to-layer="1068" to-port="0"/>
		<edge from-layer="1068" from-port="1" to-layer="1069" to-port="0"/>
		<edge from-layer="1069" from-port="3" to-layer="1070" to-port="0"/>
		<edge from-layer="1062" from-port="1" to-layer="1071" to-port="0"/>
		<edge from-layer="1071" from-port="3" to-layer="1072" to-port="0"/>
		<edge from-layer="1072" from-port="1" to-layer="1073" to-port="0"/>
		<edge from-layer="1073" from-port="3" to-layer="1074" to-port="0"/>
		<edge from-layer="1062" from-port="1" to-layer="1075" to-port="0"/>
		<edge from-layer="1075" from-port="3" to-layer="1076" to-port="0"/>
		<edge from-layer="1076" from-port="1" to-layer="1077" to-port="0"/>
		<edge from-layer="1077" from-port="3" to-layer="1078" to-port="0"/>
		<edge from-layer="1062" from-port="1" to-layer="1079" to-port="0"/>
		<edge from-layer="1079" from-port="3" to-layer="1080" to-port="0"/>
		<edge from-layer="1080" from-port="1" to-layer="1081" to-port="0"/>
		<edge from-layer="1081" from-port="3" to-layer="1082" to-port="0"/>
		<edge from-layer="1062" from-port="1" to-layer="1083" to-port="0"/>
		<edge from-layer="1083" from-port="3" to-layer="1084" to-port="0"/>
		<edge from-layer="1084" from-port="1" to-layer="1085" to-port="0"/>
		<edge from-layer="1085" from-port="3" to-layer="1086" to-port="0"/>
		<edge from-layer="1062" from-port="1" to-layer="1087" to-port="0"/>
		<edge from-layer="1087" from-port="3" to-layer="1088" to-port="0"/>
		<edge from-layer="1088" from-port="1" to-layer="1089" to-port="0"/>
		<edge from-layer="1089" from-port="3" to-layer="1090" to-port="0"/>
		<edge from-layer="1062" from-port="1" to-layer="1091" to-port="0"/>
		<edge from-layer="1091" from-port="3" to-layer="1092" to-port="0"/>
		<edge from-layer="1092" from-port="1" to-layer="1093" to-port="0"/>
		<edge from-layer="1093" from-port="3" to-layer="1094" to-port="0"/>
		<edge from-layer="1062" from-port="1" to-layer="1095" to-port="0"/>
		<edge from-layer="1095" from-port="3" to-layer="1096" to-port="0"/>
		<edge from-layer="1096" from-port="1" to-layer="1097" to-port="0"/>
		<edge from-layer="1097" from-port="3" to-layer="1098" to-port="0"/>
		<edge from-layer="1062" from-port="1" to-layer="1099" to-port="0"/>
		<edge from-layer="1099" from-port="3" to-layer="1100" to-port="0"/>
		<edge from-layer="1100" from-port="1" to-layer="1101" to-port="0"/>
		<edge from-layer="1101" from-port="3" to-layer="1102" to-port="0"/>
		<edge from-layer="1062" from-port="1" to-layer="1103" to-port="0"/>
		<edge from-layer="1103" from-port="3" to-layer="1104" to-port="0"/>
		<edge from-layer="1104" from-port="1" to-layer="1105" to-port="0"/>
		<edge from-layer="1105" from-port="3" to-layer="1106" to-port="0"/>
		<edge from-layer="1062" from-port="1" to-layer="1107" to-port="0"/>
		<edge from-layer="1107" from-port="3" to-layer="1108" to-port="0"/>
		<edge from-layer="1108" from-port="1" to-layer="1109" to-port="0"/>
		<edge from-layer="1109" from-port="3" to-layer="1110" to-port="0"/>
		<edge from-layer="1062" from-port="1" to-layer="1111" to-port="0"/>
		<edge from-layer="1111" from-port="3" to-layer="1112" to-port="0"/>
		<edge from-layer="1112" from-port="1" to-layer="1113" to-port="0"/>
		<edge from-layer="1113" from-port="3" to-layer="1114" to-port="0"/>
		<edge from-layer="1062" from-port="1" to-layer="1115" to-port="0"/>
		<edge from-layer="1115" from-port="3" to-layer="1116" to-port="0"/>
		<edge from-layer="1116" from-port="1" to-layer="1117" to-port="0"/>
		<edge from-layer="1117" from-port="3" to-layer="1118" to-port="0"/>
		<edge from-layer="1062" from-port="1" to-layer="1119" to-port="0"/>
		<edge from-layer="1119" from-port="3" to-layer="1120" to-port="0"/>
		<edge from-layer="1120" from-port="1" to-layer="1121" to-port="0"/>
		<edge from-layer="1121" from-port="3" to-layer="1122" to-port="0"/>
		<edge from-layer="1062" from-port="1" to-layer="1123" to-port="0"/>
		<edge from-layer="1123" from-port="3" to-layer="1124" to-port="0"/>
		<edge from-layer="1124" from-port="1" to-layer="1125" to-port="0"/>
		<edge from-layer="1125" from-port="3" to-layer="1126" to-port="0"/>
		<edge from-layer="1062" from-port="1" to-layer="1127" to-port="0"/>
		<edge from-layer="1127" from-port="3" to-layer="1128" to-port="0"/>
		<edge from-layer="1128" from-port="1" to-layer="1129" to-port="0"/>
		<edge from-layer="1129" from-port="3" to-layer="1130" to-port="0"/>
		<edge from-layer="1062" from-port="1" to-layer="1131" to-port="0"/>
		<edge from-layer="1131" from-port="3" to-layer="1132" to-port="0"/>
		<edge from-layer="1132" from-port="1" to-layer="1133" to-port="0"/>
		<edge from-layer="1133" from-port="3" to-layer="1134" to-port="0"/>
		<edge from-layer="1062" from-port="1" to-layer="1135" to-port="0"/>
		<edge from-layer="1135" from-port="3" to-layer="1136" to-port="0"/>
		<edge from-layer="1136" from-port="1" to-layer="1137" to-port="0"/>
		<edge from-layer="1137" from-port="3" to-layer="1138" to-port="0"/>
		<edge from-layer="1062" from-port="1" to-layer="1139" to-port="0"/>
		<edge from-layer="1139" from-port="3" to-layer="1140" to-port="0"/>
		<edge from-layer="1140" from-port="1" to-layer="1141" to-port="0"/>
		<edge from-layer="1141" from-port="3" to-layer="1142" to-port="0"/>
		<edge from-layer="1062" from-port="1" to-layer="1143" to-port="0"/>
		<edge from-layer="1143" from-port="3" to-layer="1144" to-port="0"/>
		<edge from-layer="1144" from-port="1" to-layer="1145" to-port="0"/>
		<edge from-layer="1145" from-port="3" to-layer="1146" to-port="0"/>
		<edge from-layer="1062" from-port="1" to-layer="1147" to-port="0"/>
		<edge from-layer="1147" from-port="3" to-layer="1148" to-port="0"/>
		<edge from-layer="1148" from-port="1" to-layer="1149" to-port="0"/>
		<edge from-layer="1149" from-port="3" to-layer="1150" to-port="0"/>
		<edge from-layer="1062" from-port="1" to-layer="1151" to-port="0"/>
		<edge from-layer="1151" from-port="3" to-layer="1152" to-port="0"/>
		<edge from-layer="1152" from-port="1" to-layer="1153" to-port="0"/>
		<edge from-layer="1153" from-port="3" to-layer="1154" to-port="0"/>
		<edge from-layer="1062" from-port="1" to-layer="1155" to-port="0"/>
		<edge from-layer="1155" from-port="3" to-layer="1156" to-port="0"/>
		<edge from-layer="1156" from-port="1" to-layer="1157" to-port="0"/>
		<edge from-layer="1157" from-port="3" to-layer="1158" to-port="0"/>
		<edge from-layer="1062" from-port="1" to-layer="1159" to-port="0"/>
		<edge from-layer="1159" from-port="3" to-layer="1160" to-port="0"/>
		<edge from-layer="1160" from-port="1" to-layer="1161" to-port="0"/>
		<edge from-layer="1161" from-port="3" to-layer="1162" to-port="0"/>
		<edge from-layer="1062" from-port="1" to-layer="1163" to-port="0"/>
		<edge from-layer="1163" from-port="3" to-layer="1164" to-port="0"/>
		<edge from-layer="1164" from-port="1" to-layer="1165" to-port="0"/>
		<edge from-layer="1165" from-port="3" to-layer="1166" to-port="0"/>
		<edge from-layer="1062" from-port="1" to-layer="1167" to-port="0"/>
		<edge from-layer="1167" from-port="3" to-layer="1168" to-port="0"/>
		<edge from-layer="1168" from-port="1" to-layer="1169" to-port="0"/>
		<edge from-layer="1169" from-port="3" to-layer="1170" to-port="0"/>
		<edge from-layer="1062" from-port="1" to-layer="1171" to-port="0"/>
		<edge from-layer="1171" from-port="3" to-layer="1172" to-port="0"/>
		<edge from-layer="1172" from-port="1" to-layer="1173" to-port="0"/>
		<edge from-layer="1173" from-port="3" to-layer="1174" to-port="0"/>
		<edge from-layer="1062" from-port="1" to-layer="1175" to-port="0"/>
		<edge from-layer="1175" from-port="3" to-layer="1176" to-port="0"/>
		<edge from-layer="1176" from-port="1" to-layer="1177" to-port="0"/>
		<edge from-layer="1177" from-port="3" to-layer="1178" to-port="0"/>
		<edge from-layer="1062" from-port="1" to-layer="1179" to-port="0"/>
		<edge from-layer="1179" from-port="3" to-layer="1180" to-port="0"/>
		<edge from-layer="1180" from-port="1" to-layer="1181" to-port="0"/>
		<edge from-layer="1181" from-port="3" to-layer="1182" to-port="0"/>
		<edge from-layer="1062" from-port="1" to-layer="1183" to-port="0"/>
		<edge from-layer="1183" from-port="3" to-layer="1184" to-port="0"/>
		<edge from-layer="1184" from-port="1" to-layer="1185" to-port="0"/>
		<edge from-layer="1185" from-port="3" to-layer="1186" to-port="0"/>
		<edge from-layer="1062" from-port="1" to-layer="1187" to-port="0"/>
		<edge from-layer="1187" from-port="3" to-layer="1188" to-port="0"/>
		<edge from-layer="1188" from-port="1" to-layer="1189" to-port="0"/>
		<edge from-layer="1189" from-port="3" to-layer="1190" to-port="0"/>
		<edge from-layer="1066" from-port="1" to-layer="1191" to-port="0"/>
		<edge from-layer="1070" from-port="1" to-layer="1191" to-port="1"/>
		<edge from-layer="1074" from-port="1" to-layer="1191" to-port="2"/>
		<edge from-layer="1078" from-port="1" to-layer="1191" to-port="3"/>
		<edge from-layer="1082" from-port="1" to-layer="1191" to-port="4"/>
		<edge from-layer="1086" from-port="1" to-layer="1191" to-port="5"/>
		<edge from-layer="1090" from-port="1" to-layer="1191" to-port="6"/>
		<edge from-layer="1094" from-port="1" to-layer="1191" to-port="7"/>
		<edge from-layer="1098" from-port="1" to-layer="1191" to-port="8"/>
		<edge from-layer="1102" from-port="1" to-layer="1191" to-port="9"/>
		<edge from-layer="1106" from-port="1" to-layer="1191" to-port="10"/>
		<edge from-layer="1110" from-port="1" to-layer="1191" to-port="11"/>
		<edge from-layer="1114" from-port="1" to-layer="1191" to-port="12"/>
		<edge from-layer="1118" from-port="1" to-layer="1191" to-port="13"/>
		<edge from-layer="1122" from-port="1" to-layer="1191" to-port="14"/>
		<edge from-layer="1126" from-port="1" to-layer="1191" to-port="15"/>
		<edge from-layer="1130" from-port="1" to-layer="1191" to-port="16"/>
		<edge from-layer="1134" from-port="1" to-layer="1191" to-port="17"/>
		<edge from-layer="1138" from-port="1" to-layer="1191" to-port="18"/>
		<edge from-layer="1142" from-port="1" to-layer="1191" to-port="19"/>
		<edge from-layer="1146" from-port="1" to-layer="1191" to-port="20"/>
		<edge from-layer="1150" from-port="1" to-layer="1191" to-port="21"/>
		<edge from-layer="1154" from-port="1" to-layer="1191" to-port="22"/>
		<edge from-layer="1158" from-port="1" to-layer="1191" to-port="23"/>
		<edge from-layer="1162" from-port="1" to-layer="1191" to-port="24"/>
		<edge from-layer="1166" from-port="1" to-layer="1191" to-port="25"/>
		<edge from-layer="1170" from-port="1" to-layer="1191" to-port="26"/>
		<edge from-layer="1174" from-port="1" to-layer="1191" to-port="27"/>
		<edge from-layer="1178" from-port="1" to-layer="1191" to-port="28"/>
		<edge from-layer="1182" from-port="1" to-layer="1191" to-port="29"/>
		<edge from-layer="1186" from-port="1" to-layer="1191" to-port="30"/>
		<edge from-layer="1190" from-port="1" to-layer="1191" to-port="31"/>
		<edge from-layer="1191" from-port="32" to-layer="1192" to-port="0"/>
		<edge from-layer="1192" from-port="3" to-layer="1193" to-port="0"/>
		<edge from-layer="1062" from-port="1" to-layer="1193" to-port="1"/>
		<edge from-layer="1193" from-port="2" to-layer="1194" to-port="0"/>
		<edge from-layer="1194" from-port="1" to-layer="1195" to-port="0"/>
		<edge from-layer="1195" from-port="1" to-layer="1196" to-port="0"/>
		<edge from-layer="1196" from-port="3" to-layer="1197" to-port="0"/>
		<edge from-layer="1197" from-port="1" to-layer="1198" to-port="0"/>
		<edge from-layer="1198" from-port="1" to-layer="1199" to-port="0"/>
	</edges>
	<meta_data>
		<MO_version value="1.5.12.49d067a0"/>
		<cli_parameters>
			<data_type value="float"/>
			<disable_fusing value="False"/>
			<disable_gfusing value="False"/>
			<disable_nhwc_to_nchw value="False"/>
			<disable_resnet_optimization value="False"/>
			<extensions value="DIR"/>
			<framework value="tf"/>
			<generate_deprecated_IR_V2 value="False"/>
			<input_model value="DIR\ResNeXt-1000C32.pb"/>
			<input_model_is_text value="False"/>
			<input_shape value="[1,28,28,3]"/>
			<log_level value="ERROR"/>
			<mean_values value="()"/>
			<move_to_preprocess value="False"/>
			<offload_unsupported_operations_to_tf value="False"/>
			<output_dir value="DIR"/>
			<reverse_input_channels value="False"/>
			<scale_values value="()"/>
			<silent value="False"/>
			<version value="False"/>
			<unset unset_cli_parameters="batch, finegrain_fusing, freeze_placeholder_with_value, input, input_checkpoint, input_meta_graph, model_name, output, saved_model_dir, saved_model_tags, scale, tensorboard_logdir, tensorflow_custom_layer_libraries, tensorflow_custom_operations_config_update, tensorflow_object_detection_api_pipeline_config, tensorflow_operation_patterns, tensorflow_subgraph_patterns, tensorflow_use_custom_operations_config"/>
		</cli_parameters>
	</meta_data>
</net>
