<?xml version="1.0" ?>
<net batch="1" name="ShuffleNetV1_M4-5000" version="4">
	<layers>
		<layer id="0" name="inputs" precision="FP32" type="Input">
			<output>
				<port id="0">
					<dim>1</dim>
					<dim>3</dim>
					<dim>28</dim>
					<dim>28</dim>
				</port>
			</output>
		</layer>
		<layer id="1" name="split" precision="FP32" type="Split">
			<data axis="1"/>
			<input>
				<port id="0">
					<dim>1</dim>
					<dim>3</dim>
					<dim>28</dim>
					<dim>28</dim>
				</port>
			</input>
			<output>
				<port id="1">
					<dim>1</dim>
					<dim>1</dim>
					<dim>28</dim>
					<dim>28</dim>
				</port>
				<port id="2">
					<dim>1</dim>
					<dim>1</dim>
					<dim>28</dim>
					<dim>28</dim>
				</port>
				<port id="3">
					<dim>1</dim>
					<dim>1</dim>
					<dim>28</dim>
					<dim>28</dim>
				</port>
			</output>
		</layer>
		<layer id="2" name="mul/Fused_Mul_/FusedPower_" precision="FP32" type="Power">
			<data power="1" scale="0.017000000923871994" shift="-1.7669801375311636"/>
			<input>
				<port id="0">
					<dim>1</dim>
					<dim>1</dim>
					<dim>28</dim>
					<dim>28</dim>
				</port>
			</input>
			<output>
				<port id="1">
					<dim>1</dim>
					<dim>1</dim>
					<dim>28</dim>
					<dim>28</dim>
				</port>
			</output>
		</layer>
		<layer id="3" name="mul_1/Fused_Mul_/FusedPower_" precision="FP32" type="Power">
			<data power="1" scale="0.017000000923871994" shift="-1.9852600871378172"/>
			<input>
				<port id="0">
					<dim>1</dim>
					<dim>1</dim>
					<dim>28</dim>
					<dim>28</dim>
				</port>
			</input>
			<output>
				<port id="1">
					<dim>1</dim>
					<dim>1</dim>
					<dim>28</dim>
					<dim>28</dim>
				</port>
			</output>
		</layer>
		<layer id="4" name="mul_2/Fused_Mul_/FusedPower_" precision="FP32" type="Power">
			<data power="1" scale="0.017000000923871994" shift="-2.102560119452477"/>
			<input>
				<port id="0">
					<dim>1</dim>
					<dim>1</dim>
					<dim>28</dim>
					<dim>28</dim>
				</port>
			</input>
			<output>
				<port id="1">
					<dim>1</dim>
					<dim>1</dim>
					<dim>28</dim>
					<dim>28</dim>
				</port>
			</output>
		</layer>
		<layer id="5" name="concat" precision="FP32" type="Concat">
			<data axis="1"/>
			<input>
				<port id="0">
					<dim>1</dim>
					<dim>1</dim>
					<dim>28</dim>
					<dim>28</dim>
				</port>
				<port id="1">
					<dim>1</dim>
					<dim>1</dim>
					<dim>28</dim>
					<dim>28</dim>
				</port>
				<port id="2">
					<dim>1</dim>
					<dim>1</dim>
					<dim>28</dim>
					<dim>28</dim>
				</port>
			</input>
			<output>
				<port id="3">
					<dim>1</dim>
					<dim>3</dim>
					<dim>28</dim>
					<dim>28</dim>
				</port>
			</output>
		</layer>
		<layer id="6" name="Conv2D" precision="FP32" type="Convolution">
			<data auto_pad="same_upper" dilations="1,1" group="1" kernel="3,3" output="24" pads_begin="0,0" pads_end="1,1" strides="2,2"/>
			<input>
				<port id="0">
					<dim>1</dim>
					<dim>3</dim>
					<dim>28</dim>
					<dim>28</dim>
				</port>
			</input>
			<output>
				<port id="3">
					<dim>1</dim>
					<dim>24</dim>
					<dim>14</dim>
					<dim>14</dim>
				</port>
			</output>
			<blobs>
				<weights offset="0" size="2592"/>
				<biases offset="2592" size="96"/>
			</blobs>
		</layer>
		<layer id="7" name="Relu" precision="FP32" type="ReLU">
			<input>
				<port id="0">
					<dim>1</dim>
					<dim>24</dim>
					<dim>14</dim>
					<dim>14</dim>
				</port>
			</input>
			<output>
				<port id="1">
					<dim>1</dim>
					<dim>24</dim>
					<dim>14</dim>
					<dim>14</dim>
				</port>
			</output>
		</layer>
		<layer id="8" name="max_pool" precision="FP32" type="Pooling">
			<data auto_pad="same_upper" exclude-pad="true" kernel="3,3" pads_begin="0,0" pads_end="1,1" pool-method="max" strides="2,2"/>
			<input>
				<port id="0">
					<dim>1</dim>
					<dim>24</dim>
					<dim>14</dim>
					<dim>14</dim>
				</port>
			</input>
			<output>
				<port id="1">
					<dim>1</dim>
					<dim>24</dim>
					<dim>7</dim>
					<dim>7</dim>
				</port>
			</output>
		</layer>
		<layer id="9" name="AvgPool" precision="FP32" type="Pooling">
			<data auto_pad="same_upper" exclude-pad="true" kernel="3,3" pads_begin="1,1" pads_end="1,1" pool-method="avg" strides="2,2"/>
			<input>
				<port id="0">
					<dim>1</dim>
					<dim>24</dim>
					<dim>7</dim>
					<dim>7</dim>
				</port>
			</input>
			<output>
				<port id="1">
					<dim>1</dim>
					<dim>24</dim>
					<dim>4</dim>
					<dim>4</dim>
				</port>
			</output>
		</layer>
		<layer id="10" name="Conv2D_1" precision="FP32" type="Convolution">
			<data auto_pad="valid" dilations="1,1" group="1" kernel="1,1" output="54" pads_begin="0,0" pads_end="0,0" strides="1,1"/>
			<input>
				<port id="0">
					<dim>1</dim>
					<dim>24</dim>
					<dim>7</dim>
					<dim>7</dim>
				</port>
			</input>
			<output>
				<port id="3">
					<dim>1</dim>
					<dim>54</dim>
					<dim>7</dim>
					<dim>7</dim>
				</port>
			</output>
			<blobs>
				<weights offset="2688" size="5184"/>
				<biases offset="7872" size="216"/>
			</blobs>
		</layer>
		<layer id="11" name="Relu_1" precision="FP32" type="ReLU">
			<input>
				<port id="0">
					<dim>1</dim>
					<dim>54</dim>
					<dim>7</dim>
					<dim>7</dim>
				</port>
			</input>
			<output>
				<port id="1">
					<dim>1</dim>
					<dim>54</dim>
					<dim>7</dim>
					<dim>7</dim>
				</port>
			</output>
		</layer>
		<layer id="12" name="depthwise" precision="FP32" type="Convolution">
			<data dilations="1,1" group="54" kernel="3,3" output="54" pads_begin="1,1" pads_end="1,1" strides="2,2"/>
			<input>
				<port id="0">
					<dim>1</dim>
					<dim>54</dim>
					<dim>7</dim>
					<dim>7</dim>
				</port>
			</input>
			<output>
				<port id="3">
					<dim>1</dim>
					<dim>54</dim>
					<dim>4</dim>
					<dim>4</dim>
				</port>
			</output>
			<blobs>
				<weights offset="8088" size="1944"/>
				<biases offset="10032" size="216"/>
			</blobs>
		</layer>
		<layer id="13" name="Conv2D_2" precision="FP32" type="Convolution">
			<data auto_pad="valid" dilations="1,1" group="3" kernel="1,1" output="216" pads_begin="0,0" pads_end="0,0" strides="1,1"/>
			<input>
				<port id="0">
					<dim>1</dim>
					<dim>54</dim>
					<dim>4</dim>
					<dim>4</dim>
				</port>
			</input>
			<output>
				<port id="3">
					<dim>1</dim>
					<dim>216</dim>
					<dim>4</dim>
					<dim>4</dim>
				</port>
			</output>
			<blobs>
				<weights offset="10248" size="15552"/>
				<biases offset="25800" size="864"/>
			</blobs>
		</layer>
		<layer id="14" name="concat_2" precision="FP32" type="Concat">
			<data axis="1"/>
			<input>
				<port id="0">
					<dim>1</dim>
					<dim>24</dim>
					<dim>4</dim>
					<dim>4</dim>
				</port>
				<port id="1">
					<dim>1</dim>
					<dim>216</dim>
					<dim>4</dim>
					<dim>4</dim>
				</port>
			</input>
			<output>
				<port id="2">
					<dim>1</dim>
					<dim>240</dim>
					<dim>4</dim>
					<dim>4</dim>
				</port>
			</output>
		</layer>
		<layer id="15" name="Relu_2" precision="FP32" type="ReLU">
			<input>
				<port id="0">
					<dim>1</dim>
					<dim>240</dim>
					<dim>4</dim>
					<dim>4</dim>
				</port>
			</input>
			<output>
				<port id="1">
					<dim>1</dim>
					<dim>240</dim>
					<dim>4</dim>
					<dim>4</dim>
				</port>
			</output>
		</layer>
		<layer id="16" name="strided_slice_5/Split" precision="FP32" type="Split">
			<data axis="1"/>
			<input>
				<port id="0">
					<dim>1</dim>
					<dim>240</dim>
					<dim>4</dim>
					<dim>4</dim>
				</port>
			</input>
			<output>
				<port id="1">
					<dim>1</dim>
					<dim>80</dim>
					<dim>4</dim>
					<dim>4</dim>
				</port>
				<port id="2">
					<dim>1</dim>
					<dim>80</dim>
					<dim>4</dim>
					<dim>4</dim>
				</port>
				<port id="3">
					<dim>1</dim>
					<dim>80</dim>
					<dim>4</dim>
					<dim>4</dim>
				</port>
			</output>
		</layer>
		<layer id="17" name="Conv2D_5" precision="FP32" type="Convolution">
			<data auto_pad="valid" dilations="1,1" group="1" kernel="1,1" output="20" pads_begin="0,0" pads_end="0,0" strides="1,1"/>
			<input>
				<port id="0">
					<dim>1</dim>
					<dim>80</dim>
					<dim>4</dim>
					<dim>4</dim>
				</port>
			</input>
			<output>
				<port id="3">
					<dim>1</dim>
					<dim>20</dim>
					<dim>4</dim>
					<dim>4</dim>
				</port>
			</output>
			<blobs>
				<weights offset="26664" size="6400"/>
				<biases offset="33064" size="80"/>
			</blobs>
		</layer>
		<layer id="18" name="Relu_3" precision="FP32" type="ReLU">
			<input>
				<port id="0">
					<dim>1</dim>
					<dim>20</dim>
					<dim>4</dim>
					<dim>4</dim>
				</port>
			</input>
			<output>
				<port id="1">
					<dim>1</dim>
					<dim>20</dim>
					<dim>4</dim>
					<dim>4</dim>
				</port>
			</output>
		</layer>
		<layer id="19" name="Conv2D_6" precision="FP32" type="Convolution">
			<data auto_pad="valid" dilations="1,1" group="1" kernel="1,1" output="20" pads_begin="0,0" pads_end="0,0" strides="1,1"/>
			<input>
				<port id="0">
					<dim>1</dim>
					<dim>80</dim>
					<dim>4</dim>
					<dim>4</dim>
				</port>
			</input>
			<output>
				<port id="3">
					<dim>1</dim>
					<dim>20</dim>
					<dim>4</dim>
					<dim>4</dim>
				</port>
			</output>
			<blobs>
				<weights offset="33144" size="6400"/>
				<biases offset="39544" size="80"/>
			</blobs>
		</layer>
		<layer id="20" name="Relu_4" precision="FP32" type="ReLU">
			<input>
				<port id="0">
					<dim>1</dim>
					<dim>20</dim>
					<dim>4</dim>
					<dim>4</dim>
				</port>
			</input>
			<output>
				<port id="1">
					<dim>1</dim>
					<dim>20</dim>
					<dim>4</dim>
					<dim>4</dim>
				</port>
			</output>
		</layer>
		<layer id="21" name="Conv2D_7" precision="FP32" type="Convolution">
			<data auto_pad="valid" dilations="1,1" group="1" kernel="1,1" output="20" pads_begin="0,0" pads_end="0,0" strides="1,1"/>
			<input>
				<port id="0">
					<dim>1</dim>
					<dim>80</dim>
					<dim>4</dim>
					<dim>4</dim>
				</port>
			</input>
			<output>
				<port id="3">
					<dim>1</dim>
					<dim>20</dim>
					<dim>4</dim>
					<dim>4</dim>
				</port>
			</output>
			<blobs>
				<weights offset="39624" size="6400"/>
				<biases offset="46024" size="80"/>
			</blobs>
		</layer>
		<layer id="22" name="Relu_5" precision="FP32" type="ReLU">
			<input>
				<port id="0">
					<dim>1</dim>
					<dim>20</dim>
					<dim>4</dim>
					<dim>4</dim>
				</port>
			</input>
			<output>
				<port id="1">
					<dim>1</dim>
					<dim>20</dim>
					<dim>4</dim>
					<dim>4</dim>
				</port>
			</output>
		</layer>
		<layer id="23" name="concat_3" precision="FP32" type="Concat">
			<data axis="1"/>
			<input>
				<port id="0">
					<dim>1</dim>
					<dim>20</dim>
					<dim>4</dim>
					<dim>4</dim>
				</port>
				<port id="1">
					<dim>1</dim>
					<dim>20</dim>
					<dim>4</dim>
					<dim>4</dim>
				</port>
				<port id="2">
					<dim>1</dim>
					<dim>20</dim>
					<dim>4</dim>
					<dim>4</dim>
				</port>
			</input>
			<output>
				<port id="3">
					<dim>1</dim>
					<dim>60</dim>
					<dim>4</dim>
					<dim>4</dim>
				</port>
			</output>
		</layer>
		<layer id="24" name="Mul1_6673/Fused_Mul_/FusedScaleShift_" precision="FP32" type="ScaleShift">
			<input>
				<port id="0">
					<dim>1</dim>
					<dim>60</dim>
					<dim>4</dim>
					<dim>4</dim>
				</port>
			</input>
			<output>
				<port id="3">
					<dim>1</dim>
					<dim>60</dim>
					<dim>4</dim>
					<dim>4</dim>
				</port>
			</output>
			<blobs>
				<weights offset="46104" size="240"/>
				<biases offset="46344" size="240"/>
			</blobs>
		</layer>
		<layer id="25" name="Relu_6" precision="FP32" type="ReLU">
			<input>
				<port id="0">
					<dim>1</dim>
					<dim>60</dim>
					<dim>4</dim>
					<dim>4</dim>
				</port>
			</input>
			<output>
				<port id="1">
					<dim>1</dim>
					<dim>60</dim>
					<dim>4</dim>
					<dim>4</dim>
				</port>
			</output>
		</layer>
		<layer id="26" name="stage2_in0_shuffle_reshape1" precision="FP32" type="Reshape">
			<data dim="1,4,4,3,20"/>
			<input>
				<port id="0">
					<dim>1</dim>
					<dim>60</dim>
					<dim>4</dim>
					<dim>4</dim>
				</port>
			</input>
			<output>
				<port id="1">
					<dim>1</dim>
					<dim>3</dim>
					<dim>20</dim>
					<dim>16</dim>
				</port>
			</output>
		</layer>
		<layer id="27" name="stage2_in0_shuffletranspose" precision="FP32" type="Permute">
			<data order="0,2,1,3"/>
			<input>
				<port id="0">
					<dim>1</dim>
					<dim>3</dim>
					<dim>20</dim>
					<dim>16</dim>
				</port>
			</input>
			<output>
				<port id="1">
					<dim>1</dim>
					<dim>20</dim>
					<dim>3</dim>
					<dim>16</dim>
				</port>
			</output>
		</layer>
		<layer id="28" name="stage2_in0_shuffle_reshape2" precision="FP32" type="Reshape">
			<data dim="1,60,4,4"/>
			<input>
				<port id="0">
					<dim>1</dim>
					<dim>20</dim>
					<dim>3</dim>
					<dim>16</dim>
				</port>
			</input>
			<output>
				<port id="1">
					<dim>1</dim>
					<dim>60</dim>
					<dim>4</dim>
					<dim>4</dim>
				</port>
			</output>
		</layer>
		<layer id="29" name="depthwise_1" precision="FP32" type="Convolution">
			<data dilations="1,1" group="60" kernel="3,3" output="60" pads_begin="1,1" pads_end="1,1" strides="1,1"/>
			<input>
				<port id="0">
					<dim>1</dim>
					<dim>60</dim>
					<dim>4</dim>
					<dim>4</dim>
				</port>
			</input>
			<output>
				<port id="3">
					<dim>1</dim>
					<dim>60</dim>
					<dim>4</dim>
					<dim>4</dim>
				</port>
			</output>
			<blobs>
				<weights offset="46584" size="2160"/>
				<biases offset="48744" size="240"/>
			</blobs>
		</layer>
		<layer id="30" name="Conv2D_8" precision="FP32" type="Convolution">
			<data auto_pad="valid" dilations="1,1" group="3" kernel="1,1" output="240" pads_begin="0,0" pads_end="0,0" strides="1,1"/>
			<input>
				<port id="0">
					<dim>1</dim>
					<dim>60</dim>
					<dim>4</dim>
					<dim>4</dim>
				</port>
			</input>
			<output>
				<port id="3">
					<dim>1</dim>
					<dim>240</dim>
					<dim>4</dim>
					<dim>4</dim>
				</port>
			</output>
			<blobs>
				<weights offset="48984" size="19200"/>
				<biases offset="68184" size="960"/>
			</blobs>
		</layer>
		<layer id="31" name="add" precision="FP32" type="Eltwise">
			<data operation="sum"/>
			<input>
				<port id="0">
					<dim>1</dim>
					<dim>240</dim>
					<dim>4</dim>
					<dim>4</dim>
				</port>
				<port id="1">
					<dim>1</dim>
					<dim>240</dim>
					<dim>4</dim>
					<dim>4</dim>
				</port>
			</input>
			<output>
				<port id="2">
					<dim>1</dim>
					<dim>240</dim>
					<dim>4</dim>
					<dim>4</dim>
				</port>
			</output>
		</layer>
		<layer id="32" name="Relu_7" precision="FP32" type="ReLU">
			<input>
				<port id="0">
					<dim>1</dim>
					<dim>240</dim>
					<dim>4</dim>
					<dim>4</dim>
				</port>
			</input>
			<output>
				<port id="1">
					<dim>1</dim>
					<dim>240</dim>
					<dim>4</dim>
					<dim>4</dim>
				</port>
			</output>
		</layer>
		<layer id="33" name="strided_slice_11/Split" precision="FP32" type="Split">
			<data axis="1"/>
			<input>
				<port id="0">
					<dim>1</dim>
					<dim>240</dim>
					<dim>4</dim>
					<dim>4</dim>
				</port>
			</input>
			<output>
				<port id="1">
					<dim>1</dim>
					<dim>80</dim>
					<dim>4</dim>
					<dim>4</dim>
				</port>
				<port id="2">
					<dim>1</dim>
					<dim>80</dim>
					<dim>4</dim>
					<dim>4</dim>
				</port>
				<port id="3">
					<dim>1</dim>
					<dim>80</dim>
					<dim>4</dim>
					<dim>4</dim>
				</port>
			</output>
		</layer>
		<layer id="34" name="Conv2D_11" precision="FP32" type="Convolution">
			<data auto_pad="valid" dilations="1,1" group="1" kernel="1,1" output="20" pads_begin="0,0" pads_end="0,0" strides="1,1"/>
			<input>
				<port id="0">
					<dim>1</dim>
					<dim>80</dim>
					<dim>4</dim>
					<dim>4</dim>
				</port>
			</input>
			<output>
				<port id="3">
					<dim>1</dim>
					<dim>20</dim>
					<dim>4</dim>
					<dim>4</dim>
				</port>
			</output>
			<blobs>
				<weights offset="69144" size="6400"/>
				<biases offset="75544" size="80"/>
			</blobs>
		</layer>
		<layer id="35" name="Relu_8" precision="FP32" type="ReLU">
			<input>
				<port id="0">
					<dim>1</dim>
					<dim>20</dim>
					<dim>4</dim>
					<dim>4</dim>
				</port>
			</input>
			<output>
				<port id="1">
					<dim>1</dim>
					<dim>20</dim>
					<dim>4</dim>
					<dim>4</dim>
				</port>
			</output>
		</layer>
		<layer id="36" name="Conv2D_12" precision="FP32" type="Convolution">
			<data auto_pad="valid" dilations="1,1" group="1" kernel="1,1" output="20" pads_begin="0,0" pads_end="0,0" strides="1,1"/>
			<input>
				<port id="0">
					<dim>1</dim>
					<dim>80</dim>
					<dim>4</dim>
					<dim>4</dim>
				</port>
			</input>
			<output>
				<port id="3">
					<dim>1</dim>
					<dim>20</dim>
					<dim>4</dim>
					<dim>4</dim>
				</port>
			</output>
			<blobs>
				<weights offset="75624" size="6400"/>
				<biases offset="82024" size="80"/>
			</blobs>
		</layer>
		<layer id="37" name="Relu_9" precision="FP32" type="ReLU">
			<input>
				<port id="0">
					<dim>1</dim>
					<dim>20</dim>
					<dim>4</dim>
					<dim>4</dim>
				</port>
			</input>
			<output>
				<port id="1">
					<dim>1</dim>
					<dim>20</dim>
					<dim>4</dim>
					<dim>4</dim>
				</port>
			</output>
		</layer>
		<layer id="38" name="Conv2D_13" precision="FP32" type="Convolution">
			<data auto_pad="valid" dilations="1,1" group="1" kernel="1,1" output="20" pads_begin="0,0" pads_end="0,0" strides="1,1"/>
			<input>
				<port id="0">
					<dim>1</dim>
					<dim>80</dim>
					<dim>4</dim>
					<dim>4</dim>
				</port>
			</input>
			<output>
				<port id="3">
					<dim>1</dim>
					<dim>20</dim>
					<dim>4</dim>
					<dim>4</dim>
				</port>
			</output>
			<blobs>
				<weights offset="82104" size="6400"/>
				<biases offset="88504" size="80"/>
			</blobs>
		</layer>
		<layer id="39" name="Relu_10" precision="FP32" type="ReLU">
			<input>
				<port id="0">
					<dim>1</dim>
					<dim>20</dim>
					<dim>4</dim>
					<dim>4</dim>
				</port>
			</input>
			<output>
				<port id="1">
					<dim>1</dim>
					<dim>20</dim>
					<dim>4</dim>
					<dim>4</dim>
				</port>
			</output>
		</layer>
		<layer id="40" name="concat_5" precision="FP32" type="Concat">
			<data axis="1"/>
			<input>
				<port id="0">
					<dim>1</dim>
					<dim>20</dim>
					<dim>4</dim>
					<dim>4</dim>
				</port>
				<port id="1">
					<dim>1</dim>
					<dim>20</dim>
					<dim>4</dim>
					<dim>4</dim>
				</port>
				<port id="2">
					<dim>1</dim>
					<dim>20</dim>
					<dim>4</dim>
					<dim>4</dim>
				</port>
			</input>
			<output>
				<port id="3">
					<dim>1</dim>
					<dim>60</dim>
					<dim>4</dim>
					<dim>4</dim>
				</port>
			</output>
		</layer>
		<layer id="41" name="Mul1_7258/Fused_Mul_/FusedScaleShift_" precision="FP32" type="ScaleShift">
			<input>
				<port id="0">
					<dim>1</dim>
					<dim>60</dim>
					<dim>4</dim>
					<dim>4</dim>
				</port>
			</input>
			<output>
				<port id="3">
					<dim>1</dim>
					<dim>60</dim>
					<dim>4</dim>
					<dim>4</dim>
				</port>
			</output>
			<blobs>
				<weights offset="88584" size="240"/>
				<biases offset="88824" size="240"/>
			</blobs>
		</layer>
		<layer id="42" name="Relu_11" precision="FP32" type="ReLU">
			<input>
				<port id="0">
					<dim>1</dim>
					<dim>60</dim>
					<dim>4</dim>
					<dim>4</dim>
				</port>
			</input>
			<output>
				<port id="1">
					<dim>1</dim>
					<dim>60</dim>
					<dim>4</dim>
					<dim>4</dim>
				</port>
			</output>
		</layer>
		<layer id="43" name="stage2_in1_shuffle_reshape1" precision="FP32" type="Reshape">
			<data dim="1,4,4,3,20"/>
			<input>
				<port id="0">
					<dim>1</dim>
					<dim>60</dim>
					<dim>4</dim>
					<dim>4</dim>
				</port>
			</input>
			<output>
				<port id="1">
					<dim>1</dim>
					<dim>3</dim>
					<dim>20</dim>
					<dim>16</dim>
				</port>
			</output>
		</layer>
		<layer id="44" name="stage2_in1_shuffletranspose" precision="FP32" type="Permute">
			<data order="0,2,1,3"/>
			<input>
				<port id="0">
					<dim>1</dim>
					<dim>3</dim>
					<dim>20</dim>
					<dim>16</dim>
				</port>
			</input>
			<output>
				<port id="1">
					<dim>1</dim>
					<dim>20</dim>
					<dim>3</dim>
					<dim>16</dim>
				</port>
			</output>
		</layer>
		<layer id="45" name="stage2_in1_shuffle_reshape2" precision="FP32" type="Reshape">
			<data dim="1,60,4,4"/>
			<input>
				<port id="0">
					<dim>1</dim>
					<dim>20</dim>
					<dim>3</dim>
					<dim>16</dim>
				</port>
			</input>
			<output>
				<port id="1">
					<dim>1</dim>
					<dim>60</dim>
					<dim>4</dim>
					<dim>4</dim>
				</port>
			</output>
		</layer>
		<layer id="46" name="depthwise_2" precision="FP32" type="Convolution">
			<data dilations="1,1" group="60" kernel="3,3" output="60" pads_begin="1,1" pads_end="1,1" strides="1,1"/>
			<input>
				<port id="0">
					<dim>1</dim>
					<dim>60</dim>
					<dim>4</dim>
					<dim>4</dim>
				</port>
			</input>
			<output>
				<port id="3">
					<dim>1</dim>
					<dim>60</dim>
					<dim>4</dim>
					<dim>4</dim>
				</port>
			</output>
			<blobs>
				<weights offset="89064" size="2160"/>
				<biases offset="91224" size="240"/>
			</blobs>
		</layer>
		<layer id="47" name="Conv2D_14" precision="FP32" type="Convolution">
			<data auto_pad="valid" dilations="1,1" group="3" kernel="1,1" output="240" pads_begin="0,0" pads_end="0,0" strides="1,1"/>
			<input>
				<port id="0">
					<dim>1</dim>
					<dim>60</dim>
					<dim>4</dim>
					<dim>4</dim>
				</port>
			</input>
			<output>
				<port id="3">
					<dim>1</dim>
					<dim>240</dim>
					<dim>4</dim>
					<dim>4</dim>
				</port>
			</output>
			<blobs>
				<weights offset="91464" size="19200"/>
				<biases offset="110664" size="960"/>
			</blobs>
		</layer>
		<layer id="48" name="add_1" precision="FP32" type="Eltwise">
			<data operation="sum"/>
			<input>
				<port id="0">
					<dim>1</dim>
					<dim>240</dim>
					<dim>4</dim>
					<dim>4</dim>
				</port>
				<port id="1">
					<dim>1</dim>
					<dim>240</dim>
					<dim>4</dim>
					<dim>4</dim>
				</port>
			</input>
			<output>
				<port id="2">
					<dim>1</dim>
					<dim>240</dim>
					<dim>4</dim>
					<dim>4</dim>
				</port>
			</output>
		</layer>
		<layer id="49" name="Relu_12" precision="FP32" type="ReLU">
			<input>
				<port id="0">
					<dim>1</dim>
					<dim>240</dim>
					<dim>4</dim>
					<dim>4</dim>
				</port>
			</input>
			<output>
				<port id="1">
					<dim>1</dim>
					<dim>240</dim>
					<dim>4</dim>
					<dim>4</dim>
				</port>
			</output>
		</layer>
		<layer id="50" name="strided_slice_16/Split" precision="FP32" type="Split">
			<data axis="1"/>
			<input>
				<port id="0">
					<dim>1</dim>
					<dim>240</dim>
					<dim>4</dim>
					<dim>4</dim>
				</port>
			</input>
			<output>
				<port id="1">
					<dim>1</dim>
					<dim>80</dim>
					<dim>4</dim>
					<dim>4</dim>
				</port>
				<port id="2">
					<dim>1</dim>
					<dim>80</dim>
					<dim>4</dim>
					<dim>4</dim>
				</port>
				<port id="3">
					<dim>1</dim>
					<dim>80</dim>
					<dim>4</dim>
					<dim>4</dim>
				</port>
			</output>
		</layer>
		<layer id="51" name="Conv2D_17" precision="FP32" type="Convolution">
			<data auto_pad="valid" dilations="1,1" group="1" kernel="1,1" output="20" pads_begin="0,0" pads_end="0,0" strides="1,1"/>
			<input>
				<port id="0">
					<dim>1</dim>
					<dim>80</dim>
					<dim>4</dim>
					<dim>4</dim>
				</port>
			</input>
			<output>
				<port id="3">
					<dim>1</dim>
					<dim>20</dim>
					<dim>4</dim>
					<dim>4</dim>
				</port>
			</output>
			<blobs>
				<weights offset="111624" size="6400"/>
				<biases offset="118024" size="80"/>
			</blobs>
		</layer>
		<layer id="52" name="Relu_13" precision="FP32" type="ReLU">
			<input>
				<port id="0">
					<dim>1</dim>
					<dim>20</dim>
					<dim>4</dim>
					<dim>4</dim>
				</port>
			</input>
			<output>
				<port id="1">
					<dim>1</dim>
					<dim>20</dim>
					<dim>4</dim>
					<dim>4</dim>
				</port>
			</output>
		</layer>
		<layer id="53" name="Conv2D_18" precision="FP32" type="Convolution">
			<data auto_pad="valid" dilations="1,1" group="1" kernel="1,1" output="20" pads_begin="0,0" pads_end="0,0" strides="1,1"/>
			<input>
				<port id="0">
					<dim>1</dim>
					<dim>80</dim>
					<dim>4</dim>
					<dim>4</dim>
				</port>
			</input>
			<output>
				<port id="3">
					<dim>1</dim>
					<dim>20</dim>
					<dim>4</dim>
					<dim>4</dim>
				</port>
			</output>
			<blobs>
				<weights offset="118104" size="6400"/>
				<biases offset="124504" size="80"/>
			</blobs>
		</layer>
		<layer id="54" name="Relu_14" precision="FP32" type="ReLU">
			<input>
				<port id="0">
					<dim>1</dim>
					<dim>20</dim>
					<dim>4</dim>
					<dim>4</dim>
				</port>
			</input>
			<output>
				<port id="1">
					<dim>1</dim>
					<dim>20</dim>
					<dim>4</dim>
					<dim>4</dim>
				</port>
			</output>
		</layer>
		<layer id="55" name="Conv2D_19" precision="FP32" type="Convolution">
			<data auto_pad="valid" dilations="1,1" group="1" kernel="1,1" output="20" pads_begin="0,0" pads_end="0,0" strides="1,1"/>
			<input>
				<port id="0">
					<dim>1</dim>
					<dim>80</dim>
					<dim>4</dim>
					<dim>4</dim>
				</port>
			</input>
			<output>
				<port id="3">
					<dim>1</dim>
					<dim>20</dim>
					<dim>4</dim>
					<dim>4</dim>
				</port>
			</output>
			<blobs>
				<weights offset="124584" size="6400"/>
				<biases offset="130984" size="80"/>
			</blobs>
		</layer>
		<layer id="56" name="Relu_15" precision="FP32" type="ReLU">
			<input>
				<port id="0">
					<dim>1</dim>
					<dim>20</dim>
					<dim>4</dim>
					<dim>4</dim>
				</port>
			</input>
			<output>
				<port id="1">
					<dim>1</dim>
					<dim>20</dim>
					<dim>4</dim>
					<dim>4</dim>
				</port>
			</output>
		</layer>
		<layer id="57" name="concat_7" precision="FP32" type="Concat">
			<data axis="1"/>
			<input>
				<port id="0">
					<dim>1</dim>
					<dim>20</dim>
					<dim>4</dim>
					<dim>4</dim>
				</port>
				<port id="1">
					<dim>1</dim>
					<dim>20</dim>
					<dim>4</dim>
					<dim>4</dim>
				</port>
				<port id="2">
					<dim>1</dim>
					<dim>20</dim>
					<dim>4</dim>
					<dim>4</dim>
				</port>
			</input>
			<output>
				<port id="3">
					<dim>1</dim>
					<dim>60</dim>
					<dim>4</dim>
					<dim>4</dim>
				</port>
			</output>
		</layer>
		<layer id="58" name="Mul1_6871/Fused_Mul_/FusedScaleShift_" precision="FP32" type="ScaleShift">
			<input>
				<port id="0">
					<dim>1</dim>
					<dim>60</dim>
					<dim>4</dim>
					<dim>4</dim>
				</port>
			</input>
			<output>
				<port id="3">
					<dim>1</dim>
					<dim>60</dim>
					<dim>4</dim>
					<dim>4</dim>
				</port>
			</output>
			<blobs>
				<weights offset="131064" size="240"/>
				<biases offset="131304" size="240"/>
			</blobs>
		</layer>
		<layer id="59" name="Relu_16" precision="FP32" type="ReLU">
			<input>
				<port id="0">
					<dim>1</dim>
					<dim>60</dim>
					<dim>4</dim>
					<dim>4</dim>
				</port>
			</input>
			<output>
				<port id="1">
					<dim>1</dim>
					<dim>60</dim>
					<dim>4</dim>
					<dim>4</dim>
				</port>
			</output>
		</layer>
		<layer id="60" name="stage2_in2_shuffle_reshape1" precision="FP32" type="Reshape">
			<data dim="1,4,4,3,20"/>
			<input>
				<port id="0">
					<dim>1</dim>
					<dim>60</dim>
					<dim>4</dim>
					<dim>4</dim>
				</port>
			</input>
			<output>
				<port id="1">
					<dim>1</dim>
					<dim>3</dim>
					<dim>20</dim>
					<dim>16</dim>
				</port>
			</output>
		</layer>
		<layer id="61" name="stage2_in2_shuffletranspose" precision="FP32" type="Permute">
			<data order="0,2,1,3"/>
			<input>
				<port id="0">
					<dim>1</dim>
					<dim>3</dim>
					<dim>20</dim>
					<dim>16</dim>
				</port>
			</input>
			<output>
				<port id="1">
					<dim>1</dim>
					<dim>20</dim>
					<dim>3</dim>
					<dim>16</dim>
				</port>
			</output>
		</layer>
		<layer id="62" name="stage2_in2_shuffle_reshape2" precision="FP32" type="Reshape">
			<data dim="1,60,4,4"/>
			<input>
				<port id="0">
					<dim>1</dim>
					<dim>20</dim>
					<dim>3</dim>
					<dim>16</dim>
				</port>
			</input>
			<output>
				<port id="1">
					<dim>1</dim>
					<dim>60</dim>
					<dim>4</dim>
					<dim>4</dim>
				</port>
			</output>
		</layer>
		<layer id="63" name="depthwise_3" precision="FP32" type="Convolution">
			<data dilations="1,1" group="60" kernel="3,3" output="60" pads_begin="1,1" pads_end="1,1" strides="1,1"/>
			<input>
				<port id="0">
					<dim>1</dim>
					<dim>60</dim>
					<dim>4</dim>
					<dim>4</dim>
				</port>
			</input>
			<output>
				<port id="3">
					<dim>1</dim>
					<dim>60</dim>
					<dim>4</dim>
					<dim>4</dim>
				</port>
			</output>
			<blobs>
				<weights offset="131544" size="2160"/>
				<biases offset="133704" size="240"/>
			</blobs>
		</layer>
		<layer id="64" name="Conv2D_20" precision="FP32" type="Convolution">
			<data auto_pad="valid" dilations="1,1" group="3" kernel="1,1" output="240" pads_begin="0,0" pads_end="0,0" strides="1,1"/>
			<input>
				<port id="0">
					<dim>1</dim>
					<dim>60</dim>
					<dim>4</dim>
					<dim>4</dim>
				</port>
			</input>
			<output>
				<port id="3">
					<dim>1</dim>
					<dim>240</dim>
					<dim>4</dim>
					<dim>4</dim>
				</port>
			</output>
			<blobs>
				<weights offset="133944" size="19200"/>
				<biases offset="153144" size="960"/>
			</blobs>
		</layer>
		<layer id="65" name="add_2" precision="FP32" type="Eltwise">
			<data operation="sum"/>
			<input>
				<port id="0">
					<dim>1</dim>
					<dim>240</dim>
					<dim>4</dim>
					<dim>4</dim>
				</port>
				<port id="1">
					<dim>1</dim>
					<dim>240</dim>
					<dim>4</dim>
					<dim>4</dim>
				</port>
			</input>
			<output>
				<port id="2">
					<dim>1</dim>
					<dim>240</dim>
					<dim>4</dim>
					<dim>4</dim>
				</port>
			</output>
		</layer>
		<layer id="66" name="Relu_17" precision="FP32" type="ReLU">
			<input>
				<port id="0">
					<dim>1</dim>
					<dim>240</dim>
					<dim>4</dim>
					<dim>4</dim>
				</port>
			</input>
			<output>
				<port id="1">
					<dim>1</dim>
					<dim>240</dim>
					<dim>4</dim>
					<dim>4</dim>
				</port>
			</output>
		</layer>
		<layer id="67" name="AvgPool_1" precision="FP32" type="Pooling">
			<data auto_pad="same_upper" exclude-pad="true" kernel="3,3" pads_begin="0,0" pads_end="1,1" pool-method="avg" strides="2,2"/>
			<input>
				<port id="0">
					<dim>1</dim>
					<dim>240</dim>
					<dim>4</dim>
					<dim>4</dim>
				</port>
			</input>
			<output>
				<port id="1">
					<dim>1</dim>
					<dim>240</dim>
					<dim>2</dim>
					<dim>2</dim>
				</port>
			</output>
		</layer>
		<layer id="68" name="strided_slice_21/Split" precision="FP32" type="Split">
			<data axis="1"/>
			<input>
				<port id="0">
					<dim>1</dim>
					<dim>240</dim>
					<dim>4</dim>
					<dim>4</dim>
				</port>
			</input>
			<output>
				<port id="1">
					<dim>1</dim>
					<dim>80</dim>
					<dim>4</dim>
					<dim>4</dim>
				</port>
				<port id="2">
					<dim>1</dim>
					<dim>80</dim>
					<dim>4</dim>
					<dim>4</dim>
				</port>
				<port id="3">
					<dim>1</dim>
					<dim>80</dim>
					<dim>4</dim>
					<dim>4</dim>
				</port>
			</output>
		</layer>
		<layer id="69" name="Conv2D_23" precision="FP32" type="Convolution">
			<data auto_pad="valid" dilations="1,1" group="1" kernel="1,1" output="20" pads_begin="0,0" pads_end="0,0" strides="1,1"/>
			<input>
				<port id="0">
					<dim>1</dim>
					<dim>80</dim>
					<dim>4</dim>
					<dim>4</dim>
				</port>
			</input>
			<output>
				<port id="3">
					<dim>1</dim>
					<dim>20</dim>
					<dim>4</dim>
					<dim>4</dim>
				</port>
			</output>
			<blobs>
				<weights offset="154104" size="6400"/>
				<biases offset="160504" size="80"/>
			</blobs>
		</layer>
		<layer id="70" name="Relu_18" precision="FP32" type="ReLU">
			<input>
				<port id="0">
					<dim>1</dim>
					<dim>20</dim>
					<dim>4</dim>
					<dim>4</dim>
				</port>
			</input>
			<output>
				<port id="1">
					<dim>1</dim>
					<dim>20</dim>
					<dim>4</dim>
					<dim>4</dim>
				</port>
			</output>
		</layer>
		<layer id="71" name="Conv2D_24" precision="FP32" type="Convolution">
			<data auto_pad="valid" dilations="1,1" group="1" kernel="1,1" output="20" pads_begin="0,0" pads_end="0,0" strides="1,1"/>
			<input>
				<port id="0">
					<dim>1</dim>
					<dim>80</dim>
					<dim>4</dim>
					<dim>4</dim>
				</port>
			</input>
			<output>
				<port id="3">
					<dim>1</dim>
					<dim>20</dim>
					<dim>4</dim>
					<dim>4</dim>
				</port>
			</output>
			<blobs>
				<weights offset="160584" size="6400"/>
				<biases offset="166984" size="80"/>
			</blobs>
		</layer>
		<layer id="72" name="Relu_19" precision="FP32" type="ReLU">
			<input>
				<port id="0">
					<dim>1</dim>
					<dim>20</dim>
					<dim>4</dim>
					<dim>4</dim>
				</port>
			</input>
			<output>
				<port id="1">
					<dim>1</dim>
					<dim>20</dim>
					<dim>4</dim>
					<dim>4</dim>
				</port>
			</output>
		</layer>
		<layer id="73" name="Conv2D_25" precision="FP32" type="Convolution">
			<data auto_pad="valid" dilations="1,1" group="1" kernel="1,1" output="20" pads_begin="0,0" pads_end="0,0" strides="1,1"/>
			<input>
				<port id="0">
					<dim>1</dim>
					<dim>80</dim>
					<dim>4</dim>
					<dim>4</dim>
				</port>
			</input>
			<output>
				<port id="3">
					<dim>1</dim>
					<dim>20</dim>
					<dim>4</dim>
					<dim>4</dim>
				</port>
			</output>
			<blobs>
				<weights offset="167064" size="6400"/>
				<biases offset="173464" size="80"/>
			</blobs>
		</layer>
		<layer id="74" name="Relu_20" precision="FP32" type="ReLU">
			<input>
				<port id="0">
					<dim>1</dim>
					<dim>20</dim>
					<dim>4</dim>
					<dim>4</dim>
				</port>
			</input>
			<output>
				<port id="1">
					<dim>1</dim>
					<dim>20</dim>
					<dim>4</dim>
					<dim>4</dim>
				</port>
			</output>
		</layer>
		<layer id="75" name="concat_9" precision="FP32" type="Concat">
			<data axis="1"/>
			<input>
				<port id="0">
					<dim>1</dim>
					<dim>20</dim>
					<dim>4</dim>
					<dim>4</dim>
				</port>
				<port id="1">
					<dim>1</dim>
					<dim>20</dim>
					<dim>4</dim>
					<dim>4</dim>
				</port>
				<port id="2">
					<dim>1</dim>
					<dim>20</dim>
					<dim>4</dim>
					<dim>4</dim>
				</port>
			</input>
			<output>
				<port id="3">
					<dim>1</dim>
					<dim>60</dim>
					<dim>4</dim>
					<dim>4</dim>
				</port>
			</output>
		</layer>
		<layer id="76" name="Mul1_7024/Fused_Mul_/FusedScaleShift_" precision="FP32" type="ScaleShift">
			<input>
				<port id="0">
					<dim>1</dim>
					<dim>60</dim>
					<dim>4</dim>
					<dim>4</dim>
				</port>
			</input>
			<output>
				<port id="3">
					<dim>1</dim>
					<dim>60</dim>
					<dim>4</dim>
					<dim>4</dim>
				</port>
			</output>
			<blobs>
				<weights offset="173544" size="240"/>
				<biases offset="173784" size="240"/>
			</blobs>
		</layer>
		<layer id="77" name="Relu_21" precision="FP32" type="ReLU">
			<input>
				<port id="0">
					<dim>1</dim>
					<dim>60</dim>
					<dim>4</dim>
					<dim>4</dim>
				</port>
			</input>
			<output>
				<port id="1">
					<dim>1</dim>
					<dim>60</dim>
					<dim>4</dim>
					<dim>4</dim>
				</port>
			</output>
		</layer>
		<layer id="78" name="stage3_out_shuffle_reshape1" precision="FP32" type="Reshape">
			<data dim="1,4,4,3,20"/>
			<input>
				<port id="0">
					<dim>1</dim>
					<dim>60</dim>
					<dim>4</dim>
					<dim>4</dim>
				</port>
			</input>
			<output>
				<port id="1">
					<dim>1</dim>
					<dim>3</dim>
					<dim>20</dim>
					<dim>16</dim>
				</port>
			</output>
		</layer>
		<layer id="79" name="stage3_out_shuffletranspose" precision="FP32" type="Permute">
			<data order="0,2,1,3"/>
			<input>
				<port id="0">
					<dim>1</dim>
					<dim>3</dim>
					<dim>20</dim>
					<dim>16</dim>
				</port>
			</input>
			<output>
				<port id="1">
					<dim>1</dim>
					<dim>20</dim>
					<dim>3</dim>
					<dim>16</dim>
				</port>
			</output>
		</layer>
		<layer id="80" name="stage3_out_shuffle_reshape2" precision="FP32" type="Reshape">
			<data dim="1,60,4,4"/>
			<input>
				<port id="0">
					<dim>1</dim>
					<dim>20</dim>
					<dim>3</dim>
					<dim>16</dim>
				</port>
			</input>
			<output>
				<port id="1">
					<dim>1</dim>
					<dim>60</dim>
					<dim>4</dim>
					<dim>4</dim>
				</port>
			</output>
		</layer>
		<layer id="81" name="depthwise_4" precision="FP32" type="Convolution">
			<data dilations="1,1" group="60" kernel="3,3" output="60" pads_begin="1,1" pads_end="1,1" strides="2,2"/>
			<input>
				<port id="0">
					<dim>1</dim>
					<dim>60</dim>
					<dim>4</dim>
					<dim>4</dim>
				</port>
			</input>
			<output>
				<port id="3">
					<dim>1</dim>
					<dim>60</dim>
					<dim>2</dim>
					<dim>2</dim>
				</port>
			</output>
			<blobs>
				<weights offset="174024" size="2160"/>
				<biases offset="176184" size="240"/>
			</blobs>
		</layer>
		<layer id="82" name="Conv2D_26" precision="FP32" type="Convolution">
			<data auto_pad="valid" dilations="1,1" group="3" kernel="1,1" output="240" pads_begin="0,0" pads_end="0,0" strides="1,1"/>
			<input>
				<port id="0">
					<dim>1</dim>
					<dim>60</dim>
					<dim>2</dim>
					<dim>2</dim>
				</port>
			</input>
			<output>
				<port id="3">
					<dim>1</dim>
					<dim>240</dim>
					<dim>2</dim>
					<dim>2</dim>
				</port>
			</output>
			<blobs>
				<weights offset="176424" size="19200"/>
				<biases offset="195624" size="960"/>
			</blobs>
		</layer>
		<layer id="83" name="concat_11" precision="FP32" type="Concat">
			<data axis="1"/>
			<input>
				<port id="0">
					<dim>1</dim>
					<dim>240</dim>
					<dim>2</dim>
					<dim>2</dim>
				</port>
				<port id="1">
					<dim>1</dim>
					<dim>240</dim>
					<dim>2</dim>
					<dim>2</dim>
				</port>
			</input>
			<output>
				<port id="2">
					<dim>1</dim>
					<dim>480</dim>
					<dim>2</dim>
					<dim>2</dim>
				</port>
			</output>
		</layer>
		<layer id="84" name="Relu_22" precision="FP32" type="ReLU">
			<input>
				<port id="0">
					<dim>1</dim>
					<dim>480</dim>
					<dim>2</dim>
					<dim>2</dim>
				</port>
			</input>
			<output>
				<port id="1">
					<dim>1</dim>
					<dim>480</dim>
					<dim>2</dim>
					<dim>2</dim>
				</port>
			</output>
		</layer>
		<layer id="85" name="strided_slice_27/Split" precision="FP32" type="Split">
			<data axis="1"/>
			<input>
				<port id="0">
					<dim>1</dim>
					<dim>480</dim>
					<dim>2</dim>
					<dim>2</dim>
				</port>
			</input>
			<output>
				<port id="1">
					<dim>1</dim>
					<dim>160</dim>
					<dim>2</dim>
					<dim>2</dim>
				</port>
				<port id="2">
					<dim>1</dim>
					<dim>160</dim>
					<dim>2</dim>
					<dim>2</dim>
				</port>
				<port id="3">
					<dim>1</dim>
					<dim>160</dim>
					<dim>2</dim>
					<dim>2</dim>
				</port>
			</output>
		</layer>
		<layer id="86" name="Conv2D_29" precision="FP32" type="Convolution">
			<data auto_pad="valid" dilations="1,1" group="1" kernel="1,1" output="40" pads_begin="0,0" pads_end="0,0" strides="1,1"/>
			<input>
				<port id="0">
					<dim>1</dim>
					<dim>160</dim>
					<dim>2</dim>
					<dim>2</dim>
				</port>
			</input>
			<output>
				<port id="3">
					<dim>1</dim>
					<dim>40</dim>
					<dim>2</dim>
					<dim>2</dim>
				</port>
			</output>
			<blobs>
				<weights offset="196584" size="25600"/>
				<biases offset="222184" size="160"/>
			</blobs>
		</layer>
		<layer id="87" name="Relu_23" precision="FP32" type="ReLU">
			<input>
				<port id="0">
					<dim>1</dim>
					<dim>40</dim>
					<dim>2</dim>
					<dim>2</dim>
				</port>
			</input>
			<output>
				<port id="1">
					<dim>1</dim>
					<dim>40</dim>
					<dim>2</dim>
					<dim>2</dim>
				</port>
			</output>
		</layer>
		<layer id="88" name="Conv2D_30" precision="FP32" type="Convolution">
			<data auto_pad="valid" dilations="1,1" group="1" kernel="1,1" output="40" pads_begin="0,0" pads_end="0,0" strides="1,1"/>
			<input>
				<port id="0">
					<dim>1</dim>
					<dim>160</dim>
					<dim>2</dim>
					<dim>2</dim>
				</port>
			</input>
			<output>
				<port id="3">
					<dim>1</dim>
					<dim>40</dim>
					<dim>2</dim>
					<dim>2</dim>
				</port>
			</output>
			<blobs>
				<weights offset="222344" size="25600"/>
				<biases offset="247944" size="160"/>
			</blobs>
		</layer>
		<layer id="89" name="Relu_24" precision="FP32" type="ReLU">
			<input>
				<port id="0">
					<dim>1</dim>
					<dim>40</dim>
					<dim>2</dim>
					<dim>2</dim>
				</port>
			</input>
			<output>
				<port id="1">
					<dim>1</dim>
					<dim>40</dim>
					<dim>2</dim>
					<dim>2</dim>
				</port>
			</output>
		</layer>
		<layer id="90" name="Conv2D_31" precision="FP32" type="Convolution">
			<data auto_pad="valid" dilations="1,1" group="1" kernel="1,1" output="40" pads_begin="0,0" pads_end="0,0" strides="1,1"/>
			<input>
				<port id="0">
					<dim>1</dim>
					<dim>160</dim>
					<dim>2</dim>
					<dim>2</dim>
				</port>
			</input>
			<output>
				<port id="3">
					<dim>1</dim>
					<dim>40</dim>
					<dim>2</dim>
					<dim>2</dim>
				</port>
			</output>
			<blobs>
				<weights offset="248104" size="25600"/>
				<biases offset="273704" size="160"/>
			</blobs>
		</layer>
		<layer id="91" name="Relu_25" precision="FP32" type="ReLU">
			<input>
				<port id="0">
					<dim>1</dim>
					<dim>40</dim>
					<dim>2</dim>
					<dim>2</dim>
				</port>
			</input>
			<output>
				<port id="1">
					<dim>1</dim>
					<dim>40</dim>
					<dim>2</dim>
					<dim>2</dim>
				</port>
			</output>
		</layer>
		<layer id="92" name="concat_12" precision="FP32" type="Concat">
			<data axis="1"/>
			<input>
				<port id="0">
					<dim>1</dim>
					<dim>40</dim>
					<dim>2</dim>
					<dim>2</dim>
				</port>
				<port id="1">
					<dim>1</dim>
					<dim>40</dim>
					<dim>2</dim>
					<dim>2</dim>
				</port>
				<port id="2">
					<dim>1</dim>
					<dim>40</dim>
					<dim>2</dim>
					<dim>2</dim>
				</port>
			</input>
			<output>
				<port id="3">
					<dim>1</dim>
					<dim>120</dim>
					<dim>2</dim>
					<dim>2</dim>
				</port>
			</output>
		</layer>
		<layer id="93" name="Mul1_6727/Fused_Mul_/FusedScaleShift_" precision="FP32" type="ScaleShift">
			<input>
				<port id="0">
					<dim>1</dim>
					<dim>120</dim>
					<dim>2</dim>
					<dim>2</dim>
				</port>
			</input>
			<output>
				<port id="3">
					<dim>1</dim>
					<dim>120</dim>
					<dim>2</dim>
					<dim>2</dim>
				</port>
			</output>
			<blobs>
				<weights offset="273864" size="480"/>
				<biases offset="274344" size="480"/>
			</blobs>
		</layer>
		<layer id="94" name="Relu_26" precision="FP32" type="ReLU">
			<input>
				<port id="0">
					<dim>1</dim>
					<dim>120</dim>
					<dim>2</dim>
					<dim>2</dim>
				</port>
			</input>
			<output>
				<port id="1">
					<dim>1</dim>
					<dim>120</dim>
					<dim>2</dim>
					<dim>2</dim>
				</port>
			</output>
		</layer>
		<layer id="95" name="stage3_in0_shuffle_reshape1" precision="FP32" type="Reshape">
			<data dim="1,2,2,3,40"/>
			<input>
				<port id="0">
					<dim>1</dim>
					<dim>120</dim>
					<dim>2</dim>
					<dim>2</dim>
				</port>
			</input>
			<output>
				<port id="1">
					<dim>1</dim>
					<dim>3</dim>
					<dim>40</dim>
					<dim>4</dim>
				</port>
			</output>
		</layer>
		<layer id="96" name="stage3_in0_shuffletranspose" precision="FP32" type="Permute">
			<data order="0,2,1,3"/>
			<input>
				<port id="0">
					<dim>1</dim>
					<dim>3</dim>
					<dim>40</dim>
					<dim>4</dim>
				</port>
			</input>
			<output>
				<port id="1">
					<dim>1</dim>
					<dim>40</dim>
					<dim>3</dim>
					<dim>4</dim>
				</port>
			</output>
		</layer>
		<layer id="97" name="stage3_in0_shuffle_reshape2" precision="FP32" type="Reshape">
			<data dim="1,120,2,2"/>
			<input>
				<port id="0">
					<dim>1</dim>
					<dim>40</dim>
					<dim>3</dim>
					<dim>4</dim>
				</port>
			</input>
			<output>
				<port id="1">
					<dim>1</dim>
					<dim>120</dim>
					<dim>2</dim>
					<dim>2</dim>
				</port>
			</output>
		</layer>
		<layer id="98" name="depthwise_5" precision="FP32" type="Convolution">
			<data dilations="1,1" group="120" kernel="3,3" output="120" pads_begin="1,1" pads_end="1,1" strides="1,1"/>
			<input>
				<port id="0">
					<dim>1</dim>
					<dim>120</dim>
					<dim>2</dim>
					<dim>2</dim>
				</port>
			</input>
			<output>
				<port id="3">
					<dim>1</dim>
					<dim>120</dim>
					<dim>2</dim>
					<dim>2</dim>
				</port>
			</output>
			<blobs>
				<weights offset="274824" size="4320"/>
				<biases offset="279144" size="480"/>
			</blobs>
		</layer>
		<layer id="99" name="Conv2D_32" precision="FP32" type="Convolution">
			<data auto_pad="valid" dilations="1,1" group="3" kernel="1,1" output="480" pads_begin="0,0" pads_end="0,0" strides="1,1"/>
			<input>
				<port id="0">
					<dim>1</dim>
					<dim>120</dim>
					<dim>2</dim>
					<dim>2</dim>
				</port>
			</input>
			<output>
				<port id="3">
					<dim>1</dim>
					<dim>480</dim>
					<dim>2</dim>
					<dim>2</dim>
				</port>
			</output>
			<blobs>
				<weights offset="279624" size="76800"/>
				<biases offset="356424" size="1920"/>
			</blobs>
		</layer>
		<layer id="100" name="add_3" precision="FP32" type="Eltwise">
			<data operation="sum"/>
			<input>
				<port id="0">
					<dim>1</dim>
					<dim>480</dim>
					<dim>2</dim>
					<dim>2</dim>
				</port>
				<port id="1">
					<dim>1</dim>
					<dim>480</dim>
					<dim>2</dim>
					<dim>2</dim>
				</port>
			</input>
			<output>
				<port id="2">
					<dim>1</dim>
					<dim>480</dim>
					<dim>2</dim>
					<dim>2</dim>
				</port>
			</output>
		</layer>
		<layer id="101" name="Relu_27" precision="FP32" type="ReLU">
			<input>
				<port id="0">
					<dim>1</dim>
					<dim>480</dim>
					<dim>2</dim>
					<dim>2</dim>
				</port>
			</input>
			<output>
				<port id="1">
					<dim>1</dim>
					<dim>480</dim>
					<dim>2</dim>
					<dim>2</dim>
				</port>
			</output>
		</layer>
		<layer id="102" name="strided_slice_34/Split" precision="FP32" type="Split">
			<data axis="1"/>
			<input>
				<port id="0">
					<dim>1</dim>
					<dim>480</dim>
					<dim>2</dim>
					<dim>2</dim>
				</port>
			</input>
			<output>
				<port id="1">
					<dim>1</dim>
					<dim>160</dim>
					<dim>2</dim>
					<dim>2</dim>
				</port>
				<port id="2">
					<dim>1</dim>
					<dim>160</dim>
					<dim>2</dim>
					<dim>2</dim>
				</port>
				<port id="3">
					<dim>1</dim>
					<dim>160</dim>
					<dim>2</dim>
					<dim>2</dim>
				</port>
			</output>
		</layer>
		<layer id="103" name="Conv2D_35" precision="FP32" type="Convolution">
			<data auto_pad="valid" dilations="1,1" group="1" kernel="1,1" output="40" pads_begin="0,0" pads_end="0,0" strides="1,1"/>
			<input>
				<port id="0">
					<dim>1</dim>
					<dim>160</dim>
					<dim>2</dim>
					<dim>2</dim>
				</port>
			</input>
			<output>
				<port id="3">
					<dim>1</dim>
					<dim>40</dim>
					<dim>2</dim>
					<dim>2</dim>
				</port>
			</output>
			<blobs>
				<weights offset="358344" size="25600"/>
				<biases offset="383944" size="160"/>
			</blobs>
		</layer>
		<layer id="104" name="Relu_28" precision="FP32" type="ReLU">
			<input>
				<port id="0">
					<dim>1</dim>
					<dim>40</dim>
					<dim>2</dim>
					<dim>2</dim>
				</port>
			</input>
			<output>
				<port id="1">
					<dim>1</dim>
					<dim>40</dim>
					<dim>2</dim>
					<dim>2</dim>
				</port>
			</output>
		</layer>
		<layer id="105" name="Conv2D_36" precision="FP32" type="Convolution">
			<data auto_pad="valid" dilations="1,1" group="1" kernel="1,1" output="40" pads_begin="0,0" pads_end="0,0" strides="1,1"/>
			<input>
				<port id="0">
					<dim>1</dim>
					<dim>160</dim>
					<dim>2</dim>
					<dim>2</dim>
				</port>
			</input>
			<output>
				<port id="3">
					<dim>1</dim>
					<dim>40</dim>
					<dim>2</dim>
					<dim>2</dim>
				</port>
			</output>
			<blobs>
				<weights offset="384104" size="25600"/>
				<biases offset="409704" size="160"/>
			</blobs>
		</layer>
		<layer id="106" name="Relu_29" precision="FP32" type="ReLU">
			<input>
				<port id="0">
					<dim>1</dim>
					<dim>40</dim>
					<dim>2</dim>
					<dim>2</dim>
				</port>
			</input>
			<output>
				<port id="1">
					<dim>1</dim>
					<dim>40</dim>
					<dim>2</dim>
					<dim>2</dim>
				</port>
			</output>
		</layer>
		<layer id="107" name="Conv2D_37" precision="FP32" type="Convolution">
			<data auto_pad="valid" dilations="1,1" group="1" kernel="1,1" output="40" pads_begin="0,0" pads_end="0,0" strides="1,1"/>
			<input>
				<port id="0">
					<dim>1</dim>
					<dim>160</dim>
					<dim>2</dim>
					<dim>2</dim>
				</port>
			</input>
			<output>
				<port id="3">
					<dim>1</dim>
					<dim>40</dim>
					<dim>2</dim>
					<dim>2</dim>
				</port>
			</output>
			<blobs>
				<weights offset="409864" size="25600"/>
				<biases offset="435464" size="160"/>
			</blobs>
		</layer>
		<layer id="108" name="Relu_30" precision="FP32" type="ReLU">
			<input>
				<port id="0">
					<dim>1</dim>
					<dim>40</dim>
					<dim>2</dim>
					<dim>2</dim>
				</port>
			</input>
			<output>
				<port id="1">
					<dim>1</dim>
					<dim>40</dim>
					<dim>2</dim>
					<dim>2</dim>
				</port>
			</output>
		</layer>
		<layer id="109" name="concat_14" precision="FP32" type="Concat">
			<data axis="1"/>
			<input>
				<port id="0">
					<dim>1</dim>
					<dim>40</dim>
					<dim>2</dim>
					<dim>2</dim>
				</port>
				<port id="1">
					<dim>1</dim>
					<dim>40</dim>
					<dim>2</dim>
					<dim>2</dim>
				</port>
				<port id="2">
					<dim>1</dim>
					<dim>40</dim>
					<dim>2</dim>
					<dim>2</dim>
				</port>
			</input>
			<output>
				<port id="3">
					<dim>1</dim>
					<dim>120</dim>
					<dim>2</dim>
					<dim>2</dim>
				</port>
			</output>
		</layer>
		<layer id="110" name="Mul1_6628/Fused_Mul_/FusedScaleShift_" precision="FP32" type="ScaleShift">
			<input>
				<port id="0">
					<dim>1</dim>
					<dim>120</dim>
					<dim>2</dim>
					<dim>2</dim>
				</port>
			</input>
			<output>
				<port id="3">
					<dim>1</dim>
					<dim>120</dim>
					<dim>2</dim>
					<dim>2</dim>
				</port>
			</output>
			<blobs>
				<weights offset="435624" size="480"/>
				<biases offset="436104" size="480"/>
			</blobs>
		</layer>
		<layer id="111" name="Relu_31" precision="FP32" type="ReLU">
			<input>
				<port id="0">
					<dim>1</dim>
					<dim>120</dim>
					<dim>2</dim>
					<dim>2</dim>
				</port>
			</input>
			<output>
				<port id="1">
					<dim>1</dim>
					<dim>120</dim>
					<dim>2</dim>
					<dim>2</dim>
				</port>
			</output>
		</layer>
		<layer id="112" name="stage3_in1_shuffle_reshape1" precision="FP32" type="Reshape">
			<data dim="1,2,2,3,40"/>
			<input>
				<port id="0">
					<dim>1</dim>
					<dim>120</dim>
					<dim>2</dim>
					<dim>2</dim>
				</port>
			</input>
			<output>
				<port id="1">
					<dim>1</dim>
					<dim>3</dim>
					<dim>40</dim>
					<dim>4</dim>
				</port>
			</output>
		</layer>
		<layer id="113" name="stage3_in1_shuffletranspose" precision="FP32" type="Permute">
			<data order="0,2,1,3"/>
			<input>
				<port id="0">
					<dim>1</dim>
					<dim>3</dim>
					<dim>40</dim>
					<dim>4</dim>
				</port>
			</input>
			<output>
				<port id="1">
					<dim>1</dim>
					<dim>40</dim>
					<dim>3</dim>
					<dim>4</dim>
				</port>
			</output>
		</layer>
		<layer id="114" name="stage3_in1_shuffle_reshape2" precision="FP32" type="Reshape">
			<data dim="1,120,2,2"/>
			<input>
				<port id="0">
					<dim>1</dim>
					<dim>40</dim>
					<dim>3</dim>
					<dim>4</dim>
				</port>
			</input>
			<output>
				<port id="1">
					<dim>1</dim>
					<dim>120</dim>
					<dim>2</dim>
					<dim>2</dim>
				</port>
			</output>
		</layer>
		<layer id="115" name="depthwise_6" precision="FP32" type="Convolution">
			<data dilations="1,1" group="120" kernel="3,3" output="120" pads_begin="1,1" pads_end="1,1" strides="1,1"/>
			<input>
				<port id="0">
					<dim>1</dim>
					<dim>120</dim>
					<dim>2</dim>
					<dim>2</dim>
				</port>
			</input>
			<output>
				<port id="3">
					<dim>1</dim>
					<dim>120</dim>
					<dim>2</dim>
					<dim>2</dim>
				</port>
			</output>
			<blobs>
				<weights offset="436584" size="4320"/>
				<biases offset="440904" size="480"/>
			</blobs>
		</layer>
		<layer id="116" name="Conv2D_38" precision="FP32" type="Convolution">
			<data auto_pad="valid" dilations="1,1" group="3" kernel="1,1" output="480" pads_begin="0,0" pads_end="0,0" strides="1,1"/>
			<input>
				<port id="0">
					<dim>1</dim>
					<dim>120</dim>
					<dim>2</dim>
					<dim>2</dim>
				</port>
			</input>
			<output>
				<port id="3">
					<dim>1</dim>
					<dim>480</dim>
					<dim>2</dim>
					<dim>2</dim>
				</port>
			</output>
			<blobs>
				<weights offset="441384" size="76800"/>
				<biases offset="518184" size="1920"/>
			</blobs>
		</layer>
		<layer id="117" name="add_4" precision="FP32" type="Eltwise">
			<data operation="sum"/>
			<input>
				<port id="0">
					<dim>1</dim>
					<dim>480</dim>
					<dim>2</dim>
					<dim>2</dim>
				</port>
				<port id="1">
					<dim>1</dim>
					<dim>480</dim>
					<dim>2</dim>
					<dim>2</dim>
				</port>
			</input>
			<output>
				<port id="2">
					<dim>1</dim>
					<dim>480</dim>
					<dim>2</dim>
					<dim>2</dim>
				</port>
			</output>
		</layer>
		<layer id="118" name="Relu_32" precision="FP32" type="ReLU">
			<input>
				<port id="0">
					<dim>1</dim>
					<dim>480</dim>
					<dim>2</dim>
					<dim>2</dim>
				</port>
			</input>
			<output>
				<port id="1">
					<dim>1</dim>
					<dim>480</dim>
					<dim>2</dim>
					<dim>2</dim>
				</port>
			</output>
		</layer>
		<layer id="119" name="strided_slice_39/Split" precision="FP32" type="Split">
			<data axis="1"/>
			<input>
				<port id="0">
					<dim>1</dim>
					<dim>480</dim>
					<dim>2</dim>
					<dim>2</dim>
				</port>
			</input>
			<output>
				<port id="1">
					<dim>1</dim>
					<dim>160</dim>
					<dim>2</dim>
					<dim>2</dim>
				</port>
				<port id="2">
					<dim>1</dim>
					<dim>160</dim>
					<dim>2</dim>
					<dim>2</dim>
				</port>
				<port id="3">
					<dim>1</dim>
					<dim>160</dim>
					<dim>2</dim>
					<dim>2</dim>
				</port>
			</output>
		</layer>
		<layer id="120" name="Conv2D_41" precision="FP32" type="Convolution">
			<data auto_pad="valid" dilations="1,1" group="1" kernel="1,1" output="40" pads_begin="0,0" pads_end="0,0" strides="1,1"/>
			<input>
				<port id="0">
					<dim>1</dim>
					<dim>160</dim>
					<dim>2</dim>
					<dim>2</dim>
				</port>
			</input>
			<output>
				<port id="3">
					<dim>1</dim>
					<dim>40</dim>
					<dim>2</dim>
					<dim>2</dim>
				</port>
			</output>
			<blobs>
				<weights offset="520104" size="25600"/>
				<biases offset="545704" size="160"/>
			</blobs>
		</layer>
		<layer id="121" name="Relu_33" precision="FP32" type="ReLU">
			<input>
				<port id="0">
					<dim>1</dim>
					<dim>40</dim>
					<dim>2</dim>
					<dim>2</dim>
				</port>
			</input>
			<output>
				<port id="1">
					<dim>1</dim>
					<dim>40</dim>
					<dim>2</dim>
					<dim>2</dim>
				</port>
			</output>
		</layer>
		<layer id="122" name="Conv2D_42" precision="FP32" type="Convolution">
			<data auto_pad="valid" dilations="1,1" group="1" kernel="1,1" output="40" pads_begin="0,0" pads_end="0,0" strides="1,1"/>
			<input>
				<port id="0">
					<dim>1</dim>
					<dim>160</dim>
					<dim>2</dim>
					<dim>2</dim>
				</port>
			</input>
			<output>
				<port id="3">
					<dim>1</dim>
					<dim>40</dim>
					<dim>2</dim>
					<dim>2</dim>
				</port>
			</output>
			<blobs>
				<weights offset="545864" size="25600"/>
				<biases offset="571464" size="160"/>
			</blobs>
		</layer>
		<layer id="123" name="Relu_34" precision="FP32" type="ReLU">
			<input>
				<port id="0">
					<dim>1</dim>
					<dim>40</dim>
					<dim>2</dim>
					<dim>2</dim>
				</port>
			</input>
			<output>
				<port id="1">
					<dim>1</dim>
					<dim>40</dim>
					<dim>2</dim>
					<dim>2</dim>
				</port>
			</output>
		</layer>
		<layer id="124" name="Conv2D_43" precision="FP32" type="Convolution">
			<data auto_pad="valid" dilations="1,1" group="1" kernel="1,1" output="40" pads_begin="0,0" pads_end="0,0" strides="1,1"/>
			<input>
				<port id="0">
					<dim>1</dim>
					<dim>160</dim>
					<dim>2</dim>
					<dim>2</dim>
				</port>
			</input>
			<output>
				<port id="3">
					<dim>1</dim>
					<dim>40</dim>
					<dim>2</dim>
					<dim>2</dim>
				</port>
			</output>
			<blobs>
				<weights offset="571624" size="25600"/>
				<biases offset="597224" size="160"/>
			</blobs>
		</layer>
		<layer id="125" name="Relu_35" precision="FP32" type="ReLU">
			<input>
				<port id="0">
					<dim>1</dim>
					<dim>40</dim>
					<dim>2</dim>
					<dim>2</dim>
				</port>
			</input>
			<output>
				<port id="1">
					<dim>1</dim>
					<dim>40</dim>
					<dim>2</dim>
					<dim>2</dim>
				</port>
			</output>
		</layer>
		<layer id="126" name="concat_16" precision="FP32" type="Concat">
			<data axis="1"/>
			<input>
				<port id="0">
					<dim>1</dim>
					<dim>40</dim>
					<dim>2</dim>
					<dim>2</dim>
				</port>
				<port id="1">
					<dim>1</dim>
					<dim>40</dim>
					<dim>2</dim>
					<dim>2</dim>
				</port>
				<port id="2">
					<dim>1</dim>
					<dim>40</dim>
					<dim>2</dim>
					<dim>2</dim>
				</port>
			</input>
			<output>
				<port id="3">
					<dim>1</dim>
					<dim>120</dim>
					<dim>2</dim>
					<dim>2</dim>
				</port>
			</output>
		</layer>
		<layer id="127" name="Mul1_7204/Fused_Mul_/FusedScaleShift_" precision="FP32" type="ScaleShift">
			<input>
				<port id="0">
					<dim>1</dim>
					<dim>120</dim>
					<dim>2</dim>
					<dim>2</dim>
				</port>
			</input>
			<output>
				<port id="3">
					<dim>1</dim>
					<dim>120</dim>
					<dim>2</dim>
					<dim>2</dim>
				</port>
			</output>
			<blobs>
				<weights offset="597384" size="480"/>
				<biases offset="597864" size="480"/>
			</blobs>
		</layer>
		<layer id="128" name="Relu_36" precision="FP32" type="ReLU">
			<input>
				<port id="0">
					<dim>1</dim>
					<dim>120</dim>
					<dim>2</dim>
					<dim>2</dim>
				</port>
			</input>
			<output>
				<port id="1">
					<dim>1</dim>
					<dim>120</dim>
					<dim>2</dim>
					<dim>2</dim>
				</port>
			</output>
		</layer>
		<layer id="129" name="stage3_in2_shuffle_reshape1" precision="FP32" type="Reshape">
			<data dim="1,2,2,3,40"/>
			<input>
				<port id="0">
					<dim>1</dim>
					<dim>120</dim>
					<dim>2</dim>
					<dim>2</dim>
				</port>
			</input>
			<output>
				<port id="1">
					<dim>1</dim>
					<dim>3</dim>
					<dim>40</dim>
					<dim>4</dim>
				</port>
			</output>
		</layer>
		<layer id="130" name="stage3_in2_shuffletranspose" precision="FP32" type="Permute">
			<data order="0,2,1,3"/>
			<input>
				<port id="0">
					<dim>1</dim>
					<dim>3</dim>
					<dim>40</dim>
					<dim>4</dim>
				</port>
			</input>
			<output>
				<port id="1">
					<dim>1</dim>
					<dim>40</dim>
					<dim>3</dim>
					<dim>4</dim>
				</port>
			</output>
		</layer>
		<layer id="131" name="stage3_in2_shuffle_reshape2" precision="FP32" type="Reshape">
			<data dim="1,120,2,2"/>
			<input>
				<port id="0">
					<dim>1</dim>
					<dim>40</dim>
					<dim>3</dim>
					<dim>4</dim>
				</port>
			</input>
			<output>
				<port id="1">
					<dim>1</dim>
					<dim>120</dim>
					<dim>2</dim>
					<dim>2</dim>
				</port>
			</output>
		</layer>
		<layer id="132" name="depthwise_7" precision="FP32" type="Convolution">
			<data dilations="1,1" group="120" kernel="3,3" output="120" pads_begin="1,1" pads_end="1,1" strides="1,1"/>
			<input>
				<port id="0">
					<dim>1</dim>
					<dim>120</dim>
					<dim>2</dim>
					<dim>2</dim>
				</port>
			</input>
			<output>
				<port id="3">
					<dim>1</dim>
					<dim>120</dim>
					<dim>2</dim>
					<dim>2</dim>
				</port>
			</output>
			<blobs>
				<weights offset="598344" size="4320"/>
				<biases offset="602664" size="480"/>
			</blobs>
		</layer>
		<layer id="133" name="Conv2D_44" precision="FP32" type="Convolution">
			<data auto_pad="valid" dilations="1,1" group="3" kernel="1,1" output="480" pads_begin="0,0" pads_end="0,0" strides="1,1"/>
			<input>
				<port id="0">
					<dim>1</dim>
					<dim>120</dim>
					<dim>2</dim>
					<dim>2</dim>
				</port>
			</input>
			<output>
				<port id="3">
					<dim>1</dim>
					<dim>480</dim>
					<dim>2</dim>
					<dim>2</dim>
				</port>
			</output>
			<blobs>
				<weights offset="603144" size="76800"/>
				<biases offset="679944" size="1920"/>
			</blobs>
		</layer>
		<layer id="134" name="add_5" precision="FP32" type="Eltwise">
			<data operation="sum"/>
			<input>
				<port id="0">
					<dim>1</dim>
					<dim>480</dim>
					<dim>2</dim>
					<dim>2</dim>
				</port>
				<port id="1">
					<dim>1</dim>
					<dim>480</dim>
					<dim>2</dim>
					<dim>2</dim>
				</port>
			</input>
			<output>
				<port id="2">
					<dim>1</dim>
					<dim>480</dim>
					<dim>2</dim>
					<dim>2</dim>
				</port>
			</output>
		</layer>
		<layer id="135" name="Relu_37" precision="FP32" type="ReLU">
			<input>
				<port id="0">
					<dim>1</dim>
					<dim>480</dim>
					<dim>2</dim>
					<dim>2</dim>
				</port>
			</input>
			<output>
				<port id="1">
					<dim>1</dim>
					<dim>480</dim>
					<dim>2</dim>
					<dim>2</dim>
				</port>
			</output>
		</layer>
		<layer id="136" name="strided_slice_45/Split" precision="FP32" type="Split">
			<data axis="1"/>
			<input>
				<port id="0">
					<dim>1</dim>
					<dim>480</dim>
					<dim>2</dim>
					<dim>2</dim>
				</port>
			</input>
			<output>
				<port id="1">
					<dim>1</dim>
					<dim>160</dim>
					<dim>2</dim>
					<dim>2</dim>
				</port>
				<port id="2">
					<dim>1</dim>
					<dim>160</dim>
					<dim>2</dim>
					<dim>2</dim>
				</port>
				<port id="3">
					<dim>1</dim>
					<dim>160</dim>
					<dim>2</dim>
					<dim>2</dim>
				</port>
			</output>
		</layer>
		<layer id="137" name="Conv2D_47" precision="FP32" type="Convolution">
			<data auto_pad="valid" dilations="1,1" group="1" kernel="1,1" output="40" pads_begin="0,0" pads_end="0,0" strides="1,1"/>
			<input>
				<port id="0">
					<dim>1</dim>
					<dim>160</dim>
					<dim>2</dim>
					<dim>2</dim>
				</port>
			</input>
			<output>
				<port id="3">
					<dim>1</dim>
					<dim>40</dim>
					<dim>2</dim>
					<dim>2</dim>
				</port>
			</output>
			<blobs>
				<weights offset="681864" size="25600"/>
				<biases offset="707464" size="160"/>
			</blobs>
		</layer>
		<layer id="138" name="Relu_38" precision="FP32" type="ReLU">
			<input>
				<port id="0">
					<dim>1</dim>
					<dim>40</dim>
					<dim>2</dim>
					<dim>2</dim>
				</port>
			</input>
			<output>
				<port id="1">
					<dim>1</dim>
					<dim>40</dim>
					<dim>2</dim>
					<dim>2</dim>
				</port>
			</output>
		</layer>
		<layer id="139" name="Conv2D_48" precision="FP32" type="Convolution">
			<data auto_pad="valid" dilations="1,1" group="1" kernel="1,1" output="40" pads_begin="0,0" pads_end="0,0" strides="1,1"/>
			<input>
				<port id="0">
					<dim>1</dim>
					<dim>160</dim>
					<dim>2</dim>
					<dim>2</dim>
				</port>
			</input>
			<output>
				<port id="3">
					<dim>1</dim>
					<dim>40</dim>
					<dim>2</dim>
					<dim>2</dim>
				</port>
			</output>
			<blobs>
				<weights offset="707624" size="25600"/>
				<biases offset="733224" size="160"/>
			</blobs>
		</layer>
		<layer id="140" name="Relu_39" precision="FP32" type="ReLU">
			<input>
				<port id="0">
					<dim>1</dim>
					<dim>40</dim>
					<dim>2</dim>
					<dim>2</dim>
				</port>
			</input>
			<output>
				<port id="1">
					<dim>1</dim>
					<dim>40</dim>
					<dim>2</dim>
					<dim>2</dim>
				</port>
			</output>
		</layer>
		<layer id="141" name="Conv2D_49" precision="FP32" type="Convolution">
			<data auto_pad="valid" dilations="1,1" group="1" kernel="1,1" output="40" pads_begin="0,0" pads_end="0,0" strides="1,1"/>
			<input>
				<port id="0">
					<dim>1</dim>
					<dim>160</dim>
					<dim>2</dim>
					<dim>2</dim>
				</port>
			</input>
			<output>
				<port id="3">
					<dim>1</dim>
					<dim>40</dim>
					<dim>2</dim>
					<dim>2</dim>
				</port>
			</output>
			<blobs>
				<weights offset="733384" size="25600"/>
				<biases offset="758984" size="160"/>
			</blobs>
		</layer>
		<layer id="142" name="Relu_40" precision="FP32" type="ReLU">
			<input>
				<port id="0">
					<dim>1</dim>
					<dim>40</dim>
					<dim>2</dim>
					<dim>2</dim>
				</port>
			</input>
			<output>
				<port id="1">
					<dim>1</dim>
					<dim>40</dim>
					<dim>2</dim>
					<dim>2</dim>
				</port>
			</output>
		</layer>
		<layer id="143" name="concat_18" precision="FP32" type="Concat">
			<data axis="1"/>
			<input>
				<port id="0">
					<dim>1</dim>
					<dim>40</dim>
					<dim>2</dim>
					<dim>2</dim>
				</port>
				<port id="1">
					<dim>1</dim>
					<dim>40</dim>
					<dim>2</dim>
					<dim>2</dim>
				</port>
				<port id="2">
					<dim>1</dim>
					<dim>40</dim>
					<dim>2</dim>
					<dim>2</dim>
				</port>
			</input>
			<output>
				<port id="3">
					<dim>1</dim>
					<dim>120</dim>
					<dim>2</dim>
					<dim>2</dim>
				</port>
			</output>
		</layer>
		<layer id="144" name="Mul1_7222/Fused_Mul_/FusedScaleShift_" precision="FP32" type="ScaleShift">
			<input>
				<port id="0">
					<dim>1</dim>
					<dim>120</dim>
					<dim>2</dim>
					<dim>2</dim>
				</port>
			</input>
			<output>
				<port id="3">
					<dim>1</dim>
					<dim>120</dim>
					<dim>2</dim>
					<dim>2</dim>
				</port>
			</output>
			<blobs>
				<weights offset="759144" size="480"/>
				<biases offset="759624" size="480"/>
			</blobs>
		</layer>
		<layer id="145" name="Relu_41" precision="FP32" type="ReLU">
			<input>
				<port id="0">
					<dim>1</dim>
					<dim>120</dim>
					<dim>2</dim>
					<dim>2</dim>
				</port>
			</input>
			<output>
				<port id="1">
					<dim>1</dim>
					<dim>120</dim>
					<dim>2</dim>
					<dim>2</dim>
				</port>
			</output>
		</layer>
		<layer id="146" name="stage4_out_shuffle_reshape1" precision="FP32" type="Reshape">
			<data dim="1,2,2,3,40"/>
			<input>
				<port id="0">
					<dim>1</dim>
					<dim>120</dim>
					<dim>2</dim>
					<dim>2</dim>
				</port>
			</input>
			<output>
				<port id="1">
					<dim>1</dim>
					<dim>3</dim>
					<dim>40</dim>
					<dim>4</dim>
				</port>
			</output>
		</layer>
		<layer id="147" name="stage4_out_shuffletranspose" precision="FP32" type="Permute">
			<data order="0,2,1,3"/>
			<input>
				<port id="0">
					<dim>1</dim>
					<dim>3</dim>
					<dim>40</dim>
					<dim>4</dim>
				</port>
			</input>
			<output>
				<port id="1">
					<dim>1</dim>
					<dim>40</dim>
					<dim>3</dim>
					<dim>4</dim>
				</port>
			</output>
		</layer>
		<layer id="148" name="stage4_out_shuffle_reshape2" precision="FP32" type="Reshape">
			<data dim="1,120,2,2"/>
			<input>
				<port id="0">
					<dim>1</dim>
					<dim>40</dim>
					<dim>3</dim>
					<dim>4</dim>
				</port>
			</input>
			<output>
				<port id="1">
					<dim>1</dim>
					<dim>120</dim>
					<dim>2</dim>
					<dim>2</dim>
				</port>
			</output>
		</layer>
		<layer id="149" name="depthwise_8" precision="FP32" type="Convolution">
			<data dilations="1,1" group="120" kernel="3,3" output="120" pads_begin="1,1" pads_end="1,1" strides="1,1"/>
			<input>
				<port id="0">
					<dim>1</dim>
					<dim>120</dim>
					<dim>2</dim>
					<dim>2</dim>
				</port>
			</input>
			<output>
				<port id="3">
					<dim>1</dim>
					<dim>120</dim>
					<dim>2</dim>
					<dim>2</dim>
				</port>
			</output>
			<blobs>
				<weights offset="760104" size="4320"/>
				<biases offset="764424" size="480"/>
			</blobs>
		</layer>
		<layer id="150" name="Conv2D_50" precision="FP32" type="Convolution">
			<data auto_pad="valid" dilations="1,1" group="3" kernel="1,1" output="480" pads_begin="0,0" pads_end="0,0" strides="1,1"/>
			<input>
				<port id="0">
					<dim>1</dim>
					<dim>120</dim>
					<dim>2</dim>
					<dim>2</dim>
				</port>
			</input>
			<output>
				<port id="3">
					<dim>1</dim>
					<dim>480</dim>
					<dim>2</dim>
					<dim>2</dim>
				</port>
			</output>
			<blobs>
				<weights offset="764904" size="76800"/>
				<biases offset="841704" size="1920"/>
			</blobs>
		</layer>
		<layer id="151" name="concat_20" precision="FP32" type="Concat">
			<data axis="1"/>
			<input>
				<port id="0">
					<dim>1</dim>
					<dim>480</dim>
					<dim>2</dim>
					<dim>2</dim>
				</port>
				<port id="1">
					<dim>1</dim>
					<dim>480</dim>
					<dim>2</dim>
					<dim>2</dim>
				</port>
			</input>
			<output>
				<port id="2">
					<dim>1</dim>
					<dim>960</dim>
					<dim>2</dim>
					<dim>2</dim>
				</port>
			</output>
		</layer>
		<layer id="152" name="Relu_42" precision="FP32" type="ReLU">
			<input>
				<port id="0">
					<dim>1</dim>
					<dim>960</dim>
					<dim>2</dim>
					<dim>2</dim>
				</port>
			</input>
			<output>
				<port id="1">
					<dim>1</dim>
					<dim>960</dim>
					<dim>2</dim>
					<dim>2</dim>
				</port>
			</output>
		</layer>
		<layer id="153" name="strided_slice_53/Split" precision="FP32" type="Split">
			<data axis="1"/>
			<input>
				<port id="0">
					<dim>1</dim>
					<dim>960</dim>
					<dim>2</dim>
					<dim>2</dim>
				</port>
			</input>
			<output>
				<port id="1">
					<dim>1</dim>
					<dim>320</dim>
					<dim>2</dim>
					<dim>2</dim>
				</port>
				<port id="2">
					<dim>1</dim>
					<dim>320</dim>
					<dim>2</dim>
					<dim>2</dim>
				</port>
				<port id="3">
					<dim>1</dim>
					<dim>320</dim>
					<dim>2</dim>
					<dim>2</dim>
				</port>
			</output>
		</layer>
		<layer id="154" name="Conv2D_53" precision="FP32" type="Convolution">
			<data auto_pad="valid" dilations="1,1" group="1" kernel="1,1" output="80" pads_begin="0,0" pads_end="0,0" strides="1,1"/>
			<input>
				<port id="0">
					<dim>1</dim>
					<dim>320</dim>
					<dim>2</dim>
					<dim>2</dim>
				</port>
			</input>
			<output>
				<port id="3">
					<dim>1</dim>
					<dim>80</dim>
					<dim>2</dim>
					<dim>2</dim>
				</port>
			</output>
			<blobs>
				<weights offset="843624" size="102400"/>
				<biases offset="946024" size="320"/>
			</blobs>
		</layer>
		<layer id="155" name="Relu_43" precision="FP32" type="ReLU">
			<input>
				<port id="0">
					<dim>1</dim>
					<dim>80</dim>
					<dim>2</dim>
					<dim>2</dim>
				</port>
			</input>
			<output>
				<port id="1">
					<dim>1</dim>
					<dim>80</dim>
					<dim>2</dim>
					<dim>2</dim>
				</port>
			</output>
		</layer>
		<layer id="156" name="Conv2D_54" precision="FP32" type="Convolution">
			<data auto_pad="valid" dilations="1,1" group="1" kernel="1,1" output="80" pads_begin="0,0" pads_end="0,0" strides="1,1"/>
			<input>
				<port id="0">
					<dim>1</dim>
					<dim>320</dim>
					<dim>2</dim>
					<dim>2</dim>
				</port>
			</input>
			<output>
				<port id="3">
					<dim>1</dim>
					<dim>80</dim>
					<dim>2</dim>
					<dim>2</dim>
				</port>
			</output>
			<blobs>
				<weights offset="946344" size="102400"/>
				<biases offset="1048744" size="320"/>
			</blobs>
		</layer>
		<layer id="157" name="Relu_44" precision="FP32" type="ReLU">
			<input>
				<port id="0">
					<dim>1</dim>
					<dim>80</dim>
					<dim>2</dim>
					<dim>2</dim>
				</port>
			</input>
			<output>
				<port id="1">
					<dim>1</dim>
					<dim>80</dim>
					<dim>2</dim>
					<dim>2</dim>
				</port>
			</output>
		</layer>
		<layer id="158" name="Conv2D_55" precision="FP32" type="Convolution">
			<data auto_pad="valid" dilations="1,1" group="1" kernel="1,1" output="80" pads_begin="0,0" pads_end="0,0" strides="1,1"/>
			<input>
				<port id="0">
					<dim>1</dim>
					<dim>320</dim>
					<dim>2</dim>
					<dim>2</dim>
				</port>
			</input>
			<output>
				<port id="3">
					<dim>1</dim>
					<dim>80</dim>
					<dim>2</dim>
					<dim>2</dim>
				</port>
			</output>
			<blobs>
				<weights offset="1049064" size="102400"/>
				<biases offset="1151464" size="320"/>
			</blobs>
		</layer>
		<layer id="159" name="Relu_45" precision="FP32" type="ReLU">
			<input>
				<port id="0">
					<dim>1</dim>
					<dim>80</dim>
					<dim>2</dim>
					<dim>2</dim>
				</port>
			</input>
			<output>
				<port id="1">
					<dim>1</dim>
					<dim>80</dim>
					<dim>2</dim>
					<dim>2</dim>
				</port>
			</output>
		</layer>
		<layer id="160" name="concat_21" precision="FP32" type="Concat">
			<data axis="1"/>
			<input>
				<port id="0">
					<dim>1</dim>
					<dim>80</dim>
					<dim>2</dim>
					<dim>2</dim>
				</port>
				<port id="1">
					<dim>1</dim>
					<dim>80</dim>
					<dim>2</dim>
					<dim>2</dim>
				</port>
				<port id="2">
					<dim>1</dim>
					<dim>80</dim>
					<dim>2</dim>
					<dim>2</dim>
				</port>
			</input>
			<output>
				<port id="3">
					<dim>1</dim>
					<dim>240</dim>
					<dim>2</dim>
					<dim>2</dim>
				</port>
			</output>
		</layer>
		<layer id="161" name="Mul1_6601/Fused_Mul_/FusedScaleShift_" precision="FP32" type="ScaleShift">
			<input>
				<port id="0">
					<dim>1</dim>
					<dim>240</dim>
					<dim>2</dim>
					<dim>2</dim>
				</port>
			</input>
			<output>
				<port id="3">
					<dim>1</dim>
					<dim>240</dim>
					<dim>2</dim>
					<dim>2</dim>
				</port>
			</output>
			<blobs>
				<weights offset="1151784" size="960"/>
				<biases offset="1152744" size="960"/>
			</blobs>
		</layer>
		<layer id="162" name="Relu_46" precision="FP32" type="ReLU">
			<input>
				<port id="0">
					<dim>1</dim>
					<dim>240</dim>
					<dim>2</dim>
					<dim>2</dim>
				</port>
			</input>
			<output>
				<port id="1">
					<dim>1</dim>
					<dim>240</dim>
					<dim>2</dim>
					<dim>2</dim>
				</port>
			</output>
		</layer>
		<layer id="163" name="stage4_in0_shuffle_reshape1" precision="FP32" type="Reshape">
			<data dim="1,2,2,3,80"/>
			<input>
				<port id="0">
					<dim>1</dim>
					<dim>240</dim>
					<dim>2</dim>
					<dim>2</dim>
				</port>
			</input>
			<output>
				<port id="1">
					<dim>1</dim>
					<dim>3</dim>
					<dim>80</dim>
					<dim>4</dim>
				</port>
			</output>
		</layer>
		<layer id="164" name="stage4_in0_shuffletranspose" precision="FP32" type="Permute">
			<data order="0,2,1,3"/>
			<input>
				<port id="0">
					<dim>1</dim>
					<dim>3</dim>
					<dim>80</dim>
					<dim>4</dim>
				</port>
			</input>
			<output>
				<port id="1">
					<dim>1</dim>
					<dim>80</dim>
					<dim>3</dim>
					<dim>4</dim>
				</port>
			</output>
		</layer>
		<layer id="165" name="stage4_in0_shuffle_reshape2" precision="FP32" type="Reshape">
			<data dim="1,240,2,2"/>
			<input>
				<port id="0">
					<dim>1</dim>
					<dim>80</dim>
					<dim>3</dim>
					<dim>4</dim>
				</port>
			</input>
			<output>
				<port id="1">
					<dim>1</dim>
					<dim>240</dim>
					<dim>2</dim>
					<dim>2</dim>
				</port>
			</output>
		</layer>
		<layer id="166" name="depthwise_9" precision="FP32" type="Convolution">
			<data dilations="1,1" group="240" kernel="3,3" output="240" pads_begin="1,1" pads_end="1,1" strides="1,1"/>
			<input>
				<port id="0">
					<dim>1</dim>
					<dim>240</dim>
					<dim>2</dim>
					<dim>2</dim>
				</port>
			</input>
			<output>
				<port id="3">
					<dim>1</dim>
					<dim>240</dim>
					<dim>2</dim>
					<dim>2</dim>
				</port>
			</output>
			<blobs>
				<weights offset="1153704" size="8640"/>
				<biases offset="1162344" size="960"/>
			</blobs>
		</layer>
		<layer id="167" name="Conv2D_56" precision="FP32" type="Convolution">
			<data auto_pad="valid" dilations="1,1" group="3" kernel="1,1" output="960" pads_begin="0,0" pads_end="0,0" strides="1,1"/>
			<input>
				<port id="0">
					<dim>1</dim>
					<dim>240</dim>
					<dim>2</dim>
					<dim>2</dim>
				</port>
			</input>
			<output>
				<port id="3">
					<dim>1</dim>
					<dim>960</dim>
					<dim>2</dim>
					<dim>2</dim>
				</port>
			</output>
			<blobs>
				<weights offset="1163304" size="307200"/>
				<biases offset="1470504" size="3840"/>
			</blobs>
		</layer>
		<layer id="168" name="add_6" precision="FP32" type="Eltwise">
			<data operation="sum"/>
			<input>
				<port id="0">
					<dim>1</dim>
					<dim>960</dim>
					<dim>2</dim>
					<dim>2</dim>
				</port>
				<port id="1">
					<dim>1</dim>
					<dim>960</dim>
					<dim>2</dim>
					<dim>2</dim>
				</port>
			</input>
			<output>
				<port id="2">
					<dim>1</dim>
					<dim>960</dim>
					<dim>2</dim>
					<dim>2</dim>
				</port>
			</output>
		</layer>
		<layer id="169" name="Relu_47" precision="FP32" type="ReLU">
			<input>
				<port id="0">
					<dim>1</dim>
					<dim>960</dim>
					<dim>2</dim>
					<dim>2</dim>
				</port>
			</input>
			<output>
				<port id="1">
					<dim>1</dim>
					<dim>960</dim>
					<dim>2</dim>
					<dim>2</dim>
				</port>
			</output>
		</layer>
		<layer id="170" name="strided_slice_59/Split" precision="FP32" type="Split">
			<data axis="1"/>
			<input>
				<port id="0">
					<dim>1</dim>
					<dim>960</dim>
					<dim>2</dim>
					<dim>2</dim>
				</port>
			</input>
			<output>
				<port id="1">
					<dim>1</dim>
					<dim>320</dim>
					<dim>2</dim>
					<dim>2</dim>
				</port>
				<port id="2">
					<dim>1</dim>
					<dim>320</dim>
					<dim>2</dim>
					<dim>2</dim>
				</port>
				<port id="3">
					<dim>1</dim>
					<dim>320</dim>
					<dim>2</dim>
					<dim>2</dim>
				</port>
			</output>
		</layer>
		<layer id="171" name="Conv2D_59" precision="FP32" type="Convolution">
			<data auto_pad="valid" dilations="1,1" group="1" kernel="1,1" output="80" pads_begin="0,0" pads_end="0,0" strides="1,1"/>
			<input>
				<port id="0">
					<dim>1</dim>
					<dim>320</dim>
					<dim>2</dim>
					<dim>2</dim>
				</port>
			</input>
			<output>
				<port id="3">
					<dim>1</dim>
					<dim>80</dim>
					<dim>2</dim>
					<dim>2</dim>
				</port>
			</output>
			<blobs>
				<weights offset="1474344" size="102400"/>
				<biases offset="1576744" size="320"/>
			</blobs>
		</layer>
		<layer id="172" name="Relu_48" precision="FP32" type="ReLU">
			<input>
				<port id="0">
					<dim>1</dim>
					<dim>80</dim>
					<dim>2</dim>
					<dim>2</dim>
				</port>
			</input>
			<output>
				<port id="1">
					<dim>1</dim>
					<dim>80</dim>
					<dim>2</dim>
					<dim>2</dim>
				</port>
			</output>
		</layer>
		<layer id="173" name="Conv2D_60" precision="FP32" type="Convolution">
			<data auto_pad="valid" dilations="1,1" group="1" kernel="1,1" output="80" pads_begin="0,0" pads_end="0,0" strides="1,1"/>
			<input>
				<port id="0">
					<dim>1</dim>
					<dim>320</dim>
					<dim>2</dim>
					<dim>2</dim>
				</port>
			</input>
			<output>
				<port id="3">
					<dim>1</dim>
					<dim>80</dim>
					<dim>2</dim>
					<dim>2</dim>
				</port>
			</output>
			<blobs>
				<weights offset="1577064" size="102400"/>
				<biases offset="1679464" size="320"/>
			</blobs>
		</layer>
		<layer id="174" name="Relu_49" precision="FP32" type="ReLU">
			<input>
				<port id="0">
					<dim>1</dim>
					<dim>80</dim>
					<dim>2</dim>
					<dim>2</dim>
				</port>
			</input>
			<output>
				<port id="1">
					<dim>1</dim>
					<dim>80</dim>
					<dim>2</dim>
					<dim>2</dim>
				</port>
			</output>
		</layer>
		<layer id="175" name="Conv2D_61" precision="FP32" type="Convolution">
			<data auto_pad="valid" dilations="1,1" group="1" kernel="1,1" output="80" pads_begin="0,0" pads_end="0,0" strides="1,1"/>
			<input>
				<port id="0">
					<dim>1</dim>
					<dim>320</dim>
					<dim>2</dim>
					<dim>2</dim>
				</port>
			</input>
			<output>
				<port id="3">
					<dim>1</dim>
					<dim>80</dim>
					<dim>2</dim>
					<dim>2</dim>
				</port>
			</output>
			<blobs>
				<weights offset="1679784" size="102400"/>
				<biases offset="1782184" size="320"/>
			</blobs>
		</layer>
		<layer id="176" name="Relu_50" precision="FP32" type="ReLU">
			<input>
				<port id="0">
					<dim>1</dim>
					<dim>80</dim>
					<dim>2</dim>
					<dim>2</dim>
				</port>
			</input>
			<output>
				<port id="1">
					<dim>1</dim>
					<dim>80</dim>
					<dim>2</dim>
					<dim>2</dim>
				</port>
			</output>
		</layer>
		<layer id="177" name="concat_23" precision="FP32" type="Concat">
			<data axis="1"/>
			<input>
				<port id="0">
					<dim>1</dim>
					<dim>80</dim>
					<dim>2</dim>
					<dim>2</dim>
				</port>
				<port id="1">
					<dim>1</dim>
					<dim>80</dim>
					<dim>2</dim>
					<dim>2</dim>
				</port>
				<port id="2">
					<dim>1</dim>
					<dim>80</dim>
					<dim>2</dim>
					<dim>2</dim>
				</port>
			</input>
			<output>
				<port id="3">
					<dim>1</dim>
					<dim>240</dim>
					<dim>2</dim>
					<dim>2</dim>
				</port>
			</output>
		</layer>
		<layer id="178" name="Mul1_6556/Fused_Mul_/FusedScaleShift_" precision="FP32" type="ScaleShift">
			<input>
				<port id="0">
					<dim>1</dim>
					<dim>240</dim>
					<dim>2</dim>
					<dim>2</dim>
				</port>
			</input>
			<output>
				<port id="3">
					<dim>1</dim>
					<dim>240</dim>
					<dim>2</dim>
					<dim>2</dim>
				</port>
			</output>
			<blobs>
				<weights offset="1782504" size="960"/>
				<biases offset="1783464" size="960"/>
			</blobs>
		</layer>
		<layer id="179" name="Relu_51" precision="FP32" type="ReLU">
			<input>
				<port id="0">
					<dim>1</dim>
					<dim>240</dim>
					<dim>2</dim>
					<dim>2</dim>
				</port>
			</input>
			<output>
				<port id="1">
					<dim>1</dim>
					<dim>240</dim>
					<dim>2</dim>
					<dim>2</dim>
				</port>
			</output>
		</layer>
		<layer id="180" name="stage4_in1_shuffle_reshape1" precision="FP32" type="Reshape">
			<data dim="1,2,2,3,80"/>
			<input>
				<port id="0">
					<dim>1</dim>
					<dim>240</dim>
					<dim>2</dim>
					<dim>2</dim>
				</port>
			</input>
			<output>
				<port id="1">
					<dim>1</dim>
					<dim>3</dim>
					<dim>80</dim>
					<dim>4</dim>
				</port>
			</output>
		</layer>
		<layer id="181" name="stage4_in1_shuffletranspose" precision="FP32" type="Permute">
			<data order="0,2,1,3"/>
			<input>
				<port id="0">
					<dim>1</dim>
					<dim>3</dim>
					<dim>80</dim>
					<dim>4</dim>
				</port>
			</input>
			<output>
				<port id="1">
					<dim>1</dim>
					<dim>80</dim>
					<dim>3</dim>
					<dim>4</dim>
				</port>
			</output>
		</layer>
		<layer id="182" name="stage4_in1_shuffle_reshape2" precision="FP32" type="Reshape">
			<data dim="1,240,2,2"/>
			<input>
				<port id="0">
					<dim>1</dim>
					<dim>80</dim>
					<dim>3</dim>
					<dim>4</dim>
				</port>
			</input>
			<output>
				<port id="1">
					<dim>1</dim>
					<dim>240</dim>
					<dim>2</dim>
					<dim>2</dim>
				</port>
			</output>
		</layer>
		<layer id="183" name="depthwise_10" precision="FP32" type="Convolution">
			<data dilations="1,1" group="240" kernel="3,3" output="240" pads_begin="1,1" pads_end="1,1" strides="1,1"/>
			<input>
				<port id="0">
					<dim>1</dim>
					<dim>240</dim>
					<dim>2</dim>
					<dim>2</dim>
				</port>
			</input>
			<output>
				<port id="3">
					<dim>1</dim>
					<dim>240</dim>
					<dim>2</dim>
					<dim>2</dim>
				</port>
			</output>
			<blobs>
				<weights offset="1784424" size="8640"/>
				<biases offset="1793064" size="960"/>
			</blobs>
		</layer>
		<layer id="184" name="Conv2D_62" precision="FP32" type="Convolution">
			<data auto_pad="valid" dilations="1,1" group="3" kernel="1,1" output="960" pads_begin="0,0" pads_end="0,0" strides="1,1"/>
			<input>
				<port id="0">
					<dim>1</dim>
					<dim>240</dim>
					<dim>2</dim>
					<dim>2</dim>
				</port>
			</input>
			<output>
				<port id="3">
					<dim>1</dim>
					<dim>960</dim>
					<dim>2</dim>
					<dim>2</dim>
				</port>
			</output>
			<blobs>
				<weights offset="1794024" size="307200"/>
				<biases offset="2101224" size="3840"/>
			</blobs>
		</layer>
		<layer id="185" name="add_7" precision="FP32" type="Eltwise">
			<data operation="sum"/>
			<input>
				<port id="0">
					<dim>1</dim>
					<dim>960</dim>
					<dim>2</dim>
					<dim>2</dim>
				</port>
				<port id="1">
					<dim>1</dim>
					<dim>960</dim>
					<dim>2</dim>
					<dim>2</dim>
				</port>
			</input>
			<output>
				<port id="2">
					<dim>1</dim>
					<dim>960</dim>
					<dim>2</dim>
					<dim>2</dim>
				</port>
			</output>
		</layer>
		<layer id="186" name="Relu_52" precision="FP32" type="ReLU">
			<input>
				<port id="0">
					<dim>1</dim>
					<dim>960</dim>
					<dim>2</dim>
					<dim>2</dim>
				</port>
			</input>
			<output>
				<port id="1">
					<dim>1</dim>
					<dim>960</dim>
					<dim>2</dim>
					<dim>2</dim>
				</port>
			</output>
		</layer>
		<layer id="187" name="strided_slice_63/Split" precision="FP32" type="Split">
			<data axis="1"/>
			<input>
				<port id="0">
					<dim>1</dim>
					<dim>960</dim>
					<dim>2</dim>
					<dim>2</dim>
				</port>
			</input>
			<output>
				<port id="1">
					<dim>1</dim>
					<dim>320</dim>
					<dim>2</dim>
					<dim>2</dim>
				</port>
				<port id="2">
					<dim>1</dim>
					<dim>320</dim>
					<dim>2</dim>
					<dim>2</dim>
				</port>
				<port id="3">
					<dim>1</dim>
					<dim>320</dim>
					<dim>2</dim>
					<dim>2</dim>
				</port>
			</output>
		</layer>
		<layer id="188" name="Conv2D_65" precision="FP32" type="Convolution">
			<data auto_pad="valid" dilations="1,1" group="1" kernel="1,1" output="80" pads_begin="0,0" pads_end="0,0" strides="1,1"/>
			<input>
				<port id="0">
					<dim>1</dim>
					<dim>320</dim>
					<dim>2</dim>
					<dim>2</dim>
				</port>
			</input>
			<output>
				<port id="3">
					<dim>1</dim>
					<dim>80</dim>
					<dim>2</dim>
					<dim>2</dim>
				</port>
			</output>
			<blobs>
				<weights offset="2105064" size="102400"/>
				<biases offset="2207464" size="320"/>
			</blobs>
		</layer>
		<layer id="189" name="Relu_53" precision="FP32" type="ReLU">
			<input>
				<port id="0">
					<dim>1</dim>
					<dim>80</dim>
					<dim>2</dim>
					<dim>2</dim>
				</port>
			</input>
			<output>
				<port id="1">
					<dim>1</dim>
					<dim>80</dim>
					<dim>2</dim>
					<dim>2</dim>
				</port>
			</output>
		</layer>
		<layer id="190" name="Conv2D_66" precision="FP32" type="Convolution">
			<data auto_pad="valid" dilations="1,1" group="1" kernel="1,1" output="80" pads_begin="0,0" pads_end="0,0" strides="1,1"/>
			<input>
				<port id="0">
					<dim>1</dim>
					<dim>320</dim>
					<dim>2</dim>
					<dim>2</dim>
				</port>
			</input>
			<output>
				<port id="3">
					<dim>1</dim>
					<dim>80</dim>
					<dim>2</dim>
					<dim>2</dim>
				</port>
			</output>
			<blobs>
				<weights offset="2207784" size="102400"/>
				<biases offset="2310184" size="320"/>
			</blobs>
		</layer>
		<layer id="191" name="Relu_54" precision="FP32" type="ReLU">
			<input>
				<port id="0">
					<dim>1</dim>
					<dim>80</dim>
					<dim>2</dim>
					<dim>2</dim>
				</port>
			</input>
			<output>
				<port id="1">
					<dim>1</dim>
					<dim>80</dim>
					<dim>2</dim>
					<dim>2</dim>
				</port>
			</output>
		</layer>
		<layer id="192" name="Conv2D_67" precision="FP32" type="Convolution">
			<data auto_pad="valid" dilations="1,1" group="1" kernel="1,1" output="80" pads_begin="0,0" pads_end="0,0" strides="1,1"/>
			<input>
				<port id="0">
					<dim>1</dim>
					<dim>320</dim>
					<dim>2</dim>
					<dim>2</dim>
				</port>
			</input>
			<output>
				<port id="3">
					<dim>1</dim>
					<dim>80</dim>
					<dim>2</dim>
					<dim>2</dim>
				</port>
			</output>
			<blobs>
				<weights offset="2310504" size="102400"/>
				<biases offset="2412904" size="320"/>
			</blobs>
		</layer>
		<layer id="193" name="Relu_55" precision="FP32" type="ReLU">
			<input>
				<port id="0">
					<dim>1</dim>
					<dim>80</dim>
					<dim>2</dim>
					<dim>2</dim>
				</port>
			</input>
			<output>
				<port id="1">
					<dim>1</dim>
					<dim>80</dim>
					<dim>2</dim>
					<dim>2</dim>
				</port>
			</output>
		</layer>
		<layer id="194" name="concat_25" precision="FP32" type="Concat">
			<data axis="1"/>
			<input>
				<port id="0">
					<dim>1</dim>
					<dim>80</dim>
					<dim>2</dim>
					<dim>2</dim>
				</port>
				<port id="1">
					<dim>1</dim>
					<dim>80</dim>
					<dim>2</dim>
					<dim>2</dim>
				</port>
				<port id="2">
					<dim>1</dim>
					<dim>80</dim>
					<dim>2</dim>
					<dim>2</dim>
				</port>
			</input>
			<output>
				<port id="3">
					<dim>1</dim>
					<dim>240</dim>
					<dim>2</dim>
					<dim>2</dim>
				</port>
			</output>
		</layer>
		<layer id="195" name="Mul1_6880/Fused_Mul_/FusedScaleShift_" precision="FP32" type="ScaleShift">
			<input>
				<port id="0">
					<dim>1</dim>
					<dim>240</dim>
					<dim>2</dim>
					<dim>2</dim>
				</port>
			</input>
			<output>
				<port id="3">
					<dim>1</dim>
					<dim>240</dim>
					<dim>2</dim>
					<dim>2</dim>
				</port>
			</output>
			<blobs>
				<weights offset="2413224" size="960"/>
				<biases offset="2414184" size="960"/>
			</blobs>
		</layer>
		<layer id="196" name="Relu_56" precision="FP32" type="ReLU">
			<input>
				<port id="0">
					<dim>1</dim>
					<dim>240</dim>
					<dim>2</dim>
					<dim>2</dim>
				</port>
			</input>
			<output>
				<port id="1">
					<dim>1</dim>
					<dim>240</dim>
					<dim>2</dim>
					<dim>2</dim>
				</port>
			</output>
		</layer>
		<layer id="197" name="stage4_in2_shuffle_reshape1" precision="FP32" type="Reshape">
			<data dim="1,2,2,3,80"/>
			<input>
				<port id="0">
					<dim>1</dim>
					<dim>240</dim>
					<dim>2</dim>
					<dim>2</dim>
				</port>
			</input>
			<output>
				<port id="1">
					<dim>1</dim>
					<dim>3</dim>
					<dim>80</dim>
					<dim>4</dim>
				</port>
			</output>
		</layer>
		<layer id="198" name="stage4_in2_shuffletranspose" precision="FP32" type="Permute">
			<data order="0,2,1,3"/>
			<input>
				<port id="0">
					<dim>1</dim>
					<dim>3</dim>
					<dim>80</dim>
					<dim>4</dim>
				</port>
			</input>
			<output>
				<port id="1">
					<dim>1</dim>
					<dim>80</dim>
					<dim>3</dim>
					<dim>4</dim>
				</port>
			</output>
		</layer>
		<layer id="199" name="stage4_in2_shuffle_reshape2" precision="FP32" type="Reshape">
			<data dim="1,240,2,2"/>
			<input>
				<port id="0">
					<dim>1</dim>
					<dim>80</dim>
					<dim>3</dim>
					<dim>4</dim>
				</port>
			</input>
			<output>
				<port id="1">
					<dim>1</dim>
					<dim>240</dim>
					<dim>2</dim>
					<dim>2</dim>
				</port>
			</output>
		</layer>
		<layer id="200" name="depthwise_11" precision="FP32" type="Convolution">
			<data dilations="1,1" group="240" kernel="3,3" output="240" pads_begin="1,1" pads_end="1,1" strides="1,1"/>
			<input>
				<port id="0">
					<dim>1</dim>
					<dim>240</dim>
					<dim>2</dim>
					<dim>2</dim>
				</port>
			</input>
			<output>
				<port id="3">
					<dim>1</dim>
					<dim>240</dim>
					<dim>2</dim>
					<dim>2</dim>
				</port>
			</output>
			<blobs>
				<weights offset="2415144" size="8640"/>
				<biases offset="2423784" size="960"/>
			</blobs>
		</layer>
		<layer id="201" name="Conv2D_68" precision="FP32" type="Convolution">
			<data auto_pad="valid" dilations="1,1" group="3" kernel="1,1" output="960" pads_begin="0,0" pads_end="0,0" strides="1,1"/>
			<input>
				<port id="0">
					<dim>1</dim>
					<dim>240</dim>
					<dim>2</dim>
					<dim>2</dim>
				</port>
			</input>
			<output>
				<port id="3">
					<dim>1</dim>
					<dim>960</dim>
					<dim>2</dim>
					<dim>2</dim>
				</port>
			</output>
			<blobs>
				<weights offset="2424744" size="307200"/>
				<biases offset="2731944" size="3840"/>
			</blobs>
		</layer>
		<layer id="202" name="add_8" precision="FP32" type="Eltwise">
			<data operation="sum"/>
			<input>
				<port id="0">
					<dim>1</dim>
					<dim>960</dim>
					<dim>2</dim>
					<dim>2</dim>
				</port>
				<port id="1">
					<dim>1</dim>
					<dim>960</dim>
					<dim>2</dim>
					<dim>2</dim>
				</port>
			</input>
			<output>
				<port id="2">
					<dim>1</dim>
					<dim>960</dim>
					<dim>2</dim>
					<dim>2</dim>
				</port>
			</output>
		</layer>
		<layer id="203" name="Relu_57" precision="FP32" type="ReLU">
			<input>
				<port id="0">
					<dim>1</dim>
					<dim>960</dim>
					<dim>2</dim>
					<dim>2</dim>
				</port>
			</input>
			<output>
				<port id="1">
					<dim>1</dim>
					<dim>960</dim>
					<dim>2</dim>
					<dim>2</dim>
				</port>
			</output>
		</layer>
		<layer id="204" name="Global_pooling" precision="FP32" type="Pooling">
			<data auto_pad="valid" exclude-pad="true" kernel="2,2" pads_begin="0,0" pads_end="0,0" pool-method="avg" strides="1,1"/>
			<input>
				<port id="0">
					<dim>1</dim>
					<dim>960</dim>
					<dim>2</dim>
					<dim>2</dim>
				</port>
			</input>
			<output>
				<port id="1">
					<dim>1</dim>
					<dim>960</dim>
					<dim>1</dim>
					<dim>1</dim>
				</port>
			</output>
		</layer>
		<layer id="205" name="Conv2D_71" precision="FP32" type="Convolution">
			<data auto_pad="same_upper" dilations="1,1" group="1" kernel="1,1" output="36" pads_begin="0,0" pads_end="0,0" strides="1,1"/>
			<input>
				<port id="0">
					<dim>1</dim>
					<dim>960</dim>
					<dim>1</dim>
					<dim>1</dim>
				</port>
			</input>
			<output>
				<port id="3">
					<dim>1</dim>
					<dim>36</dim>
					<dim>1</dim>
					<dim>1</dim>
				</port>
			</output>
			<blobs>
				<weights offset="2735784" size="138240"/>
				<biases offset="2874024" size="144"/>
			</blobs>
		</layer>
		<layer id="206" name="Conv2D_71/Permute_" precision="FP32" type="Permute">
			<data order="0,2,3,1"/>
			<input>
				<port id="0">
					<dim>1</dim>
					<dim>36</dim>
					<dim>1</dim>
					<dim>1</dim>
				</port>
			</input>
			<output>
				<port id="1">
					<dim>1</dim>
					<dim>1</dim>
					<dim>1</dim>
					<dim>36</dim>
				</port>
			</output>
		</layer>
		<layer id="207" name="Squeeze" precision="FP32" type="Reshape">
			<data dim="0,-1"/>
			<input>
				<port id="0">
					<dim>1</dim>
					<dim>1</dim>
					<dim>1</dim>
					<dim>36</dim>
				</port>
			</input>
			<output>
				<port id="1">
					<dim>1</dim>
					<dim>36</dim>
				</port>
			</output>
		</layer>
		<layer id="208" name="Softmax" precision="FP32" type="SoftMax">
			<data axis="1"/>
			<input>
				<port id="0">
					<dim>1</dim>
					<dim>36</dim>
				</port>
			</input>
			<output>
				<port id="1">
					<dim>1</dim>
					<dim>36</dim>
				</port>
			</output>
		</layer>
	</layers>
	<edges>
		<edge from-layer="0" from-port="0" to-layer="1" to-port="0"/>
		<edge from-layer="1" from-port="3" to-layer="2" to-port="0"/>
		<edge from-layer="1" from-port="2" to-layer="3" to-port="0"/>
		<edge from-layer="1" from-port="1" to-layer="4" to-port="0"/>
		<edge from-layer="2" from-port="1" to-layer="5" to-port="0"/>
		<edge from-layer="3" from-port="1" to-layer="5" to-port="1"/>
		<edge from-layer="4" from-port="1" to-layer="5" to-port="2"/>
		<edge from-layer="5" from-port="3" to-layer="6" to-port="0"/>
		<edge from-layer="6" from-port="3" to-layer="7" to-port="0"/>
		<edge from-layer="7" from-port="1" to-layer="8" to-port="0"/>
		<edge from-layer="8" from-port="1" to-layer="9" to-port="0"/>
		<edge from-layer="8" from-port="1" to-layer="10" to-port="0"/>
		<edge from-layer="10" from-port="3" to-layer="11" to-port="0"/>
		<edge from-layer="11" from-port="1" to-layer="12" to-port="0"/>
		<edge from-layer="12" from-port="3" to-layer="13" to-port="0"/>
		<edge from-layer="9" from-port="1" to-layer="14" to-port="0"/>
		<edge from-layer="13" from-port="3" to-layer="14" to-port="1"/>
		<edge from-layer="14" from-port="2" to-layer="15" to-port="0"/>
		<edge from-layer="15" from-port="1" to-layer="16" to-port="0"/>
		<edge from-layer="16" from-port="1" to-layer="17" to-port="0"/>
		<edge from-layer="17" from-port="3" to-layer="18" to-port="0"/>
		<edge from-layer="16" from-port="2" to-layer="19" to-port="0"/>
		<edge from-layer="19" from-port="3" to-layer="20" to-port="0"/>
		<edge from-layer="16" from-port="3" to-layer="21" to-port="0"/>
		<edge from-layer="21" from-port="3" to-layer="22" to-port="0"/>
		<edge from-layer="18" from-port="1" to-layer="23" to-port="0"/>
		<edge from-layer="20" from-port="1" to-layer="23" to-port="1"/>
		<edge from-layer="22" from-port="1" to-layer="23" to-port="2"/>
		<edge from-layer="23" from-port="3" to-layer="24" to-port="0"/>
		<edge from-layer="24" from-port="3" to-layer="25" to-port="0"/>
		<edge from-layer="25" from-port="1" to-layer="26" to-port="0"/>
		<edge from-layer="26" from-port="1" to-layer="27" to-port="0"/>
		<edge from-layer="27" from-port="1" to-layer="28" to-port="0"/>
		<edge from-layer="28" from-port="1" to-layer="29" to-port="0"/>
		<edge from-layer="29" from-port="3" to-layer="30" to-port="0"/>
		<edge from-layer="15" from-port="1" to-layer="31" to-port="0"/>
		<edge from-layer="30" from-port="3" to-layer="31" to-port="1"/>
		<edge from-layer="31" from-port="2" to-layer="32" to-port="0"/>
		<edge from-layer="32" from-port="1" to-layer="33" to-port="0"/>
		<edge from-layer="33" from-port="1" to-layer="34" to-port="0"/>
		<edge from-layer="34" from-port="3" to-layer="35" to-port="0"/>
		<edge from-layer="33" from-port="2" to-layer="36" to-port="0"/>
		<edge from-layer="36" from-port="3" to-layer="37" to-port="0"/>
		<edge from-layer="33" from-port="3" to-layer="38" to-port="0"/>
		<edge from-layer="38" from-port="3" to-layer="39" to-port="0"/>
		<edge from-layer="35" from-port="1" to-layer="40" to-port="0"/>
		<edge from-layer="37" from-port="1" to-layer="40" to-port="1"/>
		<edge from-layer="39" from-port="1" to-layer="40" to-port="2"/>
		<edge from-layer="40" from-port="3" to-layer="41" to-port="0"/>
		<edge from-layer="41" from-port="3" to-layer="42" to-port="0"/>
		<edge from-layer="42" from-port="1" to-layer="43" to-port="0"/>
		<edge from-layer="43" from-port="1" to-layer="44" to-port="0"/>
		<edge from-layer="44" from-port="1" to-layer="45" to-port="0"/>
		<edge from-layer="45" from-port="1" to-layer="46" to-port="0"/>
		<edge from-layer="46" from-port="3" to-layer="47" to-port="0"/>
		<edge from-layer="32" from-port="1" to-layer="48" to-port="0"/>
		<edge from-layer="47" from-port="3" to-layer="48" to-port="1"/>
		<edge from-layer="48" from-port="2" to-layer="49" to-port="0"/>
		<edge from-layer="49" from-port="1" to-layer="50" to-port="0"/>
		<edge from-layer="50" from-port="1" to-layer="51" to-port="0"/>
		<edge from-layer="51" from-port="3" to-layer="52" to-port="0"/>
		<edge from-layer="50" from-port="2" to-layer="53" to-port="0"/>
		<edge from-layer="53" from-port="3" to-layer="54" to-port="0"/>
		<edge from-layer="50" from-port="3" to-layer="55" to-port="0"/>
		<edge from-layer="55" from-port="3" to-layer="56" to-port="0"/>
		<edge from-layer="52" from-port="1" to-layer="57" to-port="0"/>
		<edge from-layer="54" from-port="1" to-layer="57" to-port="1"/>
		<edge from-layer="56" from-port="1" to-layer="57" to-port="2"/>
		<edge from-layer="57" from-port="3" to-layer="58" to-port="0"/>
		<edge from-layer="58" from-port="3" to-layer="59" to-port="0"/>
		<edge from-layer="59" from-port="1" to-layer="60" to-port="0"/>
		<edge from-layer="60" from-port="1" to-layer="61" to-port="0"/>
		<edge from-layer="61" from-port="1" to-layer="62" to-port="0"/>
		<edge from-layer="62" from-port="1" to-layer="63" to-port="0"/>
		<edge from-layer="63" from-port="3" to-layer="64" to-port="0"/>
		<edge from-layer="49" from-port="1" to-layer="65" to-port="0"/>
		<edge from-layer="64" from-port="3" to-layer="65" to-port="1"/>
		<edge from-layer="65" from-port="2" to-layer="66" to-port="0"/>
		<edge from-layer="66" from-port="1" to-layer="67" to-port="0"/>
		<edge from-layer="66" from-port="1" to-layer="68" to-port="0"/>
		<edge from-layer="68" from-port="1" to-layer="69" to-port="0"/>
		<edge from-layer="69" from-port="3" to-layer="70" to-port="0"/>
		<edge from-layer="68" from-port="2" to-layer="71" to-port="0"/>
		<edge from-layer="71" from-port="3" to-layer="72" to-port="0"/>
		<edge from-layer="68" from-port="3" to-layer="73" to-port="0"/>
		<edge from-layer="73" from-port="3" to-layer="74" to-port="0"/>
		<edge from-layer="70" from-port="1" to-layer="75" to-port="0"/>
		<edge from-layer="72" from-port="1" to-layer="75" to-port="1"/>
		<edge from-layer="74" from-port="1" to-layer="75" to-port="2"/>
		<edge from-layer="75" from-port="3" to-layer="76" to-port="0"/>
		<edge from-layer="76" from-port="3" to-layer="77" to-port="0"/>
		<edge from-layer="77" from-port="1" to-layer="78" to-port="0"/>
		<edge from-layer="78" from-port="1" to-layer="79" to-port="0"/>
		<edge from-layer="79" from-port="1" to-layer="80" to-port="0"/>
		<edge from-layer="80" from-port="1" to-layer="81" to-port="0"/>
		<edge from-layer="81" from-port="3" to-layer="82" to-port="0"/>
		<edge from-layer="67" from-port="1" to-layer="83" to-port="0"/>
		<edge from-layer="82" from-port="3" to-layer="83" to-port="1"/>
		<edge from-layer="83" from-port="2" to-layer="84" to-port="0"/>
		<edge from-layer="84" from-port="1" to-layer="85" to-port="0"/>
		<edge from-layer="85" from-port="1" to-layer="86" to-port="0"/>
		<edge from-layer="86" from-port="3" to-layer="87" to-port="0"/>
		<edge from-layer="85" from-port="2" to-layer="88" to-port="0"/>
		<edge from-layer="88" from-port="3" to-layer="89" to-port="0"/>
		<edge from-layer="85" from-port="3" to-layer="90" to-port="0"/>
		<edge from-layer="90" from-port="3" to-layer="91" to-port="0"/>
		<edge from-layer="87" from-port="1" to-layer="92" to-port="0"/>
		<edge from-layer="89" from-port="1" to-layer="92" to-port="1"/>
		<edge from-layer="91" from-port="1" to-layer="92" to-port="2"/>
		<edge from-layer="92" from-port="3" to-layer="93" to-port="0"/>
		<edge from-layer="93" from-port="3" to-layer="94" to-port="0"/>
		<edge from-layer="94" from-port="1" to-layer="95" to-port="0"/>
		<edge from-layer="95" from-port="1" to-layer="96" to-port="0"/>
		<edge from-layer="96" from-port="1" to-layer="97" to-port="0"/>
		<edge from-layer="97" from-port="1" to-layer="98" to-port="0"/>
		<edge from-layer="98" from-port="3" to-layer="99" to-port="0"/>
		<edge from-layer="84" from-port="1" to-layer="100" to-port="0"/>
		<edge from-layer="99" from-port="3" to-layer="100" to-port="1"/>
		<edge from-layer="100" from-port="2" to-layer="101" to-port="0"/>
		<edge from-layer="101" from-port="1" to-layer="102" to-port="0"/>
		<edge from-layer="102" from-port="1" to-layer="103" to-port="0"/>
		<edge from-layer="103" from-port="3" to-layer="104" to-port="0"/>
		<edge from-layer="102" from-port="2" to-layer="105" to-port="0"/>
		<edge from-layer="105" from-port="3" to-layer="106" to-port="0"/>
		<edge from-layer="102" from-port="3" to-layer="107" to-port="0"/>
		<edge from-layer="107" from-port="3" to-layer="108" to-port="0"/>
		<edge from-layer="104" from-port="1" to-layer="109" to-port="0"/>
		<edge from-layer="106" from-port="1" to-layer="109" to-port="1"/>
		<edge from-layer="108" from-port="1" to-layer="109" to-port="2"/>
		<edge from-layer="109" from-port="3" to-layer="110" to-port="0"/>
		<edge from-layer="110" from-port="3" to-layer="111" to-port="0"/>
		<edge from-layer="111" from-port="1" to-layer="112" to-port="0"/>
		<edge from-layer="112" from-port="1" to-layer="113" to-port="0"/>
		<edge from-layer="113" from-port="1" to-layer="114" to-port="0"/>
		<edge from-layer="114" from-port="1" to-layer="115" to-port="0"/>
		<edge from-layer="115" from-port="3" to-layer="116" to-port="0"/>
		<edge from-layer="101" from-port="1" to-layer="117" to-port="0"/>
		<edge from-layer="116" from-port="3" to-layer="117" to-port="1"/>
		<edge from-layer="117" from-port="2" to-layer="118" to-port="0"/>
		<edge from-layer="118" from-port="1" to-layer="119" to-port="0"/>
		<edge from-layer="119" from-port="1" to-layer="120" to-port="0"/>
		<edge from-layer="120" from-port="3" to-layer="121" to-port="0"/>
		<edge from-layer="119" from-port="2" to-layer="122" to-port="0"/>
		<edge from-layer="122" from-port="3" to-layer="123" to-port="0"/>
		<edge from-layer="119" from-port="3" to-layer="124" to-port="0"/>
		<edge from-layer="124" from-port="3" to-layer="125" to-port="0"/>
		<edge from-layer="121" from-port="1" to-layer="126" to-port="0"/>
		<edge from-layer="123" from-port="1" to-layer="126" to-port="1"/>
		<edge from-layer="125" from-port="1" to-layer="126" to-port="2"/>
		<edge from-layer="126" from-port="3" to-layer="127" to-port="0"/>
		<edge from-layer="127" from-port="3" to-layer="128" to-port="0"/>
		<edge from-layer="128" from-port="1" to-layer="129" to-port="0"/>
		<edge from-layer="129" from-port="1" to-layer="130" to-port="0"/>
		<edge from-layer="130" from-port="1" to-layer="131" to-port="0"/>
		<edge from-layer="131" from-port="1" to-layer="132" to-port="0"/>
		<edge from-layer="132" from-port="3" to-layer="133" to-port="0"/>
		<edge from-layer="118" from-port="1" to-layer="134" to-port="0"/>
		<edge from-layer="133" from-port="3" to-layer="134" to-port="1"/>
		<edge from-layer="134" from-port="2" to-layer="135" to-port="0"/>
		<edge from-layer="135" from-port="1" to-layer="136" to-port="0"/>
		<edge from-layer="136" from-port="1" to-layer="137" to-port="0"/>
		<edge from-layer="137" from-port="3" to-layer="138" to-port="0"/>
		<edge from-layer="136" from-port="2" to-layer="139" to-port="0"/>
		<edge from-layer="139" from-port="3" to-layer="140" to-port="0"/>
		<edge from-layer="136" from-port="3" to-layer="141" to-port="0"/>
		<edge from-layer="141" from-port="3" to-layer="142" to-port="0"/>
		<edge from-layer="138" from-port="1" to-layer="143" to-port="0"/>
		<edge from-layer="140" from-port="1" to-layer="143" to-port="1"/>
		<edge from-layer="142" from-port="1" to-layer="143" to-port="2"/>
		<edge from-layer="143" from-port="3" to-layer="144" to-port="0"/>
		<edge from-layer="144" from-port="3" to-layer="145" to-port="0"/>
		<edge from-layer="145" from-port="1" to-layer="146" to-port="0"/>
		<edge from-layer="146" from-port="1" to-layer="147" to-port="0"/>
		<edge from-layer="147" from-port="1" to-layer="148" to-port="0"/>
		<edge from-layer="148" from-port="1" to-layer="149" to-port="0"/>
		<edge from-layer="149" from-port="3" to-layer="150" to-port="0"/>
		<edge from-layer="135" from-port="1" to-layer="151" to-port="0"/>
		<edge from-layer="150" from-port="3" to-layer="151" to-port="1"/>
		<edge from-layer="151" from-port="2" to-layer="152" to-port="0"/>
		<edge from-layer="152" from-port="1" to-layer="153" to-port="0"/>
		<edge from-layer="153" from-port="1" to-layer="154" to-port="0"/>
		<edge from-layer="154" from-port="3" to-layer="155" to-port="0"/>
		<edge from-layer="153" from-port="2" to-layer="156" to-port="0"/>
		<edge from-layer="156" from-port="3" to-layer="157" to-port="0"/>
		<edge from-layer="153" from-port="3" to-layer="158" to-port="0"/>
		<edge from-layer="158" from-port="3" to-layer="159" to-port="0"/>
		<edge from-layer="155" from-port="1" to-layer="160" to-port="0"/>
		<edge from-layer="157" from-port="1" to-layer="160" to-port="1"/>
		<edge from-layer="159" from-port="1" to-layer="160" to-port="2"/>
		<edge from-layer="160" from-port="3" to-layer="161" to-port="0"/>
		<edge from-layer="161" from-port="3" to-layer="162" to-port="0"/>
		<edge from-layer="162" from-port="1" to-layer="163" to-port="0"/>
		<edge from-layer="163" from-port="1" to-layer="164" to-port="0"/>
		<edge from-layer="164" from-port="1" to-layer="165" to-port="0"/>
		<edge from-layer="165" from-port="1" to-layer="166" to-port="0"/>
		<edge from-layer="166" from-port="3" to-layer="167" to-port="0"/>
		<edge from-layer="152" from-port="1" to-layer="168" to-port="0"/>
		<edge from-layer="167" from-port="3" to-layer="168" to-port="1"/>
		<edge from-layer="168" from-port="2" to-layer="169" to-port="0"/>
		<edge from-layer="169" from-port="1" to-layer="170" to-port="0"/>
		<edge from-layer="170" from-port="1" to-layer="171" to-port="0"/>
		<edge from-layer="171" from-port="3" to-layer="172" to-port="0"/>
		<edge from-layer="170" from-port="2" to-layer="173" to-port="0"/>
		<edge from-layer="173" from-port="3" to-layer="174" to-port="0"/>
		<edge from-layer="170" from-port="3" to-layer="175" to-port="0"/>
		<edge from-layer="175" from-port="3" to-layer="176" to-port="0"/>
		<edge from-layer="172" from-port="1" to-layer="177" to-port="0"/>
		<edge from-layer="174" from-port="1" to-layer="177" to-port="1"/>
		<edge from-layer="176" from-port="1" to-layer="177" to-port="2"/>
		<edge from-layer="177" from-port="3" to-layer="178" to-port="0"/>
		<edge from-layer="178" from-port="3" to-layer="179" to-port="0"/>
		<edge from-layer="179" from-port="1" to-layer="180" to-port="0"/>
		<edge from-layer="180" from-port="1" to-layer="181" to-port="0"/>
		<edge from-layer="181" from-port="1" to-layer="182" to-port="0"/>
		<edge from-layer="182" from-port="1" to-layer="183" to-port="0"/>
		<edge from-layer="183" from-port="3" to-layer="184" to-port="0"/>
		<edge from-layer="169" from-port="1" to-layer="185" to-port="0"/>
		<edge from-layer="184" from-port="3" to-layer="185" to-port="1"/>
		<edge from-layer="185" from-port="2" to-layer="186" to-port="0"/>
		<edge from-layer="186" from-port="1" to-layer="187" to-port="0"/>
		<edge from-layer="187" from-port="1" to-layer="188" to-port="0"/>
		<edge from-layer="188" from-port="3" to-layer="189" to-port="0"/>
		<edge from-layer="187" from-port="2" to-layer="190" to-port="0"/>
		<edge from-layer="190" from-port="3" to-layer="191" to-port="0"/>
		<edge from-layer="187" from-port="3" to-layer="192" to-port="0"/>
		<edge from-layer="192" from-port="3" to-layer="193" to-port="0"/>
		<edge from-layer="189" from-port="1" to-layer="194" to-port="0"/>
		<edge from-layer="191" from-port="1" to-layer="194" to-port="1"/>
		<edge from-layer="193" from-port="1" to-layer="194" to-port="2"/>
		<edge from-layer="194" from-port="3" to-layer="195" to-port="0"/>
		<edge from-layer="195" from-port="3" to-layer="196" to-port="0"/>
		<edge from-layer="196" from-port="1" to-layer="197" to-port="0"/>
		<edge from-layer="197" from-port="1" to-layer="198" to-port="0"/>
		<edge from-layer="198" from-port="1" to-layer="199" to-port="0"/>
		<edge from-layer="199" from-port="1" to-layer="200" to-port="0"/>
		<edge from-layer="200" from-port="3" to-layer="201" to-port="0"/>
		<edge from-layer="186" from-port="1" to-layer="202" to-port="0"/>
		<edge from-layer="201" from-port="3" to-layer="202" to-port="1"/>
		<edge from-layer="202" from-port="2" to-layer="203" to-port="0"/>
		<edge from-layer="203" from-port="1" to-layer="204" to-port="0"/>
		<edge from-layer="204" from-port="1" to-layer="205" to-port="0"/>
		<edge from-layer="205" from-port="3" to-layer="206" to-port="0"/>
		<edge from-layer="206" from-port="1" to-layer="207" to-port="0"/>
		<edge from-layer="207" from-port="1" to-layer="208" to-port="0"/>
	</edges>
	<meta_data>
		<MO_version value="1.5.12.49d067a0"/>
		<cli_parameters>
			<data_type value="float"/>
			<disable_fusing value="False"/>
			<disable_gfusing value="False"/>
			<disable_nhwc_to_nchw value="False"/>
			<disable_resnet_optimization value="False"/>
			<extensions value="DIR"/>
			<framework value="tf"/>
			<generate_deprecated_IR_V2 value="False"/>
			<input_model value="DIR\ShuffleNetV1_M4-5000.pb"/>
			<input_model_is_text value="False"/>
			<input_shape value="[1,28,28,3]"/>
			<log_level value="ERROR"/>
			<mean_values value="()"/>
			<move_to_preprocess value="False"/>
			<offload_unsupported_operations_to_tf value="False"/>
			<output_dir value="DIR"/>
			<reverse_input_channels value="False"/>
			<scale_values value="()"/>
			<silent value="False"/>
			<version value="False"/>
			<unset unset_cli_parameters="batch, finegrain_fusing, freeze_placeholder_with_value, input, input_checkpoint, input_meta_graph, model_name, output, saved_model_dir, saved_model_tags, scale, tensorboard_logdir, tensorflow_custom_layer_libraries, tensorflow_custom_operations_config_update, tensorflow_object_detection_api_pipeline_config, tensorflow_operation_patterns, tensorflow_subgraph_patterns, tensorflow_use_custom_operations_config"/>
		</cli_parameters>
	</meta_data>
</net>
